project_2/part_2/models/magda/cifar/best_model4.ckpt (torch, 333443 bytes, 36 tensors)

conv1.0.weight f4 [16, 3, 3, 3]
0	0xbbd7ef36	-0.0065897955
1	0xbe162be0	-0.14665174
2	0xbc961722	-0.018321577
3	0x3df35d8c	0.11883077
4	0xbe2739c5	-0.16330631
5	0x3e1128cf	0.14175723
6	0x3da2e883	0.07954504
7	0xbe0e1639	-0.13875665
8	0x3dacb194	0.08432308
9	0xbe389aa0	-0.18027735
10	0xbc1b3a0c	-0.009474289
11	0xbd8f6a63	-0.070027135
12	0xbe4095d1	-0.1880715
13	0x3df3fcaa	0.11913426
14	0xbd810143	-0.06299069
15	0xbde0944e	-0.10965787
16	0xbe2ae309	-0.1668817
17	0xbd92ce7f	-0.07168292
18	0xbe2946b1	-0.16530873
19	0xbdcf040e	-0.10108195
20	0x3e43f7f5	0.19137557
21	0x3e279c18	0.16368139
22	0x3e210c8a	0.1572744
23	0x3db6aa3c	0.089191884
24	0xbb985062	-0.0046482543
25	0x3e2d2452	0.16908386
26	0xbe1e31af	-0.1544864
27	0x3decf09b	0.11569329
28	0x3d88d6cb	0.066815935
29	0xbcb4fdc8	-0.022093669
30	0xbd41955e	-0.04726159
31	0x3dd2834f	0.102789514
32	0xbbc6ee56	-0.0060708923
33	0xbe3548ca	-0.17703548
34	0x3cf0ef02	0.029410843
35	0xbe28cb6f	-0.16483854
36	0xbe134af8	-0.14384067
37	0x3d4eb409	0.050464664
38	0xbe014ecd	-0.12627716
39	0xbb4c3898	-0.0031161662
40	0x3d66cb82	0.056346424
41	0xbd987d3d	-0.07445762
42	0x3dc01945	0.0937982
43	0xbd8c1615	-0.06840149
44	0x3d4825e6	0.048864268
45	0xbcf82ef1	-0.03029582
46	0x3e231afb	0.15928261
47	0x3e2bb2aa	0.16767374
48	0x3d495727	0.04915538
49	0x3e3986d5	0.1811784
50	0x3decfaa8	0.115712464
51	0xbdebff6c	-0.11523327
52	0xbe380d1e	-0.17973754
53	0x3dee60bc	0.11639544
54	0x3db441c2	0.08801605
55	0xbd5553ea	-0.05208198
56	0x3d0529eb	0.03251068
57	0x3db0969e	0.08622478
58	0xbd7da729	-0.061926994
59	0x3e205e7f	0.15661047
60	0xbdbd4695	-0.09241978
61	0x3decf170	0.11569488
62	0x3d4c66a1	0.049902562
63	0xbde336ea	-0.110944584
64	0x3e00f188	0.12592137
65	0x3db4a733	0.08820953
66	0xbcb94746	-0.022616994
67	0xbe1d2c34	-0.15348893
68	0xbd03b3d9	-0.032153938
69	0xbe269bd6	-0.16270384
70	0x3c4d14e8	0.0125171915
71	0x3e08aac7	0.13346396
72	0xbd813e45	-0.06310705
73	0xbda46c6d	-0.08028493
74	0xbe1e459d	-0.15456243
75	0x3d7dad27	0.06193271
76	0xbcc21b9b	-0.023694804
77	0xbe03d229	-0.12873138
78	0xbd1b0e2f	-0.037855323
79	0xbe257ba8	-0.16160452
80	0x3d06924e	0.03285437
81	0x3e30a4ce	0.17250368
82	0xbe01fc98	-0.12694013
83	0xbdb2a49d	-0.08722804
84	0xbe207fae	-0.15673706
85	0xbd45ba3b	-0.048273306
86	0x3e154f9a	0.14581147
87	0x3d2d7e2b	0.04235665
88	0xbe05f2ff	-0.13080977
89	0xbe2ef8d4	-0.17087108
90	0xbcc9415a	-0.024567295
91	0xbe3bf461	-0.18354942
92	0x3e1e0725	0.15432413
93	0x3e26930a	0.16267028
94	0x3e0a96a4	0.13534027
95	0x3e25654a	0.1615192
96	0xbe38b83f	-0.18039034
97	0x3e31b63e	0.17354676
98	0xbe291b38	-0.1651429
99	0xbc4d5889	-0.012533315
100	0x3d74bf69	0.059752855
101	0xbc21df6d	-0.009879929
102	0xbd81afb3	-0.0633234
103	0xbde08554	-0.1096293
104	0x3e10704e	0.14105341
105	0xbe068ffa	-0.1314086
106	0x3e0bccb3	0.13652305
107	0x3ca8f065	0.020622442
108	0x3e0f39ec	0.13986939
109	0xbdb1286a	-0.086502865
110	0xbe294a34	-0.16532212
111	0xbd38d56c	-0.04512541
112	0xbd27cef4	-0.04096885
113	0x3e13a6c1	0.1441908
114	0x3de3e755	0.111281075
115	0x3de8a412	0.11359419
116	0x3e31d4fc	0.17366403
117	0xbdd1c088	-0.102418005
118	0x3dbeb7d6	0.09312408
119	0xbe1bc2ae	-0.15210983
120	0x3e0cf9fa	0.13767233
121	0xbdfa9dca	-0.12237127
122	0xbe27003d	-0.16308685
123	0xbe028cbc	-0.12748998
124	0xbd80e24c	-0.06293163
125	0xbe2802f0	-0.1640737
126	0xbe07f8c7	-0.13278495
127	0xbca071d1	-0.019585522
128	0x3de8fbdb	0.113761626
129	0xbd537391	-0.051623885
130	0xbd6b3ebc	-0.057432875
131	0xbcf57200	-0.029961586
132	0xbd2428b4	-0.04007788
133	0x3ba12af6	0.0049184514
134	0xbe36db33	-0.17857055
135	0x3e302557	0.17201744
136	0x3c040fa4	0.00806037
137	0xbe2e6dcc	-0.17034072
138	0xbd92a61f	-0.07160591
139	0xbe2df12d	-0.16986533
140	0x3e228f88	0.15875065
141	0x3e2acef3	0.16680507
142	0x3e1ba7e0	0.15200758
143	0x3e2e90f8	0.17047489
144	0x3d8ed051	0.06973327
145	0x3e29a2dc	0.16566032
146	0x3b1258cb	0.0022330757
147	0xbe3a56b8	-0.18197143
148	0x3d144eba	0.036207892
149	0x3cdb4ce8	0.02677007
150	0xbe31f415	-0.17378266
151	0xbc18f52e	-0.009335799
152	0xbd46e1d0	-0.048555195
153	0xbdeec18d	-0.11658011
154	0x3ddf0ce7	0.10891133
155	0x3e2cb317	0.16865192
156	0xbe1e6cea	-0.15471235
157	0x3d4f5ca2	0.05062545
158	0xbdd5233d	-0.10407112
159	0xbe26b401	-0.16279604
160	0x3c1d6fcf	0.009609177
161	0xbdc09565	-0.09403495
162	0xbce2f2c4	-0.02770365
163	0xbe0cd7a2	-0.13754132
164	0xbd1cd98c	-0.038293406
165	0x3daf872b	0.08570703
166	0x3cbc1f8c	0.022964261
167	0x3d931025	0.07180814
168	0xbdcabe99	-0.09899635
169	0x3db95873	0.090500735
170	0xbe105fb6	-0.14099011
171	0x3d63307b	0.055466156
172	0x3d3fa7fe	0.04679107
173	0x3e494593	0.19655447
174	0x3dc77f79	0.0974111
175	0x3c22134f	0.009892299
176	0xbe0b2d9c	-0.13591617
177	0x3dc34633	0.09534874
178	0x3d8862cc	0.06659469
179	0x3dcec3f4	0.10095969
180	0x3e1a7f33	0.15087585
181	0x3c64bee8	0.013961531
182	0x3ce1065f	0.027468858
183	0x3e1576b6	0.14596066
184	0xbde78bb5	-0.11305944
185	0xbd8e59fe	-0.069507584
186	0x3e06c517	0.13161121
187	0x3e0f01e7	0.1396557
188	0xbdfa3189	-0.12216479
189	0xb99f6bd6	-0.00030407187
190	0xbc9b9e05	-0.018996248
191	0x3e0554d7	0.13020645
192	0xba1d587b	-0.00060022593
193	0x3df7bcc2	0.120965496
194	0xbd1cde8a	-0.038298167
195	0xbda26018	-0.07928485
196	0x3e214f0a	0.15752807
197	0xbe29b68e	-0.16573545
198	0x3e04f8dc	0.12985557
199	0x3e271a1a	0.1631855
200	0xbd1c8fef	-0.038223203
201	0xbc2e7cb0	-0.010649845
202	0xbded2e0e	-0.1158105
203	0x3e0f32a3	0.1398416
204	0xbdaa0afd	-0.08302877
205	0xbe18dac0	-0.14927197
206	0xbdcf94f4	-0.101358324
207	0xbde2b522	-0.110697046
208	0xbdf2e81d	-0.11860678
209	0xbd4279f0	-0.04747957
210	0xbd1434c9	-0.036183152
211	0x3dac66de	0.08418058
212	0x3dbf9a6e	0.09355627
213	0x3db9bb64	0.09068945
214	0xbe2e19aa	-0.17001978
215	0xbe2ec6ea	-0.17068067
216	0x3d9d8ecb	0.07693251
217	0x3e35a9e1	0.17740585
218	0x3c85396d	0.016262734
219	0x3e1af945	0.15134151
220	0xbd41a6d9	-0.04727826
221	0x3decf37c	0.115698785
222	0xbe29016e	-0.16504452
223	0x3e3d38fa	0.18478766
224	0xbde7bfa7	-0.11315852
225	0x3d81ad2a	0.063318565
226	0xbdcc5f11	-0.0997907
227	0xbe3ba0f3	-0.18323116
228	0xbb8e0d28	-0.0043350644
229	0x3d6cd0cb	0.057816308
230	0x3e2d5a42	0.16928962
231	0x3bae09e2	0.0053112367
232	0xbe259df3	-0.16173534
233	0x3c184258	0.009293161
234	0xbe0d35eb	-0.137901
235	0xbcfe4bf2	-0.031042073
236	0xbe183a40	-0.1486597
237	0xbe30df22	-0.17272618
238	0xbe3a697c	-0.18204302
239	0x3e07b802	0.13253787
240	0xbddc0316	-0.10742776
241	0x3d65ee57	0.0561355
242	0xbd4ecf75	-0.050490815
243	0xbe32c318	-0.17457235
244	0xbe11f4cf	-0.14253543
245	0xbb98ac4b	-0.004659211
246	0xbe105a87	-0.14097033
247	0xbd5436e8	-0.051810175
248	0x3c986544	0.018602975
249	0xbdc20235	-0.09473077
250	0xbd4cba87	-0.049982574
251	0xbc1a3971	-0.009413109
252	0x3e324faf	0.1741321
253	0x3e3d31bf	0.18476008
254	0x3b8476d6	0.0040424867
255	0x3de60ca8	0.11232883

conv1.0.bias f4 [16]
0	0xbd44daf3	-0.04806037
1	0x3defb290	0.1170398
2	0x3d45ab97	0.048259344
3	0x3d94ab92	0.07259287
4	0x3df62741	0.12019206
5	0xbd693a1a	-0.056940176
6	0x3da6d334	0.081457525
7	0x3d8fc00a	0.070190504
8	0xbce72bd8	-0.028219149
9	0xbccba13f	-0.024857162
10	0x3e288c79	0.16459836
11	0x3df87b5b	0.12132903
12	0x3b8aca0c	0.0042355116
13	0xbde7a54c	-0.11310825
14	0xbc8cde0d	-0.017195726
15	0x3d7a0ee0	0.061049342

conv2.0.weight f4 [16, 16, 3, 3]
0	0x3d8359cc	0.06413612
1	0xbd97c7df	-0.07411169
2	0xbb38efb6	-0.002821905
3	0xbd5e1582	-0.05421973
4	0x3d7c061e	0.06152927
5	0x3d9f0288	0.07764155
6	0xbc0f1e41	-0.00873524
7	0xbd69dfc9	-0.057098184
8	0x3d198cf7	0.03748795
9	0xbd0c9e1d	-0.034330476
10	0xbd303428	-0.04301849
11	0x3d875f70	0.0661
12	0xbd801505	-0.06254009
13	0x3aae66ba	0.0013305761
14	0x3d631619	0.055440996
15	0x3bfc1d36	0.007693912
16	0x3cb49bd0	0.022046953
17	0x3b02c09b	0.0019951228
18	0xbc961baf	-0.018323747
19	0xbc874634	-0.016512968
20	0x3d0de267	0.034639742
21	0xbd15de0a	-0.036588706
22	0xbd5d67cf	-0.054054078
23	0x3d193105	0.037400264
24	0xbc7f5566	-0.015584325
25	0x3d38ef03	0.045149814
26	0xbc2e3abe	-0.010634122
27	0x3d871ed1	0.06597675
28	0x3d904865	0.07045058
29	0xbc9ca6ef	-0.019122569
30	0xbd141cdc	-0.036160335
31	0xbd76f8ca	-0.060295857
32	0xbd8c694f	-0.068560235
33	0xbd958cdb	-0.07302257
34	0xbd74a027	-0.059723046
35	0x3d4bd2cd	0.049761582
36	0xbd77349f	-0.060352918
37	0x3d881b26	0.06645803
38	0xbd509cdb	-0.05093084
39	0x3d5448a7	0.0518271
40	0xbd30401a	-0.043029882
41	0x3ce0ef6c	0.027457915
42	0xbd94812a	-0.072511986
43	0x3cbb3037	0.022850139
44	0x3d9b4eda	0.07583399
45	0xbd49a8b8	-0.04923317
46	0x3d988a01	0.07448197
47	0x3c76914d	0.015049291
48	0x3d8b4dc6	0.068019435
49	0xbda0c495	-0.07849995
50	0xbcdd7ab0	-0.027036041
51	0x3c01bb03	0.007918122
52	0xbd645068	-0.055740744
53	0xbd30bc5d	-0.043148387
54	0x3d852976	0.06502049
55	0xbb33aa42	-0.0027414714
56	0x3c5e6e80	0.01357615
57	0x3d1b5b24	0.037928715
58	0xbda750df	-0.08169722
59	0xbd3014eb	-0.0429887
60	0x3d845df1	0.064632304
61	0xbc3f3254	-0.011669714
62	0xbd9e5c46	-0.077324435
63	0x3d1fb9c0	0.038995504
64	0xbb89ca54	-0.0042050276
65	0x3d83639b	0.064154826
66	0xbcaf02ef	-0.021363704
67	0xbd8f196e	-0.06987272
68	0xbc9e2c9d	-0.019308383
69	0xbd17e675	-0.037085015
70	0x3bda0ea3	0.006654577
71	0xbcd421bd	-0.025894994
72	0xbd0f1982	-0.034936436
73	0xbd85d181	-0.065341
74	0xbca75d3c	-0.0204302
75	0x3cfcf2d3	0.030877506
76	0x3d92e3d1	0.07172359
77	0xbdb09d50	-0.08623755
78	0x3d8061c5	0.06268648
79	0x3d861099	0.065461345
80	0x3cbd3be2	0.023099843
81	0x3d12a421	0.035801057
82	0xbcc4f7ec	-0.024044
83	0xbab6d407	-0.0013948687
84	0x3d95664e	0.07294904
85	0xbcd4fdf8	-0.026000008
86	0x3d26d13f	0.040726896
87	0x3d5a5370	0.05330223
88	0xbdab6c4b	-0.083702646
89	0xbd6b5508	-0.05745414
90	0xbdac11df	-0.08401846
91	0x3d8f8a75	0.070088305
92	0xbbacedab	-0.0052773557
93	0x3d4683da	0.048465587
94	0xbdafcf90	-0.08584511
95	0xbd5e4cb5	-0.054272372
96	0xbda3a413	-0.07990279
97	0x3d80961c	0.06278631
98	0x3d991ddd	0.07476399
99	0xbdb011fe	-0.08597182
100	0x3cd4c964	0.025974937
101	0x3d415fc5	0.047210474
102	0x3d2c72a9	0.042101536
103	0x3c3739f1	0.011183248
104	0xbca70d1f	-0.020391999
105	0x3d7d0b63	0.061778437
106	0x3cf6216d	0.030045236
107	0xbd13fc38	-0.036129206
108	0x3da4d777	0.08048909
109	0xbcb725f0	-0.022356957
110	0x3d1f73de	0.03892886
111	0x3cf6e13e	0.0301367
112	0x3d351f55	0.044219334
113	0x38fa6375	0.00011939454
114	0x3d33870e	0.04382997
115	0x3aed6d2d	0.0018114202
116	0x3d31e7a4	0.0434338
117	0xbc3335b2	-0.010938095
118	0xbc67c4da	-0.014146054
119	0x3d0f208a	0.03494314
120	0xbd21d838	-0.039512843
121	0x3c979639	0.018504249
122	0xbca7476c	-0.020419799
123	0x3d0b7ba8	0.034053475
124	0xbcbfaf67	-0.023399068
125	0xbd373b48	-0.04473427
126	0xbcfb7c81	-0.030699017
127	0xbcba5f0c	-0.0227504
128	0xbd85de2a	-0.06536515
129	0x3cef8809	0.029239671
130	0xbd4d8736	-0.050177775
131	0xbd514227	-0.05108848
132	0xbd486d67	-0.04893246
133	0x3c7844ab	0.0151530905
134	0xbc1c9ce6	-0.009558892
135	0xbd87cd29	-0.06630928
136	0x3c4586b7	0.012056044
137	0x3d8a1768	0.06742746
138	0x3d69ac0b	0.05704884
139	0xbd222c88	-0.03959325
140	0x3d64f4eb	0.055897634
141	0xbd07a235	-0.033113677
142	0xbd90369c	-0.07041666
143	0xbc23486c	-0.009965997
144	0xbcf981cb	-0.030457398
145	0xbd193edc	-0.037413463
146	0x3d134ba3	0.035960805
147	0xbc1d9201	-0.00961733
148	0xbd8e4e5b	-0.06948539
149	0xbd5ff294	-0.0546747
150	0xbd64c775	-0.05585428
151	0x3d869a0f	0.06572353
152	0x3d27ad98	0.040937036
153	0x3d88d936	0.06682055
154	0x3cbb0f2b	0.022834381
155	0xbdb097c7	-0.08622699
156	0x3d4242cc	0.047426984
157	0x3d7aae8e	0.061201625
158	0x3c621c3b	0.013800676
159	0x3d624183	0.055238258
160	0xbd6b3986	-0.057427905
161	0x3d223732	0.03960342
162	0xbd5b4c0e	-0.05353933
163	0xbd35e74d	-0.04441004
164	0xbd6e9a90	-0.05825287
165	0xbc46a5af	-0.012124463
166	0xbd255c4b	-0.04037122
167	0x3d1e67e2	0.03867329
168	0x3b446a44	0.0029970566
169	0x3d9b1b20	0.07573533
170	0x3b12fce9	0.0022428578
171	0xbb2547ef	-0.0025219878
172	0x3d082524	0.033238545
173	0x3d18972f	0.037253555
174	0x3cf7a020	0.03022772
175	0x3d9587ba	0.073012784
176	0x3d72e24e	0.059297852
177	0xbd6108d2	-0.054940052
178	0x3d29a92b	0.041421097
179	0x3c8e106c	0.017341815
180	0xbd8185fe	-0.06324385
181	0xbd514193	-0.051087927
182	0xbd21c6c2	-0.03949619
183	0xbcae2f1f	-0.021262703
184	0x3d5057b2	0.050864883
185	0xbd8b4677	-0.068005495
186	0x3ce71171	0.028206559
187	0xbd9d0725	-0.07667378
188	0x3c935434	0.017984487
189	0x3d080e09	0.03321651
190	0x3d9f1f42	0.07769634
191	0xbd99a146	-0.075014636
192	0xbd0985d0	-0.03357488
193	0xbd85e0bb	-0.065370046
194	0x3d4d157c	0.050069317
195	0x3d8ec9f8	0.06972116
196	0xbd9674b1	-0.07346476
197	0x3c9b005c	0.01892107
198	0xbbe910af	-0.0071125845
199	0xbd45983d	-0.04824089
200	0xbd8c012f	-0.06836163
201	0xbdab7543	-0.08371975
202	0x3d4bb308	0.049731284
203	0xbd92455a	-0.07142134
204	0xbc9e8478	-0.019350275
205	0x3d1fea00	0.03904152
206	0x3d0091da	0.031389095
207	0x3d3dd275	0.046343286
208	0xbd5388eb	-0.051644247
209	0x3b576344	0.0032865563
210	0xbca3ea57	-0.020009203
211	0x3d85c7e8	0.0653227
212	0xbd5bf760	-0.053702712
213	0x3c6c40d4	0.014419753
214	0xbd73e051	-0.059540097
215	0xbd95907d	-0.073029496
216	0x3cdbcb1c	0.026830249
217	0xbd0ba7fd	-0.034095753
218	0x3da07e37	0.078365736
219	0x3d5d9fc5	0.054107446
220	0x3d7fb3f4	0.062427476
221	0x3ca16b36	0.019704442
222	0x3bc82313	0.006107697
223	0xbc98b4b3	-0.018640852
224	0x3daa0d03	0.08303263
225	0x3d416fe3	0.047225844
226	0xbd1cd17d	-0.03828572
227	0xbd3e9eba	-0.046538092
228	0xbd96423e	-0.073368534
229	0xbd8558c0	-0.06511068
230	0xbd791657	-0.06081232
231	0x3d41671a	0.047217466
232	0x3d978536	0.07398455
233	0x3cbcce08	0.023047462
234	0x3d91dc1f	0.07122063
235	0xbcac66df	-0.021045147
236	0x3d80febd	0.062985875
237	0xbbe9ef2c	-0.007139107
238	0x3d13bbbf	0.03606772
239	0xbd9beebd	-0.07613895
240	0x3d897915	0.06712548
241	0x3d94f262	0.07272793
242	0xbd6e9eb5	-0.058256824
243	0x3cec5688	0.028849855
244	0x3d2bb82b	0.041923683
245	0xbd539064	-0.051651374
246	0x3c9a2505	0.01881648
247	0xbc704616	-0.014665147
248	0x3987c0b9	0.00025892796
249	0xbd77cf87	-0.060500648
250	0x3b19b910	0.0023456253
251	0xbd48ee3a	-0.049055316
252	0x3d1a921f	0.03773701
253	0xbd571706	-0.05251219
254	0x3cb6f469	0.02233334
255	0xbdb2dca8	-0.08733493

conv2.0.bias f4 [16]
0	0xbda7e2ef	-0.08197581
1	0xbd773a7a	-0.060358502
2	0xbd7fad3b	-0.062421065
3	0xba8ad6e1	-0.0010592603
4	0x3b96de7a	0.004604158
5	0x3d31ec58	0.043438286
6	0x3d020f61	0.031752948
7	0x3b017271	0.001975205
8	0xbd5d2cb3	-0.053997707
9	0xbd95b973	-0.07310762
10	0x3dafce0c	0.08584222
11	0x3c84a2f6	0.016190987
12	0xbd15bd96	-0.036557756
13	0x3d764b5c	0.060130462
14	0xbd8d7d47	-0.069086604
15	0xbd54a88f	-0.051918563

conv3.0.weight f4 [32, 16, 3, 3]
0	0xbd3ebfa3	-0.046569478
1	0x3d24ed80	0.04026556
2	0xbd61b7bd	-0.055106867
3	0xbd63704e	-0.055527024
4	0xbd8f9b81	-0.07012082
5	0xbd8bca74	-0.06825724
6	0xbd39de1d	-0.04537784
7	0xbd3436ee	-0.043997698
8	0x3d8617e2	0.06547524
9	0x3c3e9d86	0.011634236
10	0xbd2dc850	-0.04242736
11	0xbce46688	-0.027880922
12	0x3d281f3e	0.04104542
13	0x3d672672	0.05643315
14	0x3cf6fb84	0.030149229
15	0xbcad713f	-0.021172164
16	0xbd51608c	-0.051117465
17	0xbd9cc798	-0.07655257
18	0xbc3224ab	-0.010873
19	0xbc16f067	-0.00921259
20	0xbce389bf	-0.027775643
21	0x3d8d3cc0	0.06896353
22	0x3d198d40	0.037488222
23	0xbca47b2a	-0.02007826
24	0x3b80c5f5	0.0039298483
25	0xbc16cfa9	-0.0092047835
26	0x3d8253c1	0.06363631
27	0xbbeb3c6f	-0.007178835
28	0x3d5b41c2	0.05352951
29	0xbd4ef8c1	-0.0505302
30	0x3cd807cf	0.02637091
31	0xbcfd5800	-0.03092575
32	0x3d3bb574	0.045827344
33	0x3d9aa230	0.07550466
34	0xbd60c767	-0.054877665
35	0x3daeaf9d	0.08529589
36	0xbce6dcde	-0.02818149
37	0xbd92f1bd	-0.07175014
38	0x3c70d2ed	0.014698726
39	0xbced28fc	-0.028950207
40	0x3da79810	0.081833005
41	0x3b22d23a	0.0024844543
42	0x3da0804e	0.07836972
43	0x3c83d7ee	0.016094174
44	0xbcd9fb2c	-0.026609026
45	0x3dacafcb	0.08431967
46	0x3d96d143	0.07364132
47	0xbd03e2ef	-0.032198843
48	0xbc5006fb	-0.012696977
49	0x3db01246	0.085972354
50	0x3cb6ec29	0.022329407
51	0x3dac6a2b	0.084186874
52	0x3d5324f8	0.051548928
53	0x3db533aa	0.08847745
54	0xbcdb9cf5	-0.026808241
55	0xbd873535	-0.06601945
56	0x3b3c3a95	0.002872144
57	0x3b9b0b54	0.004731575
58	0xbd9ad7f2	-0.075607195
59	0x3b9b8d60	0.004747078
60	0x3c5a4428	0.013321914
61	0x3d6669ae	0.056253128
62	0x3d85f811	0.065414555
63	0x39b88ae4	0.00035198696
64	0x3d70cbe9	0.058788214
65	0xbc7c3677	-0.015393845
66	0x3cc74aac	0.024327599
67	0x3b390f45	0.002823786
68	0x3d5ea01b	0.054351907
69	0xbd05805f	-0.032593127
70	0xbd3ab0b7	-0.045578685
71	0x3da97cba	0.08275743
72	0x3d9bb661	0.076031454
73	0xbb9cdd26	-0.004787105
74	0xbd644a77	-0.055735078
75	0x3c95ebc6	0.018300902
76	0x3d31db09	0.04342178
77	0x3d477e4c	0.04870443
78	0xbca2b1f8	-0.019860253
79	0xbd786272	-0.06064076
80	0x3a24897d	0.0006276591
81	0x3d2e18a4	0.042503968
82	0xbc3d4d49	-0.011554071
83	0x3d53b729	0.051688347
84	0x3d094dc0	0.033521414
85	0x3dab6a01	0.08369828
86	0x3da95ade	0.08269285
87	0x3d93a7b1	0.07209719
88	0xbcd98566	-0.026552867
89	0xbcac0307	-0.020997537
90	0x3c052899	0.008127355
91	0x3da3ec89	0.080041
92	0x3b27ff4a	0.0025634342
93	0xbc941f72	-0.0180814
94	0x3d9798b5	0.074021734
95	0x3a642ae6	0.0008703902
96	0xbd167722	-0.036734708
97	0xbcf430b3	-0.029808378
98	0xbd1ffd50	-0.039059937
99	0xbd8bd9d3	-0.06828656
100	0xbd3bc86b	-0.04584543
101	0x3c765a2b	0.015036146
102	0x3dad769c	0.084698886
103	0xbc53b432	-0.01292138
104	0xbc87b666	-0.016566467
105	0x3d30ea1a	0.043192007
106	0x3d1511ef	0.036394056
107	0x3d207c9c	0.039181337
108	0xbc201a00	-0.009771824
109	0x3d21b4b8	0.039478987
110	0xbd6eb27b	-0.05827568
111	0x3d38eeb2	0.045149513
112	0x3da6e873	0.08149805
113	0xbd49cd3b	-0.04926799
114	0x3c86fad4	0.016477026
115	0xbd30b630	-0.043142498
116	0x3cab7364	0.020929046
117	0x3d82bf46	0.06384139
118	0xbd943851	-0.07237304
119	0xbd435b3b	-0.047694426
120	0x3d380364	0.04492511
121	0xbca6918d	-0.020333076
122	0xbd756c4c	-0.059917733
123	0xbd6e467d	-0.05817269
124	0x3c4b23a4	0.012398634
125	0xbd3370b0	-0.04380864
126	0x3d82cc15	0.06386582
127	0xbbbaf088	-0.005704943
128	0xbd470fa7	-0.04859891
129	0x3d97a41c	0.07404348
130	0x3d423bd6	0.047420345
131	0xbd8ce9d6	-0.06880538
132	0x3c8638df	0.01638454
133	0xbc73f75a	-0.014890516
134	0x3ae200f0	0.0017242711
135	0xbd963574	-0.07334414
136	0xbcc41b9a	-0.023938943
137	0xbd302e6e	-0.04301303
138	0x3c4a348f	0.0123416325
139	0xba8d54af	-0.0010782684
140	0xbc831913	-0.016003167
141	0xbd80dacc	-0.06291732
142	0x3cc0a79e	0.023517426
143	0xbcbdccbd	-0.023168916
144	0x3ac5c346	0.0015088103
145	0x3b506ebe	0.0031804289
146	0xbd3b1d94	-0.045682505
147	0xbd101ee5	-0.035185713
148	0xbc31efd6	-0.010860404
149	0xbc15ffd7	-0.009155235
150	0x3db62c5a	0.08895178
151	0xbd35246e	-0.044224195
152	0x3d00c5d1	0.031438652
153	0xbd7f6ba9	-0.062358532
154	0x3d97ee5c	0.0741851
155	0xbcae0253	-0.021241343
156	0xbd589910	-0.052880347
157	0x3d901bc2	0.070365444
158	0x3d0d3b20	0.034480214
159	0xbd6f7d95	-0.058469374
160	0xbd3c566e	-0.045980863
161	0x3ca00d35	0.019537548
162	0xbaf90114	-0.0018997514
163	0x3d696944	0.056985155
164	0x3c3c3f9b	0.011489774
165	0x3d80e59b	0.06293794
166	0x3d3dae5a	0.046308853
167	0x3d53233b	0.05154727
168	0x3d4bc24a	0.049745835
169	0x3d71c8c9	0.059029374
170	0xbd3770c3	-0.044785272
171	0x3d1754ee	0.03694623
172	0xbd54a133	-0.051911544
173	0x3c1c0a0e	0.009523882
174	0x3d4b74e7	0.049672034
175	0xbd9b9b94	-0.075980335
176	0x3cbc3ce8	0.022978261
177	0xbd855f30	-0.06512296
178	0xbd069d5a	-0.032864906
179	0x3d9a9f4b	0.07549914
180	0xbb124c97	-0.0022323483
181	0x3d32a0a3	0.043610226
182	0x3ce74807	0.028232588
183	0xbd048d08	-0.03236106
184	0x3d08bf22	0.033385403
185	0xbd9c5d4b	-0.07634982
186	0xbd141a7e	-0.036158077
187	0x3d95e703	0.073194526
188	0x3a82d99b	0.0009983064
189	0x3d238047	0.039917257
190	0xbbaaada1	-0.0052086865
191	0xbce99271	-0.028512212
192	0x3db40484	0.08789924
193	0xbd82b47f	-0.06382083
194	0x3d526837	0.05136892
195	0xbd488f2e	-0.04896467
196	0x3cf38fa0	0.029731572
197	0xbd407aca	-0.0469921
198	0xbd1731cb	-0.03691272
199	0xbc81c7a1	-0.01584226
200	0x3d713f56	0.058898292
201	0x3c6267af	0.013818665
202	0x3d31ce16	0.04340943
203	0x3d35e2c1	0.044405703
204	0xbc14faef	-0.00909303
205	0x3d7b05e2	0.061284907
206	0xbd49995a	-0.049218513
207	0x3ca17187	0.019707454
208	0x3d85ad21	0.06527162
209	0xbc9e9021	-0.019355835
210	0xbda9ace0	-0.082849264
211	0x3c8ab0dc	0.016930036
212	0xbd63b58a	-0.05559305
213	0x3d99710a	0.074922636
214	0x3d40d994	0.0470825
215	0xbd1439aa	-0.036187805
216	0x3dacb241	0.08432437
217	0xbc8c691e	-0.017139968
218	0x3da8f05c	0.0824897
219	0x3d52680c	0.051368758
220	0x3bce39ff	0.0062935348
221	0xbc49eff4	-0.012325276
222	0x3cf61916	0.030041259
223	0x3d3dddd1	0.04635412
224	0x3c71de0f	0.014762416
225	0x3d972529	0.073801346
226	0xbd20adac	-0.039228126
227	0xbc02d4ec	-0.007985335
228	0xbd834345	-0.06409315
229	0xbd4b085a	-0.04956851
230	0xbcf6df03	-0.030135637
231	0xbbe3c1ad	-0.006950578
232	0x3dadcd0e	0.08486377
233	0xbc78c15a	-0.015182817
234	0x3ca7c368	0.02047892
235	0x3ca06ab3	0.019582128
236	0xbc5d3308	-0.013500936
237	0x3d247e67	0.04015961
238	0x3d1bdfd6	0.038055263
239	0x3d04f755	0.032462437
240	0x3d639a5b	0.055567127
241	0xbce1dde0	-0.027571619
242	0xbd8c91ae	-0.06863724
243	0x3d4bac3d	0.049724806
244	0xbcaed413	-0.02134136
245	0x3db0d744	0.08634809
246	0x3d1c083a	0.038093783
247	0x3c75dfa7	0.015006936
248	0xbcde0518	-0.027102038
249	0x3d41d300	0.047320366
250	0x3d18f01a	0.037338354
251	0x3cebcb33	0.028783416
252	0xbc5c4658	-0.013444506
253	0x3d1e4ff6	0.038650475
254	0xbd1e9e2e	-0.03872507
255	0x3d732476	0.059360944

conv3.0.bias f4 [32]
0	0x3d86f93f	0.06590509
1	0x3bb53ffc	0.005531309
2	0xbd59f6cf	-0.05321389
3	0x3cce1f95	0.025161544
4	0x3d0caccc	0.03434448
5	0x3da08f8a	0.07839878
6	0xbca077c1	-0.019588353
7	0xbce5d430	-0.02805528
8	0xbc2fc1a7	-0.010727323
9	0xbdac7f8f	-0.08422767
10	0xbb741d91	-0.0037249068
11	0x3d68b5ff	0.05681419
12	0x3c230142	0.00994903
13	0xbc882f37	-0.016624076
14	0xbd8c2adc	-0.06844112
15	0x3d13d628	0.036092907
16	0x3d8f57eb	0.06999191
17	0x3c8ff6e0	0.017573774
18	0xbcf388f8	-0.029728398
19	0x3d5150b3	0.05110235
20	0xbc28f9fc	-0.010313507
21	0xbd6197e2	-0.055076487
22	0xbd3559c8	-0.044275075
23	0x3d84147d	0.0644922
24	0xbc9d42ef	-0.019196955
25	0xbcfb1017	-0.03064732
26	0xbc9c6ed4	-0.019095816
27	0xbd8ed5b4	-0.069743544
28	0x3d5b16c7	0.05348852
29	0xbcf6efcb	-0.03014364
30	0x3d9d492f	0.07679974
31	0x3d0447d4	0.032295063

conv4.0.weight f4 [64, 32, 3, 3]
0	0x3c9b78a4	0.018978424
1	0xbd38b26a	-0.045092024
2	0x3ca086e6	0.019595575
3	0x3d2fed0c	0.042950675
4	0xbd05134b	-0.032489102
5	0xbca105bb	-0.019656053
6	0xbcc4c543	-0.024019843
7	0x3bbcee45	0.0057657086
8	0xbd451b9f	-0.048122045
9	0xbcb26a07	-0.021779073
10	0x3d6b107f	0.05738878
11	0x3c824d06	0.015905868
12	0x3c3a8645	0.011384551
13	0xbba5195f	-0.005038425
14	0x3cd1abf9	0.025594698
15	0xbca992f9	-0.020699965
16	0xbbdf3435	-0.0068116435
17	0xbc562a67	-0.013071633
18	0x3ce4ade8	0.027914956
19	0xbd0d3d15	-0.03448208
20	0x3be54161	0.006996319
21	0x3d68a60a	0.056798972
22	0xbc401ca3	-0.0117255775
23	0x3c9658c9	0.018352883
24	0x3c59908f	0.013279094
25	0x3bedb5e6	0.00725435
26	0xbb5bd7cd	-0.0033545375
27	0xbca3f1a3	-0.020012682
28	0x3c72c8d3	0.014818388
29	0x3aa23c9b	0.0012377681
30	0x3d520c3e	0.051281206
31	0x3c02e35c	0.007988777
32	0x3d304c71	0.04304165
33	0x3d44b000	0.04801941
34	0x3ca29c10	0.019849807
35	0x3d83eb8d	0.06441412
36	0x3d819846	0.06327872
37	0xbd0ca853	-0.034340214
38	0x3bbf2200	0.0058329105
39	0x3c3ffbc3	0.0117177395
40	0x3cd0fd7e	0.0255115
41	0x3d50afac	0.050948784
42	0x3d76f78a	0.060294665
43	0x3bf5ef98	0.0075053684
44	0x3be76b26	0.0070623336
45	0x3d153da8	0.036435753
46	0x3d22af46	0.039717935
47	0x3d60b297	0.054857817
48	0xbd4d5c5c	-0.05013691
49	0x3d5c06b9	0.05371735
50	0x3d2b1cf5	0.041775662
51	0x3d84d25b	0.064854346
52	0x3ca5617e	0.02018809
53	0xbba35337	-0.004984285
54	0xbc6450fd	-0.013935325
55	0x3c8f17e7	0.017467452
56	0x3d3484ce	0.044071965
57	0x3cde6e37	0.027152164
58	0x395d9ce4	0.00021134649
59	0x3d31c845	0.043403883
60	0x3d0980ea	0.033570208
61	0x3c4c99ec	0.01248787
62	0xbcc7cee5	-0.024390647
63	0xbc8e3ee2	-0.01736397
64	0x3d6548f9	0.055977795
65	0xbca376b6	-0.019954067
66	0xbcaebfc4	-0.021331675
67	0x3d02d113	0.03193767
68	0x3ccc3463	0.024927324
69	0xbd0655ae	-0.032796554
70	0xbc86f6b2	-0.016475055
71	0x3b98e711	0.004666217
72	0xbd66c96a	-0.056344427
73	0x3cddb628	0.027064398
74	0xbd559217	-0.052141275
75	0x3c5e7bec	0.01357935
76	0x3cf64928	0.03006418
77	0x3d58f3a6	0.052966736
78	0x3ced5919	0.02897315
79	0x3d84ec38	0.06490368
80	0xbb81ee81	-0.0039651995
81	0x3d1f0595	0.038823683
82	0xbd0f22a5	-0.03494515
83	0x3d5dd820	0.05416119
84	0x3c65c4e4	0.014023993
85	0x3cefc412	0.029268298
86	0x3becf2c1	0.007231087
87	0xbb124d1f	-0.00223238
88	0x3d816d0b	0.063196264
89	0x3d297df4	0.041379884
90	0x3c4fe757	0.012689433
91	0x3d691554	0.056905106
92	0x3d08dab5	0.0334117
93	0x3cc80ad1	0.02441922
94	0xbd52177f	-0.05129194
95	0x3bb89956	0.0056335134
96	0x3b7f0bbd	0.0038916909
97	0x3cee2d1b	0.029074242
98	0xbd400f00	-0.046889305
99	0x3d580d3d	0.052747
100	0xbcdf8f1d	-0.027289921
101	0xbd20a8c2	-0.03922344
102	0x3cd79f10	0.026320964
103	0x3c139eab	0.009009997
104	0x3d5179f6	0.0511417
105	0x3d61fe4b	0.055174153
106	0x3d4a9db6	0.04946681
107	0xbd44f823	-0.048088204
108	0xbcc2a92f	-0.023762314
109	0xbd7cec46	-0.061748765
110	0xbd517ec1	-0.051146273
111	0x3d769e07	0.0602093
112	0xbc0f4fad	-0.0087470235
113	0x3d455948	0.04818085
114	0x3c23afed	0.009990674
115	0x3ad04446	0.0015889488
116	0x3c1ab536	0.009442618
117	0xbd32d09c	-0.043655977
118	0x3d7af343	0.06126715
119	0x3c1f8b3c	0.009737786
120	0x3d31b783	0.0433879
121	0x3d3051f1	0.043046895
122	0x3b7bfdb8	0.0038450789
123	0x3d00eea4	0.031477585
124	0x3d410566	0.04712429
125	0xbc76298e	-0.015024556
126	0x3d50de7d	0.05099343
127	0xbd094e05	-0.03352167
128	0xbd427625	-0.047475953
129	0x3d5a17a1	0.05324519
130	0x3cb44d92	0.022009645
131	0x3b80d058	0.0039310865
132	0x3d447771	0.04796547
133	0xbbf4f1c0	-0.007475108
134	0xbbe84be8	-0.007089127
135	0x3d53b112	0.05168254
136	0x3d0ea9a1	0.03482974
137	0xbd095c8b	-0.03353552
138	0x3cb24523	0.021761483
139	0x3d318ab4	0.04334517
140	0xbd244771	-0.040107194
141	0x3cc892ec	0.02448412
142	0xbd18aad6	-0.037272297
143	0xbd38b957	-0.04509863
144	0x3c6b0949	0.0143454755
145	0x3b428be8	0.0029685441
146	0xbd1d6052	-0.038421936
147	0x3d37eb26	0.04490199
148	0xbcc1f9e1	-0.023678722
149	0x3b83ed73	0.004026109
150	0xbd4c7a42	-0.04992128
151	0xbcea4744	-0.028598435
152	0xbc95d25e	-0.018288787
153	0xbc93a825	-0.018024513
154	0xbb031c79	-0.0020005985
155	0x3d6916aa	0.05690638
156	0x3cf1bd84	0.029509313
157	0x3c2e6f26	0.010646617
158	0xbce409f0	-0.02783677
159	0x3cb752b9	0.022378312
160	0xbc8d4a59	-0.017247366
161	0x3c6ba1d7	0.014381847
162	0xbbf65808	-0.0075178184
163	0x3c81aa7a	0.01582836
164	0x3d4eb0b3	0.050461482
165	0x3d543d15	0.051816065
166	0x3c40c3bc	0.011765417
167	0xbcce3392	-0.025171075
168	0xbc89cad6	-0.016820353
169	0x3cd41e77	0.025893433
170	0xbd4adeb0	-0.049528778
171	0xbcda306c	-0.026634417
172	0xbd5625f3	-0.052282285
173	0xbb95ccdc	-0.0045715403
174	0xbcecbea5	-0.0288995
175	0xbd1cc48a	-0.03827337
176	0x3cacd3aa	0.021097023
177	0x3d2c580b	0.04207615
178	0x3d84a86f	0.06477439
179	0x3c2f7328	0.010708608
180	0x3d80983a	0.06279035
181	0x3d688ba2	0.05677379
182	0x3b17d607	0.0023168342
183	0x3d3b3bf8	0.045711488
184	0x3ceccdc3	0.028906709
185	0x3d30e43a	0.043186404
186	0x3d6cbc0a	0.057796516
187	0x3d2d8f00	0.042372704
188	0x3d0b6fd5	0.0340422
189	0xbd53f07f	-0.051743027
190	0xbc1f0f24	-0.0097082
191	0x3aae4fd4	0.0013298937
192	0xbca5fdd7	-0.020262642
193	0x3cc005a1	0.023440184
194	0x3b2c117b	0.0026255536
195	0xb94e3654	-0.0001966593
196	0xbd312965	-0.043252368
197	0xbd2937e2	-0.04131306
198	0x3c1ab853	0.00944336
199	0xbd25422e	-0.040346317
200	0xbd31ce10	-0.043409407
201	0x3d0345e8	0.03204909
202	0x3c590084	0.013244752
203	0x3d36a746	0.044593118
204	0x3d68c6f6	0.05683037
205	0x3c8b2760	0.016986549
206	0x3c7602b0	0.015015289
207	0x3d64e8e1	0.055886153
208	0xbd151977	-0.03640124
209	0x3cb1031f	0.021607934
210	0xba91e66f	-0.0011131297
211	0x3d2c01a8	0.041993767
212	0x3d80aad6	0.06282584
213	0x3d84835f	0.064703695
214	0x3cda29c8	0.026631251
215	0xbd4a828a	-0.049440898
216	0xbd2c69ed	-0.042093206
217	0x3bff3e6a	0.0077894228
218	0xbd2422ee	-0.040072374
219	0xbb254a39	-0.0025221242
220	0xbd4f2e9d	-0.050581563
221	0xbc6460ce	-0.013939096
222	0x3aefc4f1	0.0018292946
223	0xbd51ce81	-0.051222328
224	0x3d6eba88	0.05828336
225	0xbd21433d	-0.039370764
226	0xbcce94c9	-0.02521743
227	0x3b35a80a	0.0027718567
228	0x3d42465b	0.047430377
229	0xba552553	-0.0008130867
230	0xba871bc8	-0.0010307962
231	0x3d514ab1	0.051096622
232	0x3d422220	0.047395825
233	0xbc84c5bd	-0.01620757
234	0xbd23a353	-0.03995068
235	0x3bccfd71	0.0062557985
236	0x3d272a15	0.040811617
237	0xbd1b1fe0	-0.037872195
238	0x3c820c81	0.015875103
239	0x3c044c1e	0.008074788
240	0x3cea34df	0.028589664
241	0xbcd595b6	-0.026072364
242	0xbd414730	-0.04718703
243	0x3d4d2a09	0.050088916
244	0xbd01ad2b	-0.031659286
245	0x3d39db3d	0.045375098
246	0x3ce604ce	0.028078463
247	0xbc73d224	-0.014881644
248	0xbccd1e8a	-0.025038976
249	0x3c03cf24	0.008044992
250	0x3cff534e	0.031167652
251	0xbd6d74d4	-0.057972744
252	0x3c48e87c	0.01226246
253	0xbc5d2b40	-0.013499081
254	0xbcb18a31	-0.02167234
255	0x3cf1d8e1	0.029522361

conv4.0.bias f4 [64]
0	0xbc695bc5	-0.014243071
1	0xbc720942	-0.014772715
2	0xbd6d0e16	-0.05787476
3	0x3bf35c1f	0.007426753
4	0xbd4fb986	-0.05071404
5	0xbd3a073f	-0.045417067
6	0x3d088036	0.033325396
7	0x3b3bed2f	0.0028675308
8	0xbd390015	-0.045166094
9	0x3d288986	0.041146778
10	0x3d3415c7	0.04396608
11	0x3d086c1a	0.03330622
12	0xbc9bfaa0	-0.019040406
13	0x3c30fa58	0.010801874
14	0x3d5bc206	0.053651832
15	0xbc10b3d1	-0.008831934
16	0xba78db7d	-0.00094931555
17	0x3c395110	0.011310831
18	0xbd4754b1	-0.048664752
19	0xbd1d3a80	-0.038385868
20	0x3c9131d1	0.01772395
21	0x3c5d279c	0.013498213
22	0x3cb25e0e	0.021773364
23	0x3d425718	0.04744634
24	0xbd666149	-0.056245122
25	0x3d3a2266	0.04544296
26	0xbc9dc267	-0.019257737
27	0xbcf7b0d2	-0.030235682
28	0xbbaff95f	-0.0053703035
29	0x3bc4d1e0	0.0060064644
30	0xbc7b2bdb	-0.01533028
31	0x3d1574e8	0.036488444
32	0x3ca48c4b	0.020086428
33	0xbd586a26	-0.052835606
34	0xbd390dc6	-0.04517915
35	0x3d108d94	0.03529127
36	0x3cc54620	0.02408129
37	0x3cb89464	0.022531696
38	0xbd556907	-0.052102115
39	0xbc67fee4	-0.014159892
40	0xbd419600	-0.04726219
41	0xbd4bc399	-0.049747083
42	0x3d3b995d	0.045800555
43	0xbc71609f	-0.014732509
44	0xbc9dc2c5	-0.019257912
45	0xbcda361b	-0.026637128
46	0x3d5729af	0.052529987
47	0x3d2dfce3	0.0424775
48	0x3d1dc016	0.038513266
49	0x3d108a9e	0.035288446
50	0xbd7045e5	-0.058660407
51	0x3c38d0b5	0.011280228
52	0x3d13ff37	0.036132064
53	0x3bc025fc	0.005863903
54	0xbcf840d8	-0.030304357
55	0x3bb91e98	0.005649399
56	0xbd4c916d	-0.049943376
57	0x3cd49902	0.025951866
58	0x3d815058	0.063141525
59	0x3d72e892	0.059303828
60	0x3cd6547a	0.026163328
61	0x3b37771b	0.0027994576
62	0xbb94eb51	-0.0045446535
63	0xbbbed788	-0.005824033

fc1.weight f4 [2, 256]
0	0xbcf0b118	-0.02938132
1	0xbd22b380	-0.039721966
2	0xbc4fca00	-0.012682438
3	0x3c4afba0	0.012389094
4	0xbbc82510	-0.006107934
5	0x3d1732ca	0.03691367
6	0x3d7b229c	0.061312303
7	0x3cb795a8	0.022410229
8	0xbc869a34	-0.016430952
9	0xbd3a6c56	-0.045513473
10	0x3d2e5ea0	0.04257071
11	0x3ca704e8	0.020388082
12	0xbc055438	-0.008137755
13	0xbc79b4f8	-0.0152409
14	0x3d5f91a2	0.054582246
15	0x3d77a32e	0.060458355
16	0xbc802ed4	-0.01564733
17	0xbccd3f68	-0.025054649
18	0x3c90661c	0.017626815
19	0x3cb25ebc	0.021773688
20	0x3d730ba4	0.059337273
21	0xba364800	-0.0006953478
22	0xbcf38ef0	-0.029731244
23	0xbc608b88	-0.013705142
24	0xbc905bc0	-0.017621875
25	0xbd37295a	-0.04471717
26	0x3d77bdaa	0.060483612
27	0x3cc2b238	0.023766622
28	0x3a8ee640	0.001090236
29	0xbc3a84d0	-0.011384204
30	0x3cdbd838	0.0268365
31	0xbc7fb208	-0.015606411
32	0xbca7cd64	-0.02048368
33	0xb9632600	-0.00021662563
34	0x3d2bf066	0.04197731
35	0xbd321416	-0.043476187
36	0x3d529ee2	0.051421054
37	0x3d325062	0.04353369
38	0xbd1c5950	-0.038171113
39	0x3d7f75ca	0.06236819
40	0xbcc3c350	-0.023896843
41	0xbd2498f2	-0.040184923
42	0x3c0606e0	0.00818035
43	0xbc7670f0	-0.015041575
44	0xbc34f328	-0.011044301
45	0xbb2613c0	-0.0025341362
46	0xbd5a5bc8	-0.053310186
47	0xbc80a450	-0.01570335
48	0xbc439828	-0.011938132
49	0xbd5127c4	-0.051063314
50	0xbc9e7260	-0.019341648
51	0xbb89afb0	-0.004201852
52	0xbd7674aa	-0.060169853
53	0xbd2c04a4	-0.041996613
54	0xbbfc8e50	-0.0077073947
55	0xbcf5bda0	-0.029997647
56	0x3d267a7a	0.040644147
57	0xbc8f79b4	-0.017514087
58	0xbc1d87b8	-0.009614877
59	0xbd28bae0	-0.041193843
60	0x3d21d38a	0.03950838
61	0xbc739e78	-0.014869325
62	0x3ab64640	0.0013906434
63	0xbcc56d8c	-0.024100088
64	0xbd5c26ca	-0.05374793
65	0x3cee7860	0.029110134
66	0xbc99dcc4	-0.018782027
67	0x3d60439a	0.05475197
68	0x3d430ce0	0.0476197
69	0x3d5371ba	0.05162213
70	0x3b5ffdc0	0.0034178346
71	0x3c65fc28	0.0140371695
72	0xbbe7ff50	-0.007079996
73	0xbc0e8ef0	-0.008701071
74	0x3ce7b684	0.028285272
75	0xbcaab030	-0.020835966
76	0x3d166730	0.0367195
77	0xbd125728	-0.03572765
78	0xbb852c40	-0.004064113
79	0x3d104382	0.03522063
80	0x3c01e060	0.00792703
81	0xbd071c50	-0.032985985
82	0xbd770210	-0.0603047
83	0xbce3c8e4	-0.027805753
84	0x3cc4d614	0.024027862
85	0xbd550144	-0.05200316
86	0xbcb4bb60	-0.022062004
87	0xbd0035d0	-0.03130132
88	0xbd4d007c	-0.05004929
89	0xbd79ec7c	-0.061016545
90	0xbaf9afc0	-0.001904957
91	0xbd501eb4	-0.05081053
92	0xbc134c00	-0.008990288
93	0xbc8ffad8	-0.017575666
94	0x3ca5eb0c	0.02025368
95	0xbd7f3cb0	-0.062313735
96	0xbd754858	-0.059883446
97	0xbcacc910	-0.021091968
98	0x3d503672	0.050833173
99	0xbd64d224	-0.05586447
100	0x3d577582	0.0526023
101	0x3d6001a8	0.05468908
102	0xbb9e5960	-0.0048324317
103	0x3c673580	0.0141118765
104	0xbc4b0550	-0.012391403
105	0xbd1b6d8a	-0.03794626
106	0x3d3c652a	0.045994915
107	0x3b93e3b0	0.0045132264
108	0xbcb851f8	-0.022500023
109	0xbd161ada	-0.0366467
110	0xbd14c47a	-0.036320187
111	0x3d05f562	0.03270472
112	0x3d041cf0	0.03225416
113	0xbc9e9d14	-0.01936201
114	0xbd21730e	-0.039416365
115	0xbd563b92	-0.052302904
116	0x3cf3a234	0.02974043
117	0xbcc987bc	-0.024600856
118	0xbbe7ec30	-0.0070777163
119	0xbcbfe298	-0.023423478
120	0xbaf84780	-0.0018942207
121	0xba54ed80	-0.00081225485
122	0xbd320052	-0.043457337
123	0xbc592368	-0.01325307
124	0xbb9f9590	-0.004870124
125	0xbd23b24a	-0.03996495
126	0x3d7102d6	0.058840595
127	0x3c652e70	0.013988122
128	0x3ce6de44	0.028182156
129	0x3bbceef0	0.0057657883
130	0x3d771790	0.060325205
131	0x3d5946f0	0.053046167
132	0xbd2df282	-0.0424676
133	0xbd4fb306	-0.05070784
134	0xbd4e56de	-0.05037581
135	0xbce244b4	-0.02762065
136	0xbcde9a0c	-0.027173065
137	0xba9133c0	-0.0011078045
138	0x3cb7ce9c	0.022437386
139	0x3cedacac	0.029013
140	0x3d131078	0.035904378
141	0xbd15005c	-0.036377296
142	0xbcfd5508	-0.030924335
143	0x3bec4f70	0.007211618
144	0xbbbba2c0	-0.0057261884
145	0xbca37370	-0.019952506
146	0x3cb10b4c	0.021611832
147	0x3d4d9d7c	0.050199017
148	0x3cd7de04	0.026350982
149	0xbd19082a	-0.0373613
150	0xbd6cdb30	-0.05782622
151	0xbc80e6b8	-0.015735015
152	0x3d1081a0	0.03527987
153	0xbc6b63e8	-0.014367081
154	0x3b04dac0	0.0020271987
155	0x3d67801e	0.056518666
156	0xbd08ec08	-0.033428222
157	0xbaf243c0	-0.0018483326
158	0x3cddf81c	0.027095847
159	0x3d2118d4	0.03933032
160	0xbd675264	-0.05647506
161	0xbd69ba06	-0.05706217
162	0xbcfcaed8	-0.03084509
163	0xbd708bc2	-0.058727033
164	0xbd746b02	-0.059672363
165	0xbd25ca66	-0.040476225
166	0xbd230364	-0.039798155
167	0xbbd85b20	-0.00660266
168	0x3ccd16f8	0.025035366
169	0xbcb97b08	-0.022641674
170	0x3d554e80	0.052076817
171	0xbc1fa548	-0.009743996
172	0x3d7bc366	0.061465643
173	0x3d2629ce	0.04056721
174	0xbc303628	-0.010755099
175	0xbd0bfa9e	-0.034174554
176	0x3d05e0d8	0.03268513
177	0xbbc656d0	-0.0060528293
178	0xbbef6ad0	-0.007306434
179	0xbc2c6ff8	-0.010524742
180	0xbd453f98	-0.04815635
181	0xbd4cef62	-0.05003298
182	0xbcd1ae58	-0.025595829
183	0xbd4d1b1e	-0.05007469
184	0x3c1693c0	0.0091905
185	0x3c454778	0.012040965
186	0x3d19aeb4	0.037520126
187	0xbd475916	-0.048668943
188	0x3d0ec47a	0.034855343
189	0x3c2f9be0	0.010718316
190	0xbc820580	-0.015871763
191	0x3d379a98	0.044825166
192	0xbd4426e4	-0.04788865
193	0x3b5288c0	0.0032124966
194	0xbce8f1c8	-0.028435603
195	0x3ba8f9b0	0.005156718
196	0xbc1269b0	-0.008936331
197	0x3d3da3e4	0.046298876
198	0xbc608da0	-0.013705641
199	0x3ba37d60	0.004989311
200	0xbcb14660	-0.021640003
201	0xbce06cb4	-0.027395584
202	0xbc6b95b0	-0.01437895
203	0xbbeb5020	-0.0071811825
204	0x3d5fdc78	0.054653615
205	0xbd0fb70c	-0.035086676
206	0xbd2e508a	-0.042557277
207	0xbd2100be	-0.03930735
208	0xbcb9318c	-0.022606634
209	0xbc4e60c0	-0.012596309
210	0x3d5674da	0.052357532
211	0xbbef54a0	-0.0073037893
212	0x3bba6ea0	0.005689457
213	0xbc7f4f60	-0.015582889
214	0xbcf12ec8	-0.029441252
215	0x3c2a13e8	0.010380723
216	0x3ced4360	0.028962791
217	0x3d3a9eca	0.04556159
218	0xbd7c6074	-0.061615422
219	0x3c85b388	0.016320959
220	0xbd738acc	-0.05945854
221	0xbd0f05e2	-0.03491772
222	0x3cc1b090	0.023643762
223	0xbd3bd6b0	-0.04585904
224	0xbc9e016c	-0.019287787
225	0xbcd05e58	-0.025435612
226	0x3d6ad0de	0.057328098
227	0xbd08b0fe	-0.033371918
228	0x3aa39e00	0.0012483001
229	0xbcbb945c	-0.022897892
230	0xbd51cd2e	-0.051221065
231	0x3d5e8ba4	0.05433239
232	0x3d7f76f6	0.06236931
233	0x3d7c055e	0.061528556
234	0xbd1b9f4e	-0.03799372
235	0xbd65cb98	-0.056102365
236	0x3d7c0068	0.061523825
237	0xbd7646e2	-0.060126193
238	0x3cf88c88	0.030340448
239	0xbbac3070	-0.0052547976
240	0xbd318a18	-0.043344587
241	0xbd4f96ea	-0.050681032
242	0xbd7e28ee	-0.062050752
243	0x3cf3e814	0.02977375
244	0xbd54e3b2	-0.05197496
245	0xbd0409d0	-0.03223592
246	0x3d461328	0.048358113
247	0x3c8f7cb8	0.017515525
248	0x3cbdace0	0.023153722
249	0xbd6db40a	-0.058033027
250	0xbd0b54d6	-0.034016453
251	0x3bc7a770	0.006092958
252	0x3cca6da8	0.024710491
253	0x3d0d4280	0.034487247
254	0xbc9db2f8	-0.019250378
255	0xbca468d0	-0.02006951

fc1.bias f4 [2]
0	0xbd705184	-0.05867149
1	0x3d63cb0c	0.055613562

fc2.weight f4 [10, 2]
0	0xbef455b4	-0.47721636
1	0xbe6e37c6	-0.23263463
2	0xbe99dd6a	-0.30051738
3	0x3ec9a2ad	0.39381924
4	0x3f198419	0.5996719
5	0xbe348bf6	-0.17631516
6	0x3e964e12	0.29356438
7	0x3ee3a392	0.44460732
8	0xbf2387d8	-0.63879156
9	0x3e7dc0fc	0.24780649
10	0x3f0701b1	0.52736956
11	0xbea2632a	-0.3171628
12	0xbeedc8ee	-0.4644236
13	0xbf279e10	-0.6547556
14	0xbe655aa8	-0.22397864
15	0x3f2afbda	0.66790545
16	0xbddb0518	-0.10694331
17	0xbebad5b4	-0.36491168
18	0xbf16bae9	-0.5887895
19	0xbf166b9c	-0.5875795

fc2.bias f4 [10]
0	0xbddf82b0	-0.109135985
1	0xbde41743	-0.11137249
2	0xbdf448cc	-0.119279474
3	0xbdf8553e	-0.12125634
4	0xbdf258d8	-0.11833352
5	0xbde6854f	-0.11255895
6	0xbdf0ff33	-0.117674254
7	0xbde63adf	-0.112416975
8	0xbdf41429	-0.11917908
9	0xbdd8a72f	-0.10578763

exp_avg f4 [16, 3, 3, 3]
0	0x80000004	-6e-45
1	0x80000004	-6e-45
2	0x80000004	-6e-45
3	0x00000004	6e-45
4	0x80000004	-6e-45
5	0x80000004	-6e-45
6	0x00000004	6e-45
7	0x00000004	6e-45
8	0x00000004	6e-45
9	0x80000004	-6e-45
10	0x80000004	-6e-45
11	0x80000004	-6e-45
12	0x00000004	6e-45
13	0x80000004	-6e-45
14	0x80000004	-6e-45
15	0x00000004	6e-45
16	0x00000004	6e-45
17	0x00000004	6e-45
18	0x80000004	-6e-45
19	0x80000004	-6e-45
20	0x80000004	-6e-45
21	0x00000004	6e-45
22	0x80000004	-6e-45
23	0x00000004	6e-45
24	0x00000004	6e-45
25	0x00000004	6e-45
26	0x00000004	6e-45
27	0x00000004	6e-45
28	0x00000004	6e-45
29	0x00000004	6e-45
30	0x00000004	6e-45
31	0x00000004	6e-45
32	0x00000004	6e-45
33	0x00000004	6e-45
34	0x00000004	6e-45
35	0x00000004	6e-45
36	0x00000004	6e-45
37	0x00000004	6e-45
38	0x00000004	6e-45
39	0x00000004	6e-45
40	0x00000004	6e-45
41	0x00000004	6e-45
42	0x00000004	6e-45
43	0x00000004	6e-45
44	0x00000004	6e-45
45	0x00000004	6e-45
46	0x00000004	6e-45
47	0x00000004	6e-45
48	0x00000004	6e-45
49	0x00000004	6e-45
50	0x00000004	6e-45
51	0x00000004	6e-45
52	0x00000004	6e-45
53	0x00000004	6e-45
54	0x00000004	6e-45
55	0x00000004	6e-45
56	0x00000004	6e-45
57	0x00000004	6e-45
58	0x00000004	6e-45
59	0x00000004	6e-45
60	0x00000004	6e-45
61	0x00000004	6e-45
62	0x00000004	6e-45
63	0x00000004	6e-45
64	0x00000004	6e-45
65	0x00000004	6e-45
66	0x00000004	6e-45
67	0x00000004	6e-45
68	0x00000004	6e-45
69	0x00000004	6e-45
70	0x00000004	6e-45
71	0x00000004	6e-45
72	0x00000004	6e-45
73	0x00000004	6e-45
74	0x00000004	6e-45
75	0x00000004	6e-45
76	0x00000004	6e-45
77	0x00000004	6e-45
78	0x00000004	6e-45
79	0x00000004	6e-45
80	0x00000004	6e-45
81	0x80000004	-6e-45
82	0x80000004	-6e-45
83	0x80000004	-6e-45
84	0x80000004	-6e-45
85	0x80000004	-6e-45
86	0x80000004	-6e-45
87	0x80000004	-6e-45
88	0x80000004	-6e-45
89	0x80000004	-6e-45
90	0x80000004	-6e-45
91	0x80000004	-6e-45
92	0x80000004	-6e-45
93	0x80000004	-6e-45
94	0x80000004	-6e-45
95	0x80000004	-6e-45
96	0x80000004	-6e-45
97	0x80000004	-6e-45
98	0x80000004	-6e-45
99	0x80000004	-6e-45
100	0x80000004	-6e-45
101	0x80000004	-6e-45
102	0x80000004	-6e-45
103	0x80000004	-6e-45
104	0x80000004	-6e-45
105	0x80000004	-6e-45
106	0x80000004	-6e-45
107	0x80000004	-6e-45
108	0x00000004	6e-45
109	0x00000004	6e-45
110	0x00000004	6e-45
111	0x00000004	6e-45
112	0x00000004	6e-45
113	0x00000004	6e-45
114	0x00000004	6e-45
115	0x00000004	6e-45
116	0x00000004	6e-45
117	0x00000004	6e-45
118	0x00000004	6e-45
119	0x00000004	6e-45
120	0x80000004	-6e-45
121	0x80000004	-6e-45
122	0x00000004	6e-45
123	0x80000004	-6e-45
124	0x00000004	6e-45
125	0x80000004	-6e-45
126	0x00000004	6e-45
127	0x00000004	6e-45
128	0x00000004	6e-45
129	0x80000004	-6e-45
130	0x80000004	-6e-45
131	0x80000004	-6e-45
132	0x80000004	-6e-45
133	0x00000004	6e-45
134	0x80000004	-6e-45
135	0x80000004	-6e-45
136	0x80000004	-6e-45
137	0x80000004	-6e-45
138	0x80000004	-6e-45
139	0x80000004	-6e-45
140	0x80000004	-6e-45
141	0x80000004	-6e-45
142	0x80000004	-6e-45
143	0x80000004	-6e-45
144	0x80000004	-6e-45
145	0x80000004	-6e-45
146	0x80000004	-6e-45
147	0x80000004	-6e-45
148	0x80000004	-6e-45
149	0x80000004	-6e-45
150	0x80000004	-6e-45
151	0x80000004	-6e-45
152	0x80000004	-6e-45
153	0x00000004	6e-45
154	0x80000004	-6e-45
155	0x80000004	-6e-45
156	0x00000004	6e-45
157	0x80000004	-6e-45
158	0x80000004	-6e-45
159	0x80000004	-6e-45
160	0x80000004	-6e-45
161	0x80000004	-6e-45
162	0x80000004	-6e-45
163	0x80000004	-6e-45
164	0x00000004	6e-45
165	0x80000004	-6e-45
166	0x80000004	-6e-45
167	0x00000004	6e-45
168	0x80000004	-6e-45
169	0x80000004	-6e-45
170	0x80000004	-6e-45
171	0x80000004	-6e-45
172	0x80000004	-6e-45
173	0x80000004	-6e-45
174	0x80000004	-6e-45
175	0x80000004	-6e-45
176	0x80000004	-6e-45
177	0x80000004	-6e-45
178	0x80000004	-6e-45
179	0x80000004	-6e-45
180	0x80000004	-6e-45
181	0x80000004	-6e-45
182	0x00000004	6e-45
183	0x80000004	-6e-45
184	0x80000004	-6e-45
185	0x00000004	6e-45
186	0x80000004	-6e-45
187	0x80000004	-6e-45
188	0x80000004	-6e-45
189	0x80000004	-6e-45
190	0x80000004	-6e-45
191	0x80000004	-6e-45
192	0x80000004	-6e-45
193	0x80000004	-6e-45
194	0x00000004	6e-45
195	0x80000004	-6e-45
196	0x80000004	-6e-45
197	0x80000004	-6e-45
198	0x80000004	-6e-45
199	0x80000004	-6e-45
200	0x80000004	-6e-45
201	0x80000004	-6e-45
202	0x80000004	-6e-45
203	0x80000004	-6e-45
204	0x80000004	-6e-45
205	0x80000004	-6e-45
206	0x80000004	-6e-45
207	0x80000004	-6e-45
208	0x80000004	-6e-45
209	0x80000004	-6e-45
210	0x00000004	6e-45
211	0x80000004	-6e-45
212	0x80000004	-6e-45
213	0x80000004	-6e-45
214	0x80000004	-6e-45
215	0x80000004	-6e-45
216	0x80000004	-6e-45
217	0x80000004	-6e-45
218	0x80000004	-6e-45
219	0x80000004	-6e-45
220	0x80000004	-6e-45
221	0x80000004	-6e-45
222	0x80000004	-6e-45
223	0x80000004	-6e-45
224	0x00000004	6e-45
225	0x80000004	-6e-45
226	0x80000004	-6e-45
227	0x80000004	-6e-45
228	0x80000004	-6e-45
229	0x80000004	-6e-45
230	0x80000004	-6e-45
231	0x80000004	-6e-45
232	0x80000004	-6e-45
233	0x00000004	6e-45
234	0x80000004	-6e-45
235	0x80000004	-6e-45
236	0x80000004	-6e-45
237	0x80000004	-6e-45
238	0x80000004	-6e-45
239	0x00000004	6e-45
240	0x80000004	-6e-45
241	0x00000004	6e-45
242	0x00000004	6e-45
243	0x00000004	6e-45
244	0x00000004	6e-45
245	0x00000004	6e-45
246	0x00000004	6e-45
247	0x00000004	6e-45
248	0x00000004	6e-45
249	0x00000004	6e-45
250	0x00000004	6e-45
251	0x00000004	6e-45
252	0x00000004	6e-45
253	0x00000004	6e-45
254	0x00000004	6e-45
255	0x00000004	6e-45
