project_2/part_2/models/saved/kuba_cifar_smol.pt (torch, 117310 bytes, 20 tensors)

weight f4 [64, 3, 3, 3]
0	0xbe382437	-0.17982565
1	0xbc95e126	-0.018295836
2	0x3d6e0152	0.058106728
3	0x3da50734	0.080580145
4	0x3d5ddc7c	0.05416535
5	0xbb89cb6d	-0.0042051584
6	0x3e0f0e41	0.13970281
7	0xbe0f87f9	-0.14016713
8	0xbda3faa4	-0.0800679
9	0x3cc892aa	0.024483997
10	0xbd49a281	-0.04922724
11	0xbe3130d6	-0.17303786
12	0xbe110511	-0.14162089
13	0xbe82a922	-0.25519663
14	0x3d1c3a6a	0.038141645
15	0xbe7d29ab	-0.24722926
16	0xbe7b3e80	-0.2453556
17	0xbe817cd7	-0.25290558
18	0x3c1704ff	0.0092175
19	0x3de80004	0.11328128
20	0x3d9c0392	0.076178685
21	0x3dee1914	0.11625877
22	0x3e87a8d8	0.26496005
23	0x3cba0810	0.022708923
24	0x3e110a24	0.14164025
25	0x3edc829e	0.43068403
26	0x3ec58c52	0.38583618
27	0xbeafb3f6	-0.34316987
28	0x3e6655e2	0.22493699
29	0xbdd916f6	-0.106000826
30	0xbe045c2e	-0.12925789
31	0x3e6d0ce8	0.23149455
32	0x3e47a2be	0.19495675
33	0xbe622669	-0.22084965
34	0x3e9908c3	0.29889497
35	0x3e36cc44	0.17851359
36	0xbe617a4e	-0.22019312
37	0xbd43d8e7	-0.047814276
38	0x3dda2d80	0.1065321
39	0xbe670c61	-0.22563316
40	0xbdeb8f30	-0.1150192
41	0xbe312413	-0.17298917
42	0x3e42a979	0.19009961
43	0x3d9da9c8	0.07698399
44	0x3da7a6a3	0.0818608
45	0x3d948015	0.07250992
46	0x3e05dd2a	0.13072649
47	0xbcaf5710	-0.02140382
48	0xbccec958	-0.025242493
49	0xbc290c8d	-0.010317934
50	0xbe822c44	-0.25424397
51	0x3e75ea53	0.24015169
52	0xbdf2306e	-0.118256435
53	0xbde97fc3	-0.11401322
54	0x3e67d6b4	0.22640496
55	0xbd18d17e	-0.037309162
56	0xbd390f0f	-0.045180377
57	0x3ea970cc	0.3309387
58	0x3eb7ea10	0.35920763
59	0x3c5b123c	0.013371047
60	0x3e3ef4ab	0.18648021
61	0x3e9017d5	0.28143182
62	0x3da37655	0.079815544
63	0xbe14dfcc	-0.14538497
64	0xbdf133e7	-0.11777478
65	0xbe86ddd2	-0.2634111
66	0xbe1d2933	-0.15347748
67	0x3e0db9f4	0.13840467
68	0xbde0c005	-0.10974125
69	0xbe85ccef	-0.26132914
70	0x3d43adbe	0.047773115
71	0xbda4891d	-0.08033965
72	0x3e263136	0.1622971
73	0x3e426a53	0.18985872
74	0x3d497269	0.049181376
75	0x3b662220	0.0035115555
76	0x3e61d04a	0.22052112
77	0xbd9895fc	-0.07450482
78	0xbe2c6da5	-0.16838701
79	0x3e1314eb	0.14363448
80	0xbe2ad94c	-0.16684455
81	0xbe7f96a6	-0.24959812
82	0x3bd64bad	0.006539783
83	0x3cb4313f	0.021996139
84	0xbe4bad36	-0.19890293
85	0xbca1be41	-0.01974404
86	0xbd72acd0	-0.059246838
87	0x3e874838	0.26422286
88	0x3da08773	0.07838335
89	0x3e0824c9	0.13295282
90	0xbe82f27d	-0.2557563
91	0x3d44a9ef	0.048013624
92	0x3d84e91a	0.06489773
93	0xbe74da0f	-0.23911308
94	0xbe928a31	-0.28621057
95	0xbb988fef	-0.00465583
96	0x3e12d313	0.14338331
97	0xbe17b543	-0.1481524
98	0x3dc65cc8	0.09685665
99	0x3e18bb06	0.14915094
100	0xbd837cea	-0.0642031
101	0x3e76a5cd	0.24086685
102	0xbe0756a6	-0.13216648
103	0x3dee4f5e	0.11636232
104	0x3e8db789	0.2767909
105	0x3e1690d9	0.14703692
106	0x3e39c9cd	0.18143387
107	0xbcbf5a02	-0.023358349
108	0x3dcd3572	0.100199595
109	0x3e8a1670	0.26970243
110	0xbe07e32f	-0.13270257
111	0xbd9dd939	-0.077074476
112	0xbc9d1aa8	-0.01917775
113	0xbe269d0f	-0.1627085
114	0xbdfd2443	-0.12360432
115	0xbe2597db	-0.1617121
116	0xbe464338	-0.1936158
117	0x3e712651	0.23549773
118	0x3ea18054	0.3154322
119	0x3e0c7f9f	0.13720559
120	0xbe0ea11d	-0.13928647
121	0x3e090f67	0.13384782
122	0xbe8303d8	-0.2558887
123	0xbda9bd8b	-0.082881056
124	0xbcfd938e	-0.030954149
125	0x3d11ac6e	0.035564832
126	0x3e153d25	0.14574106
127	0x3ea30be2	0.31845003
128	0x3cb944bb	0.022615781
129	0xbc4263d6	-0.011864623
130	0x3c112032	0.008857774
131	0xbe5f4672	-0.21804217
132	0xbe4bbde1	-0.19896652
133	0xbe232d46	-0.15935239
134	0xbd7aee4a	-0.061262406
135	0xbebee7c1	-0.3728619
136	0xbe2500b4	-0.1611355
137	0x3dd9cf07	0.106351905
138	0xbe390497	-0.18068157
139	0x3dada092	0.08477892
140	0xbcfbfd31	-0.03076038
141	0x3e093895	0.1340049
142	0x3cf0c6b1	0.029391618
143	0xbdf78cd4	-0.12087408
144	0x3e33d91b	0.17563288
145	0x3e9cc727	0.3062069
146	0x3e93fe31	0.2890487
147	0x3e0b5860	0.13607931
148	0x3e793a00	0.24338531
149	0x3e07fc6f	0.1327989
150	0x3e3d7e63	0.18505244
151	0x3e70d351	0.23518111
152	0xbda1d710	-0.07902348
153	0xbdde5045	-0.10855154
154	0x3e354eac	0.17705792
155	0xbdeb8886	-0.11500649
156	0x3dc9c64e	0.09852277
157	0xbe1252a9	-0.14289345
158	0xbdd8f0e1	-0.10592819
159	0xbc55a342	-0.013039412
160	0xbe66ef5a	-0.22552243
161	0xbe78bebb	-0.24291508
162	0x3e775a7e	0.24155614
163	0xbe9e3015	-0.3089606
164	0x3e056f25	0.1303068
165	0x3e2e8ede	0.17046687
166	0xbe4cad8f	-0.19988082
167	0xbe1e3c43	-0.15452676
168	0x3e70e94e	0.23526499
169	0x3e0f93b5	0.1402119
170	0x3d4cc8c8	0.049996167
171	0x3e1e01b6	0.1543034
172	0xbe0d0b22	-0.13773778
173	0xbd0961db	-0.033540588
174	0x3d8a8198	0.06762999
175	0xbe17747b	-0.14790528
176	0x3ca3ba45	0.019986281
177	0x3d847499	0.06467552
178	0x3d7c8472	0.061649747
179	0x3caecb4f	0.02133718
180	0x3d1c7046	0.03819301
181	0x3c9bb1f3	0.019005751
182	0xbddacffe	-0.106842026
183	0x3eb98de3	0.36241063
184	0xbddf3f9b	-0.10900804
185	0xbe9e95b2	-0.30973583
186	0x3e6f12f6	0.23347077
187	0x3e0085c4	0.12551028
188	0x3bca15bb	0.0061671413
189	0x3de7b7c3	0.11314347
190	0x3e03cc59	0.12870921
191	0xbc78e0cb	-0.015190314
192	0xbe6535e2	-0.22383836
193	0x3e2180a9	0.15771736
194	0x3dfadcce	0.122491464
195	0xbdfced85	-0.12349991
196	0x3d822038	0.063538015
197	0xbdc674e2	-0.096902624
198	0x3dd3417d	0.10315225
199	0x3d945a7a	0.072438195
200	0xbe59bdf7	-0.21263872
201	0xbcc320f2	-0.02381942
202	0x3da69d2e	0.081354484
203	0xbe3809c4	-0.17972475
204	0xbce4b192	-0.027916703
205	0x3ea77747	0.3270819
206	0x3e72bc5d	0.23704667
207	0x3de917f7	0.11381524
208	0xbe4cf0a7	-0.20013677
209	0xbeb94834	-0.361879
210	0xbe8c2e62	-0.27379137
211	0xbe76c447	-0.24098311
212	0xbd99d997	-0.07512205
213	0xbe38a39b	-0.1803116
214	0x3e57c307	0.21070491
215	0x3dff4f70	0.124663234
216	0x3e2d03d7	0.16895996
217	0xbd39edce	-0.045392804
218	0x3bf405f4	0.0074469987
219	0x3e40f437	0.1884316
220	0xbe4d97b1	-0.20077397
221	0xbe3e9561	-0.18611671
222	0x3e318fdf	0.17340039
223	0x3d63ac69	0.055584345
224	0xbe06ed9e	-0.13176581
225	0x3cac8760	0.021060646
226	0xbdf56211	-0.11981595
227	0x3e340cdb	0.17583029
228	0x3cc8940a	0.024484653
229	0xbe91dbed	-0.28488103
230	0x3e65c159	0.22437038
231	0x3d0e41f4	0.034730867
232	0xbeb06636	-0.3445298
233	0x3ea01ea6	0.31273383
234	0xbd84618f	-0.0646392
235	0xbe31daf3	-0.17368679
236	0xbcc496ac	-0.023997627
237	0x3e01231d	0.12611051
238	0xbded067d	-0.11573503
239	0x3e9e62c4	0.30934727
240	0x3df07f3a	0.117430165
241	0xbe9bdbbe	-0.30441087
242	0x3db65778	0.08903402
243	0x3dbf839f	0.093512766
244	0xbe4340cd	-0.19067688
245	0xbdd5a3bc	-0.104316205
246	0xbd6e71b2	-0.058213897
247	0xbe9e560b	-0.3092502
248	0xbde26ad5	-0.11055533
249	0xbc02d0d0	-0.007984355
250	0x3e5cc8f0	0.21561027
251	0x3bb4f4ed	0.0055223615
252	0xbe88c517	-0.26712868
253	0xbd1f4ce4	-0.038891688
254	0xbe764844	-0.24051005
255	0xbd8afbd0	-0.06786311

bias f4 [64]
0	0x3da6a30b	0.08136567
1	0x3e3a7148	0.18207276
2	0x3e304ba7	0.17216359
3	0xbcb16a6b	-0.02165719
4	0x3ca3b680	0.019984484
5	0xbd819a2c	-0.06328234
6	0x3dcdc0cb	0.10046538
7	0xbb1176e5	-0.002219611
8	0xbcfc1b47	-0.030774726
9	0xbe730edb	-0.23736136
10	0xbe20575f	-0.1565833
11	0x3d495d6d	0.049161363
12	0x3cf4c98b	0.02988126
13	0x3dcd52d1	0.100255616
14	0x3d80bd56	0.06286113
15	0x3dc1ba03	0.09459307
16	0xbd43237d	-0.047641266
17	0x3e4f9d56	0.20274863
18	0xbe1992ae	-0.1499736
19	0xbe955d32	-0.29172665
20	0x3bcf3d02	0.0063244114
21	0xbd18118f	-0.03712612
22	0x3e2e9212	0.17047909
23	0x3df672c1	0.12033606
24	0xbe24eca2	-0.16105893
25	0x3e528ba1	0.20561077
26	0xbdcce42d	-0.100044586
27	0xbe944303	-0.28957376
28	0x3db8265f	0.08991694
29	0x3b7ac9d4	0.0038267272
30	0xbc860135	-0.016357997
31	0xbd70c724	-0.058783665
32	0x3d927e5e	0.07153009
33	0xbd7d64df	-0.061863776
34	0x3db629d0	0.08894694
35	0x3e3b2d57	0.18279015
36	0xbe512e30	-0.20427775
37	0xbe432c1b	-0.19059794
38	0xbdadd43e	-0.084877476
39	0xbd1f9144	-0.038956895
40	0x3e2ac97d	0.16678424
41	0x3cf72642	0.03016961
42	0x3e95d4af	0.29263827
43	0x3d0b7ab8	0.03405258
44	0xbe1e0741	-0.15432455
45	0xbe258a59	-0.16166057
46	0xbda88596	-0.082286045
47	0xbddae8f1	-0.10688961
48	0x3da75476	0.081704065
49	0xbe8b5539	-0.27213457
50	0x3db0cc9c	0.08632776
51	0x3cd81cb0	0.026380867
52	0xbc867c42	-0.016416673
53	0xbd848d30	-0.06472242
54	0xbeaffe74	-0.3437382
55	0x3de46db6	0.11153738
56	0x3d3ccabd	0.046091784
57	0xbde9ac38	-0.11409801
58	0xbe22e9a5	-0.15909441
59	0x3cedc1c4	0.029023059
60	0xbe173b6e	-0.14768764
61	0xbe0bb844	-0.1364451
62	0xbd34e5ce	-0.04416447
63	0xbe442bdd	-0.19157358

weight f4 [64]
0	0x3f63162d	0.8870571
1	0x3f6843e1	0.90728575
2	0x3f5e7130	0.8689146
3	0x3f514a5c	0.8175409
4	0x3f5615ef	0.8362722
5	0x3f6704a2	0.90241444
6	0x3f476e4a	0.7790266
7	0x3f380e5d	0.71896917
8	0x3fa7a893	1.309832
9	0x3f667155	0.9001668
10	0x3f8598e7	1.0437287
11	0x3f8ff3e9	1.124631
12	0x3f5d94ea	0.8655535
13	0x3f4e84a7	0.8067116
14	0x3f8e9465	1.1139036
15	0x3f6cd078	0.925056
16	0x3f771a35	0.96524364
17	0x3f92433f	1.1426772
18	0x3f8fec8a	1.1244061
19	0x3f599144	0.8498728
20	0x3f3eae2a	0.74484503
21	0x3f4fc23e	0.81155765
22	0x3f95af82	1.1694186
23	0x3f872cc6	1.0560539
24	0x3f2850c0	0.65748215
25	0x3f645770	0.8919592
26	0x3f8665a9	1.0499774
27	0x3f809ae2	1.0047266
28	0x3f6371aa	0.8884531
29	0x3f6bc868	0.9210267
30	0x3f3a3640	0.7273903
31	0x3f8ac6d0	1.0841923
32	0x3f8eb89a	1.1150086
33	0x3f53ffb6	0.8281206
34	0x3f4596ef	0.7718343
35	0x3f809270	1.0044689
36	0x3f803475	1.0016009
37	0x3f5685bd	0.8379782
38	0x3f80806f	1.0039195
39	0x3f4d2d86	0.8014759
40	0x3f37b513	0.7176067
41	0x3f8feadf	1.1243552
42	0x3f608780	0.87706757
43	0x3f843791	1.0329458
44	0x3f6d1da3	0.9262335
45	0x3f42300a	0.7585455
46	0x3f6abe6d	0.91696817
47	0x3f5bb2f3	0.8581993
48	0x3f43b33a	0.76445353
49	0x3f848a9c	1.03548
50	0x3f52056b	0.8203952
51	0x3f841ae7	1.032071
52	0x3f7615ee	0.9612721
53	0x3f4fef2d	0.8122433
54	0x3f60e8db	0.8785531
55	0x3f6720d2	0.90284455
56	0x3f7556b0	0.958354
57	0x3f852ab7	1.040366
58	0x3f796f60	0.9743557
59	0x3f4b07fa	0.79309046
60	0x3f770d72	0.9650489
61	0x3f5f97fc	0.87341285
62	0x3f6437d2	0.89147675
63	0x3f832c93	1.0247978

bias f4 [64]
0	0xbeed9d0c	-0.4640888
1	0xbe2fdd95	-0.1717437
2	0xbe4d70c1	-0.20062543
3	0xbedf2750	-0.4358468
4	0xbeb3d428	-0.351228
5	0xbea78108	-0.3271563
6	0xbe67ccbb	-0.22636692
7	0xbf29f2d8	-0.66386175
8	0xbec4d1ab	-0.38441214
9	0xbf16dae0	-0.58927727
10	0xbdfd59b2	-0.12370624
11	0xbe786c06	-0.24259958
12	0xbeec8f55	-0.46203104
13	0xbf12fc24	-0.57415986
14	0xbe3275df	-0.17427777
15	0xbed9a08d	-0.42505303
16	0x3e0a94d0	0.1353333
17	0x3e361247	0.1778041
18	0xbde349ec	-0.11098084
19	0xbee64a50	-0.4497857
20	0xbed49eba	-0.4152735
21	0xbee2cd37	-0.44297192
22	0xbe9beb13	-0.30452785
23	0xbeb44c55	-0.35214487
24	0xbe924b08	-0.2857287
25	0xbe548d47	-0.20757018
26	0xbf16881b	-0.5880143
27	0xbe98bd07	-0.29831716
28	0xbf215c79	-0.6303173
29	0xbe73f90c	-0.23825473
30	0xbee8c896	-0.45465535
31	0x3d153ed7	0.036436882
32	0xbe367a26	-0.17820033
33	0xbea4ced9	-0.32189062
34	0xbdb40608	-0.08790213
35	0xbee3e893	-0.44513378
36	0xbea978f6	-0.33100098
37	0xbe4988e4	-0.19681126
38	0xbf023b0c	-0.5087135
39	0xbe0e3815	-0.13888581
40	0xbde79612	-0.113079205
41	0xbe9703de	-0.29495138
42	0xbeee8817	-0.46588203
43	0xbf1331b8	-0.5749774
44	0xbe2f5b84	-0.17124754
45	0xbf01037a	-0.5039593
46	0xbeca4f77	-0.39513752
47	0x3d209ed5	0.039213974
48	0xbd82adeb	-0.063808285
49	0xbf13fd9f	-0.5780887
50	0xbf3d8172	-0.7402564
51	0xbf345fc2	-0.70458615
52	0xbea5053f	-0.32230565
53	0xbeda3e50	-0.42625666
54	0xbef012de	-0.46889395
55	0x3da5063e	0.08057831
56	0xbda109ad	-0.07863174
57	0x3d33b1b9	0.04387066
58	0xbea9c358	-0.33156848
59	0xbf401ddc	-0.7504556
60	0xbf2c53f9	-0.6731563
61	0xbe71cbf4	-0.23612958
62	0xbea23499	-0.31680754
63	0xbf006c65	-0.50165397

running_mean f4 [64]
0	0x3dce6bad	0.10079131
1	0x3e0d2e4b	0.1378719
2	0x3f10ec23	0.56610316
3	0x3d9c7243	0.07638981
4	0xbdfb54eb	-0.12272056
5	0x3e267dac	0.16258878
6	0x3eb6de47	0.3571646
7	0xbe1b056f	-0.15138792
8	0xbd394ff1	-0.045242254
9	0xbf0c05a8	-0.5469613
10	0xbdc54d52	-0.09633888
11	0x3d5d97a4	0.054099694
12	0xbec3bb5a	-0.38228875
13	0x3c78acc6	0.015177911
14	0x3d9ede07	0.07757192
15	0xbc20ee7c	-0.009822484
16	0xbde63ace	-0.11241685
17	0x3e2de676	0.16982445
18	0xbe10eab1	-0.14152028
19	0xbec8a42c	-0.39187753
20	0xbe3aed60	-0.18254614
21	0xbd3fa0fe	-0.046784393
22	0x3dad3be6	0.0845869
23	0x3e13eacb	0.14445035
24	0xbeb5159f	-0.35368058
25	0x3e4bdb04	0.19907767
26	0xbe35629e	-0.177134
27	0xbe99a939	-0.3001192
28	0x3e02af00	0.1276207
29	0xbd2cc6b1	-0.042181674
30	0xbf3b1621	-0.7308064
31	0xbcc70f06	-0.024299156
32	0x3d7b6fe9	0.061386023
33	0xbde4aa76	-0.11165325
34	0xbb377f3f	-0.0027999429
35	0x3df1ef0f	0.11813175
36	0xbe823d54	-0.25437415
37	0xbe291ea3	-0.16515593
38	0xbe4b103e	-0.19830415
39	0xbddc85f3	-0.10767736
40	0x3b8bc66a	0.004265596
41	0xbc2b1563	-0.010442111
42	0xbd15785f	-0.036491748
43	0x3caa909f	0.020820914
44	0xbd98fdb0	-0.07470262
45	0xbf523e2c	-0.82126117
46	0x3ece401e	0.40283293
47	0xbdfe3147	-0.12411743
48	0xbd0ec36c	-0.034854338
49	0xbe99d563	-0.30045614
50	0xbe6b1ba2	-0.2295976
51	0x3ba69e89	0.005084817
52	0xbd415012	-0.0471955
53	0x3ce707f3	0.028202033
54	0xbe9f886b	-0.31158766
55	0x3dd007a2	0.10157706
56	0x3d830574	0.063975245
57	0xbdcfad8d	-0.10140524
58	0xbf030d9d	-0.5119265
59	0x3f1b9c3d	0.60785276
60	0xbe049fa6	-0.12951526
61	0xbf5be303	-0.8589327
62	0xbd7064f2	-0.05869002
63	0xbe4178f7	-0.188938

running_var f4 [64]
0	0x3ce7bcf2	0.028288338
1	0x3c87e291	0.016587527
2	0x3d5c1656	0.05373224
3	0x3d0db4fb	0.034596425
4	0x3d93f68d	0.0722476
5	0x3cc175ee	0.023615804
6	0x3d79efee	0.06101983
7	0x3d0068ef	0.031350072
8	0x3c84a636	0.016192537
9	0x3d4dd5f8	0.050252885
10	0x3cff6b3a	0.03117906
11	0x3b9acec5	0.004724356
12	0x3d9e74f1	0.077371486
13	0x3c3ee9be	0.011652408
14	0x3d85e2ab	0.06537374
15	0x3c8be83f	0.017078517
16	0x3ce3756a	0.027765948
17	0x3c119aa0	0.008886963
18	0x3b24fcd7	0.0025175118
19	0x3d824cb5	0.06362287
20	0x3d428813	0.04749305
21	0x3cf2433e	0.02957308
22	0x3c58ab2d	0.013224405
23	0x3d325528	0.043538243
24	0x3d6af7c5	0.057365198
25	0x3d99ad01	0.07503701
26	0x3cefb343	0.029260283
27	0x3bf7190c	0.0075408276
28	0x3d374720	0.044745564
29	0x3cae3560	0.021265686
30	0x3e0749f1	0.132118
31	0x3cb772a3	0.02239353
32	0x3ccefe23	0.025267666
33	0x3cb4c622	0.022067133
34	0x3c41a8dd	0.011820045
35	0x3d347732	0.044058986
36	0x3d1cd580	0.038289547
37	0x3d23e0f6	0.04000946
38	0x3d4a2848	0.04935482
39	0x3d1065a5	0.035253186
40	0x3d276b78	0.040873975
41	0x3c8754ac	0.016519867
42	0x3d0f0fd1	0.034927193
43	0x3c1f793a	0.0097334925
44	0x3d3f1950	0.046655
45	0x3df439ad	0.11925063
46	0x3dbb94ba	0.09159227
47	0x3d5977fd	0.053092945
48	0x3c0676f9	0.008207076
49	0x3b6f886b	0.0036549817
50	0x3d24f42c	0.040271923
51	0x3bbe2882	0.0058031688
52	0x3d55b110	0.052170813
53	0x3d475758	0.048667282
54	0x3caa8cfa	0.020819176
55	0x3d470404	0.048587814
56	0x3b295c39	0.0025842323
57	0x3c89e10a	0.01683094
58	0x3d5b0a7f	0.053476807
59	0x3dcd79eb	0.1003302
60	0x3c269773	0.010167944
61	0x3e49dd80	0.19713402
62	0x3c943d51	0.018095644
63	0x3b9c18a5	0.00476368

weight f4 [32, 64, 3, 3]
0	0xbdad19f1	-0.084522136
1	0xbdf56f40	-0.1198411
2	0xbe321c17	-0.17393528
3	0x3cae9244	0.02130998
4	0x3a5d5eb1	0.0008444591
5	0xbd659919	-0.05605421
6	0x3dbc03e6	0.09180431
7	0x3c8c5a76	0.017132979
8	0xbd9b3c58	-0.07579869
9	0xbde40c3d	-0.11135147
10	0xbe1d4635	-0.15358813
11	0xbd7d1f2b	-0.061797302
12	0x3d4c47fc	0.049873337
13	0xbdee07ab	-0.11622556
14	0xbdbaa952	-0.091143265
15	0x3dd66614	0.104686886
16	0x3db99e72	0.09063424
17	0xbe645fec	-0.22302216
18	0xbdbeda43	-0.09318974
19	0xbddb8284	-0.10718253
20	0xbe4ca726	-0.19985637
21	0x3d5dc21c	0.054140195
22	0xbb6b35a1	-0.003589012
23	0xbab87e37	-0.0014075701
24	0x3e16d1d7	0.14728485
25	0x3c6541ed	0.013992769
26	0x3d4d3e65	0.050108332
27	0x3cbf981c	0.023387961
28	0x3c9692b4	0.0183805
29	0xbe3fd2fc	-0.18732828
30	0xbe0ac11f	-0.13550232
31	0xbe199980	-0.14999962
32	0xbe23af94	-0.15984946
33	0x3e0037f9	0.12521352
34	0x3d036b74	0.032084897
35	0x3dd4fb4a	0.10399492
36	0xbe0d9ef7	-0.13830172
37	0xbd40fdf1	-0.047117177
38	0x3b3f4f5b	0.0029191587
39	0xbdd8fb40	-0.10594797
40	0xbcfe9a78	-0.031079516
41	0xbdaa561a	-0.08317204
42	0xbeab7fe2	-0.33496004
43	0xbe2af2c5	-0.16694172
44	0x3de078f7	0.10960572
45	0x3e60405c	0.21899551
46	0x3daf755d	0.08567307
47	0x3e4067a6	0.18789539
48	0xbd9bee59	-0.076138206
49	0xbd84d351	-0.06485618
50	0x3df519f1	0.119678386
51	0xbe036c31	-0.1283424
52	0xbd61a1b2	-0.055085845
53	0x3e27c98c	0.16385478
54	0xbd24da37	-0.04024717
55	0xbe0c04f2	-0.13673761
56	0xbdd56e40	-0.10421419
57	0x3c84d20b	0.016213438
58	0xbd92b804	-0.071640044
59	0xbe1863d9	-0.14881839
60	0x3d173364	0.036914244
61	0x3c520593	0.012818712
62	0xbd51b5bd	-0.05119871
63	0x3e0a8d24	0.13530403
64	0xbe5ba653	-0.21450166
65	0xbe5c1d0d	-0.21495457
66	0x3d554429	0.052066956
67	0xbe13b12a	-0.14423051
68	0xbdd8c69f	-0.10584759
69	0x3b4e674f	0.0031494682
70	0xbdd23205	-0.10263447
71	0xbd915b4a	-0.0709749
72	0x3c8fcaee	0.01755282
73	0x3d8e922f	0.06961476
74	0x3ba314f4	0.004976863
75	0xbe822c4d	-0.25424424
76	0xbe9d8eb9	-0.3077295
77	0xbe457c5e	-0.19285724
78	0xbc03fe36	-0.008056214
79	0x3c93039a	0.017946053
80	0xbdff0639	-0.12452359
81	0x3be45d8e	0.0069691604
82	0xbd9c6b26	-0.076376244
83	0xbe2abed6	-0.1667436
84	0x3c46813b	0.012115772
85	0xbcc8667a	-0.024462927
86	0x3e41fec2	0.18944839
87	0x3d70c7a5	0.058784146
88	0x3d803985	0.06260971
89	0x3e736141	0.23767568
90	0xbcdd87d9	-0.027042316
91	0xbe28c0b6	-0.16479763
92	0x3cca1f47	0.024673117
93	0xbe29c79c	-0.16580051
94	0xbceacec2	-0.028663043
95	0x3e9d6940	0.30744362
96	0xbe668e28	-0.22515166
97	0xbe03a72d	-0.12856741
98	0xbc866d9d	-0.01640969
99	0xbe0f24ca	-0.13978878
100	0xbe92a8cb	-0.28644404
101	0x3d1a4793	0.037665915
102	0xbdd2fbc8	-0.1030193
103	0xbe095ff3	-0.13415508
104	0x3b860e14	0.0040910337
105	0x3e400175	0.18750556
106	0xbd0f56ac	-0.034994766
107	0xbdf24867	-0.11830216
108	0x3d57ee64	0.05271758
109	0xbdb42d0e	-0.08797656
110	0xbde76b93	-0.11299815
111	0x3dea9d3c	0.11455771
112	0x3de5bcdd	0.112176634
113	0x3dd0f30a	0.10202606
114	0xbc8bc620	-0.017062247
115	0xbd32c643	-0.04364611
116	0x3de973a9	0.113990135
117	0x3c42e75a	0.011895979
118	0xbe48d5f2	-0.19612864
119	0x3dd38e7b	0.1032991
120	0xbd27675f	-0.040870067
121	0xbe01eddb	-0.12688391
122	0x3e69fe1a	0.22850838
123	0x3c8f4131	0.01748714
124	0x3c9adab2	0.01890311
125	0x3e2cce97	0.16875683
126	0x3e14fbd5	0.14549191
127	0x3d030234	0.031984523
128	0xbba2e6e6	-0.004971373
129	0x3e2dbb66	0.16966018
130	0x3e0acaa8	0.1355387
131	0x3de179a9	0.11009533
132	0x3e2e4c8d	0.1702139
133	0x3de7c1bd	0.113162495
134	0xbda51c99	-0.08062095
135	0x3dc28f81	0.095000274
136	0x3d2968f0	0.04135984
137	0x3e69c0f0	0.22827506
138	0x3dc6b45d	0.0970237
139	0xbd1722ea	-0.03689853
140	0xbab9604e	-0.0014143081
141	0x3ca6a297	0.0203412
142	0xbe53fb52	-0.2070134
143	0xbe04f447	-0.1298381
144	0x3c5d5e67	0.013511277
145	0x3e162030	0.14660716
146	0x3d98662c	0.07441363
147	0xbeae37f1	-0.34027055
148	0xbd9beb98	-0.07613295
149	0x3e011ee0	0.12609434
150	0xbeb3fa45	-0.35151878
151	0xbeb8a7c0	-0.36065483
152	0x3cb91ec7	0.022597684
153	0xbd822b70	-0.06355941
154	0x3e112b8a	0.14176765
155	0xbdb680bc	-0.08911273
156	0xbdc7d0a6	-0.097565934
157	0xbe114b75	-0.14188941
158	0x3cb4e4d8	0.022081777
159	0xbdaee3d5	-0.08539549
160	0xbdcf3b03	-0.101186775
161	0xbbf50acd	-0.007478094
162	0xbd630fd2	-0.05543501
163	0x3e78ee77	0.24309717
164	0x3c92c611	0.017916711
165	0xbd54f51e	-0.051991574
166	0x3c8056d2	0.0156664
167	0xbd74c724	-0.059760228
168	0xbde80f92	-0.11331095
169	0x3b7faf1c	0.0039014285
170	0x3d15f3de	0.036609523
171	0x3c94c3db	0.018159797
172	0xbdec9db7	-0.11553519
173	0x3dfd5fd1	0.12371791
174	0x3e099965	0.13437422
175	0xbd98469c	-0.07435343
176	0x3e5fb6c3	0.21847062
177	0x3e976ce4	0.29575264
178	0x3df444f5	0.11927215
179	0xbd4c3ee6	-0.049864672
180	0xbd2ab649	-0.041677747
181	0xbe0bb6c6	-0.13643941
182	0xbddbe83d	-0.10737655
183	0x3d491772	0.049094625
184	0xbe108f13	-0.14117078
185	0xbd87478e	-0.06605445
186	0x3d863655	0.06553332
187	0x3de1ad89	0.11019427
188	0x3d10b27f	0.035326477
189	0xbe43fd95	-0.19139703
190	0xbe069838	-0.13144004
191	0xbde30d4b	-0.1108652
192	0x3d401640	0.04689622
193	0x3dae754d	0.08518467
194	0xbe016f6a	-0.12640157
195	0x3e1cff06	0.15331659
196	0x3dbd2ee7	0.092374615
197	0x3ded4dc9	0.11587102
198	0x3e150be0	0.14555311
199	0x3e5de25e	0.21668383
200	0xbcf18068	-0.029480174
201	0x3d8c067d	0.06837175
202	0x3d940916	0.072282955
203	0x3da162e4	0.0788019
204	0xbd9498c5	-0.07255701
205	0x3dcba4fa	0.09943576
206	0xbdebc5f8	-0.11512369
207	0xbd8ef70c	-0.06980714
208	0xbda5df5b	-0.08099242
209	0x3e1f44f7	0.15553652
210	0x3ce1fc2a	0.027586062
211	0xbcc856e9	-0.024455504
212	0x3d369728	0.044577748
213	0x3e94a6f6	0.2903363
214	0x3e4927ed	0.19644137
215	0x3deda175	0.11603061
216	0x3d30ad8f	0.04313427
217	0x3d153d24	0.03643526
218	0x3da25f98	0.07928389
219	0x3e1e68ca	0.15469661
220	0x3d95e1f8	0.07318491
221	0xbe2eb8c9	-0.17062677
222	0x3e096f59	0.13421382
223	0x3e1e8d92	0.15483692
224	0xbccdc93c	-0.02512037
225	0x3d921cb5	0.07134382
226	0xbd79308e	-0.06083732
227	0x3d97cead	0.07412467
228	0x3da8c23e	0.08240174
229	0x3dea7e94	0.11449924
230	0xbd345aa0	-0.04403174
231	0x3e4fb765	0.20284803
232	0x3e335a3a	0.17514887
233	0x3db42584	0.08796218
234	0x3dfa08b6	0.12208693
235	0xbd4cdf39	-0.05001757
236	0xbd452844	-0.048134103
237	0x3ddd7494	0.10813251
238	0x3e5c9e62	0.21544793
239	0x3e9403bf	0.28909108
240	0xbec65e27	-0.38743708
241	0xbd9da638	-0.07697719
242	0x3e0fe473	0.1405199
243	0x3e082739	0.13296212
244	0xbdac9a76	-0.084278986
245	0xbe048bfc	-0.12944025
246	0x3d62e3eb	0.05539314
247	0xbe0e540a	-0.13899246
248	0xbe23f786	-0.16012391
249	0x3b0c18b2	0.0021377024
250	0xbdb4a697	-0.08820837
251	0x3ce363a2	0.02775747
252	0xbd63f303	-0.055651676
253	0x3df92c02	0.12166597
254	0xbe1a6a44	-0.150796
255	0xbe097590	-0.13423753

bias f4 [32]
0	0xbc64b93f	-0.013960182
1	0x3c0ceba1	0.0086011
2	0x3a9d064d	0.0011980027
3	0x3d051db3	0.032499027
4	0x3d27a901	0.04093266
5	0xbd5f3ef3	-0.054503392
6	0x3c71b813	0.014753359
7	0xbca7e677	-0.020495636
8	0x3c8a8356	0.016908329
9	0x3d3c750e	0.04601007
10	0x3d171d61	0.036893252
11	0xbd4b8154	-0.049683884
12	0xbca3e6f0	-0.02000758
13	0xbc209775	-0.009801735
14	0xbaeb616f	-0.0017958115
15	0x3d6895ff	0.056783672
16	0x3c9a6a39	0.018849479
17	0xbd134fd1	-0.03596479
18	0x3ca8c511	0.020601781
19	0xbd1b7bb7	-0.03795978
20	0xbb9f0f8a	-0.0048541473
21	0xbd78a137	-0.06070062
22	0x3c8f0d1d	0.017462308
23	0xbc838c11	-0.016058
24	0x3b2f4fee	0.0026750523
25	0x3d92b7e5	0.07163981
26	0x3bb6bdd7	0.00557683
27	0xbbc91286	-0.0061362414
28	0x3c54f2ba	0.012997324
29	0xbce46954	-0.027882256
30	0xbd7f6f77	-0.06236216
31	0x3d03e904	0.032204643

weight f4 [32]
0	0x3f8c42a7	1.0957841
1	0x3f985cac	1.1903281
2	0x3f951f3e	1.1650159
3	0x3f8c0332	1.0938475
4	0x3f87f734	1.0622315
5	0x3f8d526b	1.1040777
6	0x3fa2540d	1.26819
7	0x3f91c798	1.1389036
8	0x3f9b9446	1.2154624
9	0x3f8d70b1	1.1050016
10	0x3f9c11b0	1.2192898
11	0x3f824bc5	1.0179373
12	0x3f89ece7	1.0775422
13	0x3f841724	1.0319562
14	0x3f981c62	1.1883662
15	0x3f8ac263	1.0840572
16	0x3f8eab13	1.1145958
17	0x3f88ce19	1.0687896
18	0x3f932a9f	1.1497382
19	0x3f8fd119	1.1235687
20	0x3f84080e	1.0314958
21	0x3f97e5ed	1.1867043
22	0x3f9e7656	1.2379863
23	0x3f88bba8	1.0682268
24	0x3f841538	1.0318975
25	0x3f8f1c5e	1.1180532
26	0x3f919a8f	1.1375293
27	0x3f9a629d	1.2061344
28	0x3f98077f	1.1877288
29	0x3f88a049	1.0673915
30	0x3f9f17fe	1.2429197
31	0x3f940ad6	1.1565807

bias f4 [32]
0	0xbea1610e	-0.3151936
1	0xbe98e996	-0.29865712
2	0xbde2f275	-0.11081401
3	0xbd5bb094	-0.053635195
4	0xbe192f36	-0.14959416
5	0xbea2f183	-0.31824884
6	0xbec175d9	-0.37785223
7	0xbe81b117	-0.2533042
8	0xbed1265b	-0.40849575
9	0xbe8518bf	-0.25995442
10	0xbeb9158a	-0.36149246
11	0xbe136a0a	-0.1439592
12	0xbeb73d73	-0.3578907
13	0xbe49ca2f	-0.19706033
14	0xbe96bd54	-0.2944132
15	0xbe2ca8ab	-0.16861217
16	0xbe71c441	-0.23610021
17	0xbe8dde32	-0.27708584
18	0xbeceb5ba	-0.4037302
19	0xbeeb1c7a	-0.45920163
20	0xbe835d20	-0.25656986
21	0xbeef62c7	-0.4675505
22	0xbee04c3f	-0.4380817
23	0xbd58d9c0	-0.052942038
24	0xbea8fb9d	-0.33004466
25	0xbe860fdd	-0.26183978
26	0xbed3e7b1	-0.41387704
27	0xbe3f7d83	-0.18700223
28	0xbeca6768	-0.39532018
29	0xbe9d6762	-0.30742937
30	0xbdf87e1c	-0.121334285
31	0xbf00ec9b	-0.5036103

running_mean f4 [32]
0	0xbfba404f	-1.4550875
1	0xbf58c7b7	-0.8467974
2	0xbfa092b3	-1.2544769
3	0x3dc32a4c	0.09529552
4	0xbf0d7c88	-0.55268145
5	0xbed9ff1c	-0.42577446
6	0xc042875b	-3.0395114
7	0xc08dd1bf	-4.431854
8	0xbffc8709	-1.972871
9	0xc0009cb5	-2.0095646
10	0xbf9440aa	-1.1582234
11	0x3fe6513e	1.7993543
12	0xbe75a12a	-0.2398726
13	0x3ee789af	0.45222232
14	0xbf56f149	-0.8396192
15	0xc02844c1	-2.6291964
16	0x3f230d10	0.63691807
17	0xc0044471	-2.0666773
18	0xc003b759	-2.0580657
19	0xbfff437e	-1.9942472
20	0xbf3ff407	-0.7498173
21	0xbf0114f9	-0.50422627
22	0xc08f44fa	-4.47717
23	0xbfba3807	-1.4548348
24	0xc0b00864	-5.5010242
25	0xbe647f64	-0.2231422
26	0xbf90266b	-1.1261724
27	0xc0a12d8e	-5.036811
28	0xc033b238	-2.8077526
29	0xbf22fb9e	-0.6366519
30	0xc0083258	-2.1280727
31	0xc05878a8	-3.3823643

running_var f4 [32]
0	0x40b45899	5.635815
1	0x4131bcd4	11.108601
2	0x40fb312e	7.8497534
3	0x41288c0d	10.534192
4	0x40ba6637	5.8249774
5	0x40bd55fb	5.9167457
6	0x418da6ec	17.706505
7	0x4191870d	18.190943
8	0x40f98750	7.7977676
9	0x41283efc	10.515377
10	0x41307675	11.02892
11	0x41161c1e	9.381865
12	0x41297440	10.590881
13	0x40a96a5d	5.294234
14	0x40e8c4b5	7.274012
15	0x413e148a	11.880014
16	0x40babbf4	5.8354435
17	0x412078f5	10.029531
18	0x40ee35ba	7.4440584
19	0x40cde0c7	6.4336886
20	0x408a2369	4.3168225
21	0x40dcfa96	6.905589
22	0x41483e7d	12.515256
23	0x416b132e	14.692183
24	0x414b3bca	12.702097
25	0x40f49bd0	7.64402
26	0x40f5234d	7.660559
27	0x418eb5b8	17.83873
28	0x413eb9d7	11.920371
29	0x40f0e529	7.5279737
30	0x40e85c33	7.261255
31	0x418094cd	16.072657

weight f4 [8, 32, 3, 3]
0	0xbd80caf0	-0.06288707
1	0xbd19ed49	-0.03757981
2	0xbdd2dede	-0.10296415
3	0xbcd7fb0d	-0.026364828
4	0xbd8d24ca	-0.068917826
5	0xbdec6384	-0.115424186
6	0xbdf56984	-0.11983016
7	0xbe881b6d	-0.26583424
8	0xbe7ebfd3	-0.24877863
9	0xbd698be0	-0.05701816
10	0xbe0a3f7e	-0.13500783
11	0xbe64fdc8	-0.22362435
12	0x3ddf1fa7	0.10894709
13	0x3d361966	0.044457816
14	0xbdb66356	-0.089056656
15	0x3e2d0b74	0.168989
16	0x3dde191d	0.10844634
17	0xbcb9b951	-0.022671374
18	0x3da33ab1	0.07970179
19	0x3d463c80	0.04839754
20	0x3d9e18d3	0.077195786
21	0xbe866101	-0.26245883
22	0xbe98622e	-0.29762405
23	0xbe00f4d9	-0.12593402
24	0x3db4721c	0.08810827
25	0xbc7d6281	-0.01546538
26	0xbc82d95b	-0.015972784
27	0xbe3eadc0	-0.18620968
28	0xbe59211a	-0.21204033
29	0xbdc1d35e	-0.09464143
30	0xbcf0d3b7	-0.029397829
31	0xbd51add2	-0.05119116
32	0xbcffb888	-0.031215921
33	0xbd68c849	-0.05683163
34	0xbe293717	-0.16524921
35	0x3d458069	0.048218165
36	0xbd52a638	-0.05142805
37	0xbe1448ff	-0.14480971
38	0xbdce4b70	-0.10072982
39	0xbdaaaa88	-0.083333075
40	0xbe040115	-0.12891038
41	0xba1385d6	-0.0005627548
42	0xbe307af2	-0.172344
43	0xbe065a32	-0.13120344
44	0x3e1870de	0.14886805
45	0xbdd0d7e0	-0.10197425
46	0x3c4ba1f1	0.012428747
47	0x3d237dc0	0.039914846
48	0xbd878c34	-0.066185385
49	0xbccbf26c	-0.02489587
50	0xbc79564f	-0.0152183315
51	0xbe49f7ae	-0.19723389
52	0xbecdb8fd	-0.40180197
53	0xbe21b4e4	-0.1579166
54	0x3debadbb	0.11507746
55	0x3da644f8	0.081186235
56	0x3e2c8026	0.1684576
57	0x3dda0e98	0.10647315
58	0x3e0ffb37	0.14060675
59	0x3e395af2	0.18101099
60	0x3dfb1f46	0.12261824
61	0xbd98f247	-0.07468086
62	0x3d9decab	0.077111565
63	0x3e1eb471	0.1549852
64	0x3e4e81d7	0.20166717
65	0x3e470cd6	0.1943849
66	0x3e3305a7	0.17482625
67	0x3e7b530c	0.24543399
68	0x3e8be570	0.27323484
69	0x3df26cb4	0.1183714
70	0x3dbef2af	0.09323632
71	0x3d923229	0.071384735
72	0xbd8fd1b4	-0.070224196
73	0xbd13c7b8	-0.03607914
74	0xbddb9029	-0.10720856
75	0x3dd2382d	0.10264621
76	0x3db63706	0.08897214
77	0xbcece9f2	-0.028920148
78	0x3d9bbc77	0.07604306
79	0x3e37d7a4	0.17953354
80	0x3d13adda	0.03605447
81	0x3e0c18c6	0.13681325
82	0x3dd3aa33	0.10335197
83	0x3e1d3ffa	0.15356436
84	0xbd4d6bbd	-0.050151575
85	0xbce2d5a8	-0.02768977
86	0x3d88e6db	0.06684657
87	0x3e380283	0.17969708
88	0xbc8e46e9	-0.017367797
89	0xbda736d4	-0.081647545
90	0xbc376012	-0.011192339
91	0x3d259772	0.040427633
92	0x3cdd98eb	0.027050456
93	0x3decd13f	0.11563348
94	0x3cc4ed49	0.024038928
95	0x3e037466	0.12837371
96	0xbd6c7e82	-0.057737835
97	0x3da7f04c	0.0820013
98	0x3e01bb05	0.12668999
99	0x3e6eb46a	0.2331101
100	0x3e132666	0.14370117
101	0x3d828798	0.06373519
102	0x3d2f4840	0.042793512
103	0x3e77f525	0.24214609
104	0x3df01111	0.11722005
105	0x3e49ab77	0.19694315
106	0x3e5a6f9e	0.21331641
107	0x3e88b6db	0.26702008
108	0xbdad86b6	-0.0847296
109	0x3d7ede61	0.062223796
110	0x3e04bc85	0.1296254
111	0xbd821420	-0.06351495
112	0xbe125ede	-0.14294001
113	0xbd7eb940	-0.062188387
114	0x3e19c31f	0.15015839
115	0x3ddea1a3	0.108706735
116	0xbd5ceec4	-0.053938642
117	0xbc5de2d4	-0.01354285
118	0xbe1ae7d9	-0.15127505
119	0xbdd33d3f	-0.10314416
120	0xbda6e95f	-0.08149981
121	0xbe9a0d6d	-0.30088368
122	0xbde4f5e6	-0.11179714
123	0xbe328145	-0.17432125
124	0xbd49ce42	-0.04926897
125	0xbd86bd72	-0.065791026
126	0x3ce53ada	0.027982164
127	0x3c73aa3c	0.01487213
128	0xbcabf21e	-0.020989474
129	0xbda781e8	-0.081790745
130	0xbdc763b3	-0.09735813
131	0xbc199081	-0.009372831
132	0xbe679ddc	-0.22618812
133	0x3bbe0887	0.0057993564
134	0xbe85e887	-0.26153967
135	0xbe9b5d52	-0.30344635
136	0xbda503f4	-0.080573946
137	0xbe31cc94	-0.17363197
138	0xbd535318	-0.051592916
139	0xbb8c7eb2	-0.004287564
140	0xbe38a7d5	-0.18032773
141	0xbd7b09f8	-0.061288804
142	0x3cca1ae7	0.024671031
143	0xbf067f48	-0.52537966
144	0x3d041de3	0.032255065
145	0xbe9b3e27	-0.30320856
146	0xbdfe971c	-0.124311656
147	0xbb437421	-0.0029823857
148	0xbeabc198	-0.33546138
149	0xbe5f26d9	-0.21792163
150	0x3d88a4d9	0.06672067
151	0x3c3a3028	0.01136402
152	0xbe406893	-0.18789892
153	0x3d95491e	0.072893366
154	0xbe076135	-0.13220675
155	0x3b8ffbc4	0.0043940265
156	0xbd840dd6	-0.064479515
157	0xbcb7cb0c	-0.022435687
158	0xbea1884d	-0.31549302
159	0x39639abc	0.0002170605
160	0xbe2d6678	-0.1693362
161	0xbeeea1e0	-0.46607876
162	0x3dad04df	0.08448195
163	0x3c761de4	0.015021775
164	0x3e7e7714	0.24850112
165	0x3c34485b	0.011003579
166	0xbdf3b350	-0.118994355
167	0x3c23c31a	0.009995246
168	0xbe875c9d	-0.26437846
169	0xbdbc40fe	-0.09192084
170	0x3e0df651	0.13863494
171	0xbe8be60c	-0.2732395
172	0xbe68eabb	-0.22745793
173	0xbd88df95	-0.0668327
174	0x3e207da3	0.15672927
175	0xbc3c5bcc	-0.011496495
176	0x3e2e34c8	0.17012322
177	0xbe4dc628	-0.20095122
178	0xbd8a08bd	-0.06739948
179	0x3e38e392	0.18055561
180	0x3dbeccad	0.093163826
181	0xbe70a68f	-0.23501037
182	0xbe5c5661	-0.21517326
183	0xbdb05c9e	-0.08611415
184	0xbd0ca847	-0.03434017
185	0xbe9d689f	-0.30743882
186	0x3cfe32e4	0.031030126
187	0x3e1ef78b	0.15524118
188	0x3db57488	0.08860117
189	0x3e803490	0.25040102
190	0x3da79adf	0.08183836
191	0x3e2167ba	0.15762225
192	0xbdf94c33	-0.12172737
193	0xbdb17f67	-0.08666878
194	0xbdf1c57f	-0.118052475
195	0x3b61f84e	0.0034480277
196	0xbd70a8d5	-0.05875476
197	0xbce304ae	-0.027712192
198	0xbd590839	-0.052986357
199	0xbb597abf	-0.0033184735
200	0xbdb87316	-0.09006326
201	0x3e0f0905	0.13968284
202	0x3dbac4e9	0.09119589
203	0x3a38468f	0.0007029557
204	0x3e0595b8	0.13045394
205	0x3e299d17	0.16563831
206	0x3dab1872	0.08354272
207	0xbe3b350c	-0.18281955
208	0xbe15997f	-0.14609335
209	0xbe4405ad	-0.1914279
210	0xbdcacf0f	-0.099027745
211	0xbda0ec31	-0.0785755
212	0xbcb93e74	-0.022612788
213	0xbe2eea85	-0.1708165
214	0xbd6480d8	-0.055786937
215	0xbe342439	-0.17591943
216	0x3da7c56c	0.08191952
217	0x3d2e24b2	0.042515464
218	0x3e061319	0.13093223
219	0x3d131d3c	0.035916552
220	0x3df869ba	0.12129541
221	0x3e2f69aa	0.17130151
222	0xbdbdc418	-0.092659175
223	0x3da22401	0.079170235
224	0xbba7051b	-0.005097044
225	0x3d7b49f4	0.061349824
226	0xbe2d8bbe	-0.16947839
227	0xbda2a353	-0.07941308
228	0x3dcd8893	0.10035815
229	0xbe224179	-0.15845288
230	0xbd1dbb61	-0.038508777
231	0x3e717e75	0.23583396
232	0xbeab3900	-0.33441925
233	0xbcd5515b	-0.02603977
234	0x3eaa0757	0.33208725
235	0xbdcefaa6	-0.10106401
236	0xbde4e939	-0.11177296
237	0x3e6688c2	0.22513106
238	0x3e3b97ef	0.18319677
239	0x3e26ea0d	0.16300221
240	0x3e94a242	0.29030043
241	0x3e3b3b58	0.18284357
242	0x3defbf70	0.11706436
243	0xbe267970	-0.16257262
244	0xbe35e102	-0.17761615
245	0xbcded015	-0.02719883
246	0x3c368f6a	0.011142591
247	0x3d2ef7c5	0.04271676
248	0x3d7bc660	0.061468482
249	0xbe444548	-0.19167054
250	0xbd1ec95f	-0.03876626
251	0xbcdf67d3	-0.027271187
252	0xbdc6f903	-0.09715464
253	0xbcc2905b	-0.023750475
254	0x3c6f0c13	0.014590281
255	0x3e5c2507	0.214985

bias f4 [8]
0	0xbd0473f0	-0.03233713
1	0x3df23832	0.11827125
2	0x3e483374	0.19550878
3	0xbd96fc95	-0.07372395
4	0x3d60fe27	0.05492988
5	0x3e01a34d	0.1265995
6	0x3d313179	0.04326007
7	0xbd0efd99	-0.03490982

weight f4 [2, 8, 4, 4]
0	0x3ddb2320	0.10700059
1	0xbcd018ac	-0.02540239
2	0xbbe2bf5c	-0.0069197845
3	0x3dc5a66e	0.096508846
4	0x3d6d5210	0.05793959
5	0xbd407503	-0.04698659
6	0xbd098637	-0.033575263
7	0x3d4cfaa6	0.050043724
8	0xbdea892d	-0.114519455
9	0x3eac9093	0.3370405
10	0x3e281aea	0.16416517
11	0xbd836cbf	-0.06417226
12	0xbe6d78a5	-0.23190553
13	0x3ec2e373	0.38064155
14	0x3e3a2e7e	0.18181798
15	0xbeaf35f7	-0.3422086
16	0xbdbb41a4	-0.09143379
17	0x3c52b3a3	0.012860212
18	0x3daff885	0.08592323
19	0xbdaf87ba	-0.0857081
20	0xbd3c3a52	-0.045954056
21	0x3eb528d1	0.35382703
22	0x3ee63e14	0.44969237
23	0x3e5a94f9	0.21345891
24	0xbea38fdc	-0.31945693
25	0x3ea4d60d	0.32194558
26	0x3ebbdd50	0.36692286
27	0x3e850a69	0.25984505
28	0xbe979161	-0.29603103
29	0x3ddfcc4b	0.10927638
30	0x3e296e31	0.16545941
31	0x3e0bbbc4	0.13645846
32	0xbb49a729	-0.0030769801
33	0x3d9fcbd5	0.0780255
34	0xbc95715e	-0.018242534
35	0xbd25dbce	-0.040492825
36	0x3d9330b5	0.071870245
37	0x3e0012d7	0.12507187
38	0xbede1645	-0.43376365
39	0xbe8158ab	-0.2526296
40	0x3c800da4	0.015631504
41	0x3c9332bd	0.01796853
42	0xbf161e82	-0.586403
43	0xbe254bb2	-0.16142157
44	0xbe8d452c	-0.27591836
45	0xbb9a7d71	-0.004714661
46	0x3eb8bd15	0.36081758
47	0x3db20221	0.08691812
48	0xbdb413ef	-0.087928645
49	0x3d7299bd	0.059228648
50	0xbd659ea0	-0.05605948
51	0xbd93c645	-0.07215551
52	0x3e28700e	0.16448995
53	0x3e20dcba	0.157092
54	0x3dde6447	0.1085897
55	0x3e056565	0.1302696
56	0x3f09ca44	0.5382426
57	0x3f0100aa	0.5039164
58	0x3efe4bd6	0.49667233
59	0x3eb0438f	0.34426543
60	0x3eeef728	0.4667294
61	0x3f0bae8c	0.5456321
62	0x3f37ce62	0.7179929
63	0x3eb07a1d	0.34468165
64	0xbdcb24f7	-0.0991916
65	0xbdd954fe	-0.10611914
66	0xbccc4f54	-0.02494017
67	0x3d5cdc42	0.05392099
68	0xbe5bbcac	-0.21458691
69	0xbe9619f7	-0.29316685
70	0xbd9fe925	-0.07808141
71	0x3e4b77e6	0.19869956
72	0xbe9f43b0	-0.3110633
73	0xbe41a743	-0.18911462
74	0xbe06d453	-0.13166933
75	0xbd7af215	-0.061266024
76	0xbddbed13	-0.10738578
77	0x3da41fa8	0.080138505
78	0x3d82a867	0.063797764
79	0xbe1a9062	-0.1509414
80	0x3da3cf1f	0.079984896
81	0xbd94862c	-0.07252154
82	0xbd8e558d	-0.06949911
83	0x3e7547b2	0.23953131
84	0x3e3421d9	0.17591037
85	0xbe86a6ac	-0.26299036
86	0xbe38d590	-0.18050218
87	0xbdadbc7c	-0.08483216
88	0x3d06c05f	0.032898303
89	0x3e0dba6f	0.1384065
90	0xbdc56cd6	-0.096398994
91	0xbdda3286	-0.10654168
92	0xbd4af4c3	-0.04954983
93	0x3d0743c6	0.03302362
94	0x3d2769ac	0.04087226
95	0xbe903767	-0.2816727
96	0x3d424ff2	0.047439523
97	0xbc7a22aa	-0.015267054
98	0x3dbb4e39	0.09145779
99	0x3d3ef1ac	0.046617195
100	0xbe153cfd	-0.14574046
101	0xbccd9f2a	-0.02510031
102	0x3c8918c9	0.016735451
103	0xbd80d714	-0.06291023
104	0xbc235646	-0.0099693
105	0x3e480252	0.19532135
106	0x3eb48081	0.3525429
107	0xbdc1fde7	-0.09472256
108	0x3e8b8372	0.27248722
109	0x3e843333	0.25820312
110	0x3d880791	0.06642068
111	0xbdd62896	-0.1045696
112	0xbd0825f5	-0.033239324
113	0x3caf5706	0.0214038
114	0xbdc02768	-0.09382516
115	0x3d4554b0	0.048176467
116	0x3b872895	0.004124711
117	0x3e2a8bd0	0.16654897
118	0x3dd7c39d	0.10535357
119	0x3cf2d32b	0.029641708
120	0xbdefef09	-0.11715514
121	0xbe9b4da1	-0.30332664
122	0xbee07329	-0.4383786
123	0x3ca0fca1	0.019651713
124	0xbe411788	-0.18856633
125	0xbe4b5ad4	-0.19858867
126	0xbe716097	-0.23572002
127	0xbe1f632f	-0.1556518
128	0x3dd4a4b1	0.10382975
129	0x3e7d43ff	0.2473297
130	0x3e4f9afb	0.20273964
131	0x3b2c8a20	0.0026327446
132	0x3e87d7bd	0.26531783
133	0x3d1b2ff8	0.037887543
134	0xbc874109	-0.016510503
135	0x3e90a190	0.28248262
136	0x3da8ab96	0.082358524
137	0xbdca05b6	-0.098643705
138	0x3d72098a	0.05909113
139	0x3e0c9d0d	0.13731785
140	0xbb927f11	-0.004470714
141	0x3e587645	0.21138866
142	0x3e269e26	0.16271266
143	0xbe107632	-0.14107588
144	0x3d7f3229	0.062303696
145	0xbe561384	-0.20905882
146	0xbe260074	-0.1621111
147	0x3d1b59a7	0.037927296
148	0xbd39d345	-0.045367498
149	0x3df2e777	0.11860555
150	0x3d87cbd0	0.06630671
151	0x3dd9e733	0.10639801
152	0xbc3c402a	-0.011489907
153	0x3ed9aa48	0.42512727
154	0x3e8e0e15	0.2774512
155	0x3e1ac990	0.15115952
156	0xbe0c064b	-0.13674276
157	0xbb38b365	-0.00281831
158	0xbd44ddc9	-0.048063073
159	0xbc3bc6ec	-0.011461001
160	0xbdb830db	-0.089936934
161	0xbe3a9bfa	-0.18223563
162	0xbe18de3c	-0.14928526
163	0xbda02309	-0.078191824
164	0x3dc9bf5b	0.09850951
165	0xbe0fd2f4	-0.14045316
166	0x3e5f65ca	0.21816173
167	0xbc158db9	-0.009128028
168	0x3dc2f1a7	0.09518748
169	0x3d59b701	0.05315304
170	0x3ed122e6	0.40846938
171	0x3e050757	0.12991081
172	0x3e099ea2	0.1343942
173	0x3e30d92d	0.17270346
174	0x3da0a3c1	0.078437336
175	0x3c729ac1	0.014807404
176	0x3d46b625	0.04851355
177	0xbdb4f1d2	-0.08835186
178	0xbda28999	-0.07936401
179	0xbc8a2fa5	-0.016868422
180	0xbd7201f1	-0.059083883
181	0x3d25bb03	0.04046155
182	0xbda4204a	-0.08013971
183	0xbe131848	-0.14364731
184	0xbe881443	-0.26577958
185	0xbe7ae48a	-0.24501243
186	0xbddc7ce1	-0.10766006
187	0xbe8a0e65	-0.26964107
188	0xbe6a8d41	-0.22905447
189	0xbe9338d5	-0.28754297
190	0xbe737e30	-0.23778605
191	0xbe8aafb5	-0.2708718
192	0x3db7e276	0.08978741
193	0xbc4109c1	-0.011782111
194	0xbd3e37a9	-0.0464398
195	0x3d40c40a	0.047061957
196	0xbcad2e80	-0.021140337
197	0x3d5db853	0.054130863
198	0xbdd1e38a	-0.10248478
199	0x3c386763	0.011255118
200	0x3cf36b3e	0.029714223
201	0xbe0ddd5c	-0.13853973
202	0xbccd4bd6	-0.025060575
203	0xbd314e34	-0.04328747
204	0x3b9e96e9	0.0048397672
205	0x3d9c68bf	0.07637166
206	0x3e4955f5	0.19661696
207	0x3e3c34a4	0.18379456
208	0xbd8e2dad	-0.06942306
209	0x3dc9a8fd	0.09846685
210	0xbd3d1e57	-0.046171512
211	0xbdab377f	-0.083601944
212	0xbe12af29	-0.14324631
213	0x3e9270b4	0.2860161
214	0x3ea7c5ef	0.327682
215	0x3ee3c891	0.44488958
216	0xbb437619	-0.002982503
217	0x3e0f6ac9	0.14005579
218	0x3e9fe82d	0.31231824
219	0x3e56f786	0.2099286
220	0xbcbb5f8c	-0.022872709
221	0x3d53374d	0.05156641
222	0x3d211056	0.03932222
223	0xbd9f3def	-0.07775485
224	0x3d5bb442	0.053638704
225	0xbdaa4f57	-0.08315914
226	0xbde0c2e1	-0.1097467
227	0xbd6d3283	-0.0579095
228	0x3e744473	0.23854236
229	0xbd148502	-0.03625966
230	0xbdd2c68e	-0.102917776
231	0xbe88b689	-0.26701763
232	0x3e3ef2b8	0.18647277
233	0x3e5d6afb	0.21622841
234	0x3e52316a	0.20526662
235	0xbe8f1d87	-0.27952215
236	0xbd903442	-0.070412174
237	0x3dc7122b	0.09720262
238	0x3dec5f1c	0.11541578
239	0x3dd5e38a	0.1044379
240	0x3d9b3dd2	0.07580151
241	0x3d71c6db	0.059027534
242	0xbc539378	-0.012913577
243	0x3ded7749	0.115950175
244	0xbdf68545	-0.12037138
245	0xbdc2b517	-0.095071964
246	0xbdd23b08	-0.102651656
247	0xbdbf69a0	-0.09346318
248	0xbe435399	-0.19074859
249	0xbf1b9a84	-0.6078265
250	0xbeb4a82f	-0.35284564
251	0xbe013bd8	-0.12620485
252	0xbdd48f92	-0.10378946
253	0xbe8cd33f	-0.27504918
254	0xbe626878	-0.22110164
255	0xbe21391c	-0.15744442

bias f4 [2]
0	0xbe3ea590	-0.18617845
1	0xbded4b92	-0.115866795

weight f4 [16, 2]
0	0x3f605240	0.87625504
1	0x3f37ad54	0.7174885
2	0x3eacfb75	0.33785596
3	0xbf329fc7	-0.6977505
4	0xbf0cd28d	-0.55008775
5	0x3ec459e4	0.3834983
6	0xbeb219b4	-0.34785235
7	0x3f587df4	0.8456719
8	0xbf179b5f	-0.5922145
9	0x3e904977	0.2818105
10	0xbe4f2764	-0.2022987
11	0x3e84a73b	0.25908837
12	0xbe573b44	-0.21018702
13	0x3e798a38	0.24369133
14	0x3e6b0aae	0.22953293
15	0x3f1565ad	0.5835827
16	0xbead201d	-0.33813563
17	0x3ef3c266	0.47609252
18	0xbf87d53a	-1.0611947
19	0xbf37ed78	-0.71846724
20	0x3f275c15	0.6537488
21	0x3dadc950	0.08485663
22	0xbcd82a72	-0.026387427
23	0x3f391bf6	0.7230829
24	0x3c72b8d2	0.014814572
25	0x3f2ad762	0.667349
26	0x3f45bac2	0.77238095
27	0xbf19afe7	-0.6003403
28	0x3f03dcff	0.5150909
29	0x3ee1eacc	0.44124448
30	0xbe8ea99c	-0.27863777
31	0xbf5c7bc7	-0.8612637

bias f4 [16]
0	0xbe5ae085	-0.2137471
1	0x3edc7073	0.43054542
2	0xbbf7b279	-0.0075591174
3	0xbd955bc8	-0.072928965
4	0xbea74b4e	-0.3267464
5	0x3fa178bd	1.2614971
6	0xbf40cda0	-0.7531376
7	0x3e78ceec	0.24297684
8	0xbf51a227	-0.8188805
9	0x3f242bbb	0.6412923
10	0xbf53e22e	-0.82767
11	0x3ebe2d1e	0.37143797
12	0x3f53e497	0.82770675
13	0xbe5b8461	-0.21437217
14	0xbf0edbdd	-0.55804235
15	0xbf24219a	-0.6411377

weight f4 [10, 16]
0	0x3e412077	0.1886004
1	0xbdae19b4	-0.08500996
2	0x3dff2d84	0.12459853
3	0x3e3b4909	0.1828958
4	0xbebdcd0e	-0.37070507
5	0x3df5d554	0.1200358
6	0x3e83e394	0.25759566
7	0x3e522e3e	0.20525452
8	0xbb86e42a	-0.0041165547
9	0xbf2427d3	-0.64123267
10	0xbe8e4007	-0.27783224
11	0x3e766277	0.24060999
12	0xbd14e264	-0.036348715
13	0x3e727c77	0.23680292
14	0xbdd70fb4	-0.10501042
15	0xbdf85226	-0.121250436
16	0x3efdc7eb	0.49566588
17	0x3cf9f326	0.03051145
18	0x3e8931bf	0.26795766
19	0xbeb7854d	-0.35843888
20	0x3e877281	0.26454547
21	0xbf098cb2	-0.5373031
22	0xbd149825	-0.03627791
23	0x3c1f42aa	0.009720484
24	0xbcf356aa	-0.02970441
25	0xbf430458	-0.76178503
26	0x3e5479a1	0.20749523
27	0xbe89b10e	-0.26892895
28	0xbe472d27	-0.19450818
29	0x3e3d9c43	0.1851664
30	0x3e0ae121	0.13562442
31	0xbe5ea41d	-0.21742292
32	0xbed8afc3	-0.42321596
33	0xbe961d4c	-0.29319227
34	0x3e379250	0.17926908
35	0x3e08d763	0.13363414
36	0x3dc8eb2f	0.09810483
37	0x3e85c721	0.26128486
38	0xbcd90467	-0.026491357
39	0x3e80b8fb	0.2514113
40	0xbe046147	-0.12927733
41	0xbd84fac5	-0.06493143
42	0x3bd4dfab	0.00649639
43	0xbe0cb06f	-0.13739179
44	0x3eb5584b	0.35418925
45	0xbe6f055c	-0.23341888
46	0xbecb0cd3	-0.39658222
47	0x3ded5137	0.11587756
48	0xbdf5730c	-0.11984834
49	0x3e2a3248	0.16620743
50	0x3cece1a9	0.028916197
51	0xbe04f699	-0.12984695
52	0xbe95a25d	-0.29225436
53	0x3f27de0f	0.6557321
54	0x3ee157f0	0.44012403
55	0xbe7a53c9	-0.24446024
56	0xba7fa8c6	-0.0009752627
57	0x3ddc41aa	0.10754712
58	0x3d83a57c	0.06428048
59	0xbee47221	-0.44618323
60	0xbd5c52ac	-0.05378978
61	0xbea0cf0d	-0.31407967
62	0xbe7542bc	-0.23951238
63	0xbf01c7fa	-0.50695765
64	0xbe8b08ec	-0.27155244
65	0xbe3e1810	-0.18563867
66	0x3ea17a87	0.31538793
67	0xbe1c97c7	-0.15292273
68	0x3e85c175	0.26124159
69	0xbe5654cd	-0.20930786
70	0xbf0710e1	-0.5276013
71	0x3ec78a67	0.3897278
72	0xbead9827	-0.33905146
73	0x3ed1b4d1	0.40958264
74	0xbeca6b24	-0.39534867
75	0x3e398bc1	0.18119718
76	0x3da6be08	0.08141714
77	0xbf2147f6	-0.6300043
78	0xbe41ab57	-0.18913017
79	0x3e33be5f	0.1755309
80	0xbebd12c8	-0.3692839
81	0x3e3117e2	0.17294267
82	0xbe970bbf	-0.2950115
83	0xbdbaa5a0	-0.09113622
84	0xbf3d2986	-0.73891485
85	0x3f11579b	0.567743
86	0x3e18df2f	0.14928888
87	0xbe7b3036	-0.2453011
88	0xbb93bd81	-0.0045086746
89	0x3e76d48a	0.24104515
90	0x3c9a2e79	0.018820988
91	0xbeb5ea9c	-0.35530555
92	0xbecedacd	-0.40401307
93	0xbeff477c	-0.49859226
94	0x3c24c2b7	0.010056189
95	0xbe676f94	-0.22601157
96	0xbe520928	-0.20511305
97	0xbed8cbf8	-0.42343116
98	0x3ea32fc3	0.31872377
99	0x3eb0c119	0.34522322
100	0x3f16e7d2	0.5894748
101	0xbe19a249	-0.15003313
102	0x3d566dce	0.05235081
103	0xbeaa4e5b	-0.33262905
104	0x3ec6c1c8	0.38819718
105	0x3dffa3e9	0.12482435
106	0x3ee96f77	0.45592853
107	0xbdc563e4	-0.09638193
108	0xbe8aa61b	-0.27079853
109	0x3d837372	0.06418504
110	0xbdb994c3	-0.09061577
111	0xbf11dde3	-0.569792
112	0xbe6c9eef	-0.23107503
113	0x3ec942e8	0.39308858
114	0xbe59ef00	-0.21282578
115	0xbd935586	-0.07194047
116	0xbf1dada1	-0.6159306
117	0xbf1279df	-0.5721721
118	0xbcd41994	-0.025891103
119	0xbca2163a	-0.01978599
120	0xbe93b7f4	-0.28851283
121	0x3e8dd366	0.27700347
122	0xbef1e952	-0.47248322
123	0xbe540369	-0.20704426
124	0x3ecc360c	0.39884984
125	0xbe3507e8	-0.17678797
126	0xbe375d28	-0.1790663
127	0x3f06fcf8	0.5272975
128	0x3e6ab8be	0.22922036
129	0xbd7b766c	-0.061392233
130	0xbea20c1a	-0.31649858
131	0xbd4db774	-0.050223783
132	0xbf3107fb	-0.691528
133	0xbe522060	-0.20520163
134	0x3e418c90	0.18901277
135	0x3bc27a30	0.005934976
136	0xbe92601e	-0.28588957
137	0xbf4a5c47	-0.79047054
138	0x3e8303d9	0.25588873
139	0x3e9242cf	0.28566596
140	0x3e5139d8	0.20432222
141	0xbe91d5b8	-0.28483367
142	0x3ea5e38d	0.3240017
143	0xbe7c3095	-0.24627908
144	0x3e2b89a7	0.16751729
145	0x3ede9b19	0.43477705
146	0xbf0addfa	-0.5424496
147	0xbe4c78ff	-0.19968031
148	0xbe4e4fe4	-0.20147663
149	0xbf2a9165	-0.66628104
150	0xbd5327be	-0.051551573
151	0xbe13e3c1	-0.1444235
152	0xbcd3e889	-0.025867717
153	0xbeee983d	-0.46600524
154	0xbcc8da1d	-0.024518067
155	0x3e8af453	0.2713953
156	0x3cedcb95	0.02902774
157	0x3ef5f35a	0.48037225
158	0xbe853b23	-0.2602168
159	0xbc794c5e	-0.015215961

bias f4 [10]
0	0x3db8556c	0.09000668
1	0xbf269ed9	-0.6508613
2	0x3e80c117	0.25147316
3	0x3f4ca331	0.7993651
4	0xbf0f77ab	-0.56041974
5	0x3f8606c6	1.0470817
6	0xbf371a04	-0.7152407
7	0xbe409d58	-0.18810022
8	0xbe5aa8ab	-0.21353404
9	0xbdf16c51	-0.11788238
