project_2/part_2/models/saved/kuba_mnist_smol.pt (torch, 26828 bytes, 12 tensors)

weight f4 [10, 1, 5, 5]
000000 21 99 f8 3e 74 88 09 3d a2 46 1a 3d 82 0e a9 3e
       0.48554328 0.033577397 0.037665017 0.3301888
000010 5d d7 f0 3c 1e e4 41 3e b4 52 30 be 19 ad c0 bc
       0.029399568 0.18934676 -0.17219049 -0.02352004
000020 23 a4 3b 3e 36 1d 28 be 73 f8 7d 3e 1b 6c a2 3d
       0.18324332 -0.16417393 0.24801807 0.07930776
000030 b2 6b f7 3d bc a6 8f 3e f8 d7 1d 3f 5c 7f 98 3e
       0.12081088 0.28056896 0.6165767 0.29784667
000040 eb e3 81 3e e6 1b c2 3d c9 b3 04 bd 8d 42 ae 3e
       0.253692 0.094779775 -0.03239802 0.3403515
000050 c1 67 a8 bd 45 57 48 be ef b6 e0 be 56 4a ba be
       -0.082229145 -0.1956454 -0.43889567 -0.3638484
000060 b3 f6 1a bf b7 fa 90 be af 79 87 3d ba 7f a0 3d
       -0.60532683 -0.2831628 0.06615006 0.07836862
000070 09 90 4d be 55 90 a6 be dd 7d 79 bd ad c5 89 3e
       -0.20074476 -0.32531992 -0.06091105 0.26908627
000080 57 18 94 3e 19 c7 92 bd 5d f8 00 bf 91 83 8c bc
       0.2892482 -0.07166881 -0.5037897 -0.01715258
000090 8e d3 06 3f 92 f3 c6 3d 52 89 02 bf 6f 3f 71 bd
       0.52666557 0.09714426 -0.50990784 -0.058898386
0000a0 2d d7 67 3e 9c ee 8a 3d f6 18 3f be 50 ee 8d 3e
       0.22640677 0.067837924 -0.18661866 0.2772088
0000b0 e2 f6 84 3f d1 2a 4d 3e 34 e1 90 3e 93 38 3e bd
       1.0387843 0.20035864 0.28296816 -0.046440672
0000c0 d0 b5 34 3c 06 ef d1 3d cc 99 da 3e cb de 38 bf
       0.011029676 0.10250668 0.42695463 -0.72214955
0000d0 92 d8 7a be 33 d3 39 3e be c8 9b 3d 74 e0 42 bf
       -0.24496678 0.18146972 0.07606648 -0.7612374
0000e0 24 67 97 be 13 c5 84 3d a0 e5 ae 3e b5 fc 83 be
       -0.29570878 0.064829014 0.34159565 -0.25778738
0000f0 65 a8 c7 be 9e 6a 94 3e 77 59 25 3f 9f bd 80 3d
       -0.38995662 0.28987592 0.6458964 0.06286167
000100 bd d7 9f be 96 60 e7 3d 32 16 6f 3f 82 19 58 3e
       -0.31219283 0.11297719 0.9339324 0.2110348
000110 cc 85 06 be 06 cb a4 be 90 ff f2 bd 10 46 92 be
       -0.13136977 -0.32186145 -0.11865151 -0.28569078
000120 4c 16 e3 be 92 08 f8 bd 9d f1 e9 bc 28 31 57 bf
       -0.4435295 -0.1211101 -0.028557593 -0.8405938
000130 a9 8f 1d bf fb 74 e5 be 86 f2 51 3d a9 a9 05 3f
       -0.61547333 -0.44815812 0.05125668 0.52212006
000140 74 9a 93 bf 52 ab 36 be 93 4a f4 3e 0f 22 0a 3f
       -1.153151 -0.17838791 0.47713146 0.5395822
000150 10 16 dc 3d 2c a6 3d bf 9b a8 7e be 18 1a 39 3e
       0.107463956 -0.74081683 -0.24869005 0.1807636
000160 19 37 9b 3e 7e 16 6d 3d a1 8f ad be 31 10 a4 be
       0.30315474 0.05788278 -0.33898643 -0.32043603
000170 bb 19 a4 3e 55 ea bb 3e c9 9b 95 bd b0 bf 82 be
       0.3205088 0.3670222 -0.07305104 -0.2553687
000180 1f a2 ed 3c 5a 61 cb bc f0 6c a3 3e 2a 3b 34 bd
       0.02900797 -0.024826694 0.3191905 -0.044001736
000190 0c 14 09 3e 91 fd 3c 3e f1 72 87 bc 55 64 1d bf
       0.13386554 0.18456103 -0.0165343 -0.6148122
0001a0 e1 04 e9 bf 64 27 ba 3e 9a cd 98 bd 6a 86 41 3e
       -1.8204614 0.36358178 -0.074610904 0.18898931
0001b0 59 52 81 3d 5d af 95 bf 17 90 d7 3e 83 79 bb bb
       0.06314535 -1.1694142 0.4210212 -0.0057212724
0001c0 a5 53 23 3e 78 c5 1e 3e 43 db 00 c0 07 08 cd 3e
       0.15949877 0.15505016 -2.0133827 0.40045187
0001d0 fa 95 7c 3e c9 77 e3 3e b9 34 8f be a7 78 be bf
       0.24666587 0.44427326 -0.27969912 -1.488057
0001e0 b6 42 b8 3e 60 02 01 be 45 dd 01 bf e0 a1 34 bf
       0.35988396 -0.12598562 -0.50728256 -0.705595
0001f0 dd c3 37 bd 4e 7e 62 3e e4 ca 64 3d 03 d9 a8 bd
       -0.044864524 0.22118494 0.055857554 -0.08244517
000200 38 39 87 be 66 ba 35 c0 3c 13 ff bd be 6c 1b be
       -0.26410842 -2.8395019 -0.124548405 -0.151782
000210 27 63 b8 bf 02 dc 94 bf 5b 23 8a bf 66 c0 93 bc
       -1.4405259 -1.1629641 -1.079204 -0.018036079
000220 e8 28 8c bd 58 8c 2c bd b9 6a 05 3f 84 62 f9 be
       -0.0684374 -0.04212603 0.5211597 -0.48707974
000230 e0 91 cc bc ff 46 a4 be 0c 63 7d 3d 74 e4 fc 3d
       -0.024971902 -0.32085416 0.061862037 0.123482615
000240 fc c9 75 be c1 ac 09 3f c2 95 b5 3e 98 2c 65 3e
       -0.24002832 0.53779227 0.3546582 0.22380292
000250 4f 6b df 3e ba 36 91 3d 3a 70 51 3e c7 38 94 bd
       0.43636557 0.070905164 0.20452967 -0.07237392
000260 62 92 26 3e 5f 29 fc 3c 7e 2b 30 3f 4e 23 dc 3d
       0.16266778 0.030781446 0.68816364 0.10748921
000270 dc be 73 3e 6a 41 d9 3c 12 97 58 3e bd 80 e7 3d
       0.23803276 0.02652045 0.21151379 0.11303852
000280 55 e4 94 3e d7 e1 d3 3e 36 db 7f 3e 4b a0 01 3e
       0.29080454 0.4138324 0.24985966 0.12658803
000290 43 57 95 3d 43 92 56 3e 40 f5 bb 3e bf 86 5c 3e
       0.072920345 0.20954232 0.36710548 0.21535777
0002a0 c6 e1 c9 3c 64 5e 07 be 55 12 b5 39 92 ae eb 3d
       0.02464379 -0.13219601 0.0003453667 0.11507906
0002b0 3a 80 bd 3e 0d 85 7b 3e 96 2d 96 3e 18 89 7d be
       0.37011892 0.24562474 0.29331654 -0.24759328
0002c0 d5 ae 4d be 4b ce d3 bd f0 05 55 3e 2c bc b4 3d
       -0.20086224 -0.10342082 0.20803046 0.088249534
0002d0 b1 88 e4 3e e6 e3 0a 3f e6 9e 34 3e bd e6 f4 bd
       0.44635537 0.54253995 0.1763874 -0.11958072
0002e0 7c ad 0d be 14 4a 32 be a8 f0 b4 be 83 c5 ac 3d
       -0.1383571 -0.17411071 -0.35339856 0.0843611
0002f0 10 f7 15 3e 26 ad 06 bf d0 75 67 be f4 80 ea be
       0.14645028 -0.52607954 -0.22603536 -0.45801508
000300 41 2a 2f 3f 58 10 65 3f 3d 9f 08 bc 5d c2 16 be
       0.6842385 0.89478064 -0.008338747 -0.14722581
000310 69 ad 4a bf 6e 9d af be 2d 07 cc 3d 6f 17 85 3e
       -0.7917085 -0.34299797 0.09962306 0.2599444
000320 6f 5b 5a bf a8 1e 86 3e 81 91 d3 3d c5 b3 23 3e
       -0.85295767 0.26195264 0.10330487 0.15986545
000330 eb 1d 83 3e 89 72 b7 bf 30 c9 96 bf 62 1d 28 be
       0.25608763 -1.4331828 -1.1780148 -0.16417459
000340 1c 66 46 3f dc 84 34 bc 60 a2 8c 3e 3d f9 cc 3e
       0.77499557 -0.011018004 0.27467632 0.40033904
000350 a3 0b dc bf 79 d0 d2 bf d3 c4 8f bf b4 11 e5 bd
       -1.7191051 -1.6469871 -1.1231941 -0.11185017
000360 da 46 5e 3e f2 8a 6d 3e 75 9f 3e 3e 57 77 46 bf
       0.21706715 0.23197535 0.18615516 -0.7752585
000370 0e 2d be be 91 54 da 3e 61 a4 bc 3e 2e ea e5 3e
       -0.3714375 0.42642644 0.3684416 0.44905227
000380 c9 d3 81 3e 95 4b 28 bd 56 81 52 be 23 f7 c3 bd
       0.25356892 -0.041087706 -0.2055715 -0.09568622
000390 28 e6 66 be e8 2c 80 bc 06 93 50 3e 4d 85 b7 3e
       -0.22548735 -0.015646413 0.20368585 0.35843888
0003a0 e4 b8 46 3e b7 b9 9c 3e 58 01 53 3f 99 49 c1 be
       0.19406468 0.3061044 0.82423925 -0.37751463
0003b0 94 cd 3a 3e 03 63 b3 3d 72 84 ff 3e 15 29 1b 3f
       0.18242484 0.08759119 0.49905735 0.6060956
0003c0 e6 d1 70 bf 84 82 06 be 4e 86 8a 3e ca 2c 20 3f
       -0.9407028 -0.13135725 0.2705559 0.6256834
0003d0 3d c7 15 bf 5d 36 dd bf 1b fd a5 bf dc 81 09 c0
       -0.5850714 -1.7282215 -1.2967867 -2.148551
0003e0 d6 30 01 c0 6e 23 f8 bf
       -2.0186057 -1.9385812

bias f4 [10]
000000 6c e6 a2 bd 88 7a 75 bd f6 59 97 3d b0 2c 65 be
       -0.07954106 -0.059931308 0.073902056 -0.22380328
000010 6e f5 6e 3c d2 b5 46 3c c3 27 91 3b 19 45 70 bd
       0.014584882 0.01212831 0.004429789 -0.058659647
000020 58 89 c6 bd 54 86 ce ba
       -0.09694165 -0.0015756586

weight f4 [5, 10, 5, 5]
000000 18 f4 f6 bd 5f 80 09 be 7b e8 80 3b 88 44 69 3d
       -0.12058276 -0.13427876 0.003933964 0.056950122
000010 f0 a7 f4 3d 5d de c0 bd 57 e5 84 3e 9e c8 21 3e
       0.11946094 -0.094174124 0.25956222 0.15799186
000020 fa 10 82 3b 64 24 81 3e 18 41 30 3e b5 6a 61 3e
       0.003969309 0.25223076 0.17212331 0.22013362
000030 57 56 5e bc 04 b1 7d be 7e a1 81 bd 95 3c 4a 3e
       -0.01357039 -0.24774557 -0.0632963 0.19749673
000040 06 3a 1a be b6 73 36 be f5 f2 23 be 99 17 12 bd
       -0.15061197 -0.17817578 -0.1601065 -0.035667036
000050 4a 3b 0d be ba d8 d3 bd 1a b9 8a 3d 20 e3 b8 bc
       -0.13792148 -0.10344072 0.067735866 -0.02256924
000060 e2 7a 9c 3e 41 a8 82 bc 86 c6 de 3d a0 ba ef 3d
       0.30562502 -0.01594937 0.10877709 0.11705518
000070 6a 43 81 3d b9 69 3d 3e ec 01 2c 3e 3e f7 e7 3d
       0.06311686 0.18497361 0.16797608 0.113264546
000080 b5 a5 59 3e 82 7c 00 bd 92 28 4b 3e 13 7c ad 3c
       0.21254618 -0.03136874 0.19839695 0.021177327
000090 e2 cf 6a bd cd 54 2e be c7 d9 5e bd 83 36 1b 3d
       -0.05732716 -0.17024536 -0.054406907 0.037893783
0000a0 0f 30 21 be 46 a0 db bc 66 23 48 bd 9c 4e 2a be
       -0.15740989 -0.026809823 -0.048861884 -0.1663155
0000b0 be 4b d7 3d c4 17 95 ba de 33 6d 3c 53 9b 0f 3d
       0.105124936 -0.001137488 0.014477698 0.035060238
0000c0 e0 1e da 3d d2 52 d8 3d db cc ea bb 4c 02 8e 3e
       0.1065042 0.10562672 -0.007165534 0.27736127
0000d0 d6 04 e8 3e aa 75 10 3e a4 eb 43 3e 81 ba fa bd
       0.4531619 0.14107385 0.19132859 -0.12242604
0000e0 19 14 3a 3d 4a 68 12 3f 0d 6f 9b 3e 5c 64 88 bd
       0.045429323 0.5719038 0.30358163 -0.06659767
0000f0 c8 80 f6 bd 99 be 05 be 50 10 49 3e c1 4a fd 3d
       -0.12036282 -0.13060988 0.19635129 0.12367774
000100 d8 97 81 3e 97 59 0b be 4a 9b b5 be ad 96 be bd
       0.2531116 -0.13608395 -0.3547004 -0.09306083
000110 ee 48 92 bd 71 ab 4a 3d 04 f2 7c bb 87 ca 5a 3d
       -0.071428165 0.049479906 -0.00385964 0.0534158
000120 07 57 af 3d 4b 3c 22 3e 1d dd 55 3d d1 dd 70 3e
       0.08561521 0.15843312 0.052212823 0.23522116
000130 5c 53 35 3e f1 bf 8c bc c7 59 0e 3e 5c 96 ee 3b
       0.1770758 -0.017181369 0.13901435 0.007281108
000140 8b 1b 20 be 1f 5d 12 3d 57 eb 35 3d 2b f7 1c be
       -0.15635507 0.03573334 0.04441389 -0.15328662
000150 40 2c ec bd 94 fe 4f 3d a7 27 0e bd 28 24 8f be
       -0.115318775 0.050779894 -0.034705784 -0.27957273
000160 bb 06 3d be de 43 9b 3d f2 34 13 be b2 7b 8b be
       -0.18459599 0.07581304 -0.14375666 -0.2724281
000170 c3 c0 39 be 67 63 83 3e 63 f1 1a be 30 ad ba 3c
       -0.18139939 0.25661775 -0.15131144 0.02278766
000180 94 d3 19 3c 96 7c b6 3e 53 27 f8 3d 9c 40 09 3f
       0.009388823 0.35641927 0.121168755 0.5361421
000190 81 a0 22 3f ee 7d a6 3e dc 5a ad 3d b6 f7 12 bd
       0.6352616 0.32517952 0.08464596 -0.035880767
0001a0 02 da 04 bf 21 b0 68 be 4c 6d 31 be 4b c5 86 be
       -0.51895154 -0.22723438 -0.1732685 -0.26322398
0001b0 60 4a a0 be 55 91 9b be 8a 31 4f 3e 3d d3 87 bc
       -0.31306744 -0.30384317 0.20233741 -0.016580218
0001c0 af 93 c6 bd 5b 9d 97 3e 9b 75 43 3e 89 f9 23 3d
       -0.09696137 0.2961224 0.19087832 0.040032897
0001d0 a0 78 36 3c 2a 86 8b 3d 4f a4 0b bd 4f eb 3c 3e
       0.011137158 0.06812699 -0.034092244 0.18449138
0001e0 64 ed 3f be c9 f6 ad ba 60 65 23 3d a7 9d c8 bc
       -0.18742901 -0.00132724 0.0398916 -0.024489237
0001f0 1e 07 38 3e d2 f3 47 bd 94 98 4e 3d 46 61 ea 3d
       0.17971465 -0.04881651 0.05043848 0.11444335
000200 0b 51 dd 3e 7a ac 71 3d e2 90 7c be f0 f9 00 be
       0.43225893 0.059002377 -0.24664643 -0.12595344
000210 2f 45 71 3e 3a 1f d2 3d 56 da ba be 5d d2 73 bd
       0.23561548 0.10259862 -0.36494702 -0.05952679
000220 06 4c 06 3e f0 64 12 3e c9 0a 43 be 07 d4 69 bf
       0.13114938 0.14296317 -0.19047083 -0.91339153
000230 68 07 8a be 4e d7 c9 3d cc d0 7e be 01 44 bd bd
       -0.26958776 0.09855519 -0.24884337 -0.09241486
000240 24 4c a1 be 6f d3 80 be 80 8d 08 bf 36 3c b0 3c
       -0.31503403 -0.2516131 -0.5334091 0.021513086
000250 14 6d b0 3e 20 49 3b 3d ea 30 2d be 49 4e 65 bd
       0.3445822 0.045724034 -0.1691319 -0.05598286
000260 64 42 d5 bd 45 a7 34 be 14 4d 87 3e 5a c4 c9 bd
       -0.10413054 -0.17641933 0.26425993 -0.09851904
000270 f4 ff e5 3e 20 b3 7d 3d b0 17 d4 3c fb c9 82 3e
       0.4492184 0.061938405 0.025890201 0.25544724
000280 d0 96 10 3e d8 3b 84 3d ca 81 1e be 45 c8 a8 3c
       0.1412003 0.06456727 -0.15479198 0.020603308
000290 dc 54 b1 bc af 5e e1 bc 9e d2 7c be af 9e 20 be
       -0.02164691 -0.027510969 -0.24689719 -0.15685533
0002a0 5a d3 6d bd 82 67 4b 3e 1b 3b 98 be 90 2a 8c 3d
       -0.05806289 0.19863704 -0.29732594 0.06844056
0002b0 91 6c 3d 3c 04 08 07 3e 07 6a 1a 3c 81 d8 94 3d
       0.011561529 0.13186651 0.009424693 0.07267857
0002c0 ee bc 75 3d 85 fa 68 be ed b9 a0 bd 26 62 94 3e
       0.05999463 -0.22751816 -0.078479625 0.2898113
0002d0 03 ee e7 bd be 5a e0 3c 2b 88 e4 3c 4a 4a 23 3e
       -0.11324694 0.02738702 0.027896961 0.15946308
0002e0 0d af 01 3f 0f 0c 83 bd 25 0f cb 3d 4d 54 84 bd
       0.5065773 -0.06398784 0.09914998 -0.064613916
0002f0 ad d3 44 3e 71 44 29 3e 61 9e 84 3c 7a 97 8b be
       0.19221373 0.16530015 0.016188802 -0.27264005
000300 7c 27 3b 3d b9 2f 0f be ed 4e 4f be ff ee 8a 3d
       0.045691952 -0.13983048 -0.20244952 0.06783866
000310 33 12 21 3b 1c ff ac 3d d0 92 37 bc 9c 5c a8 3e
       0.0024577498 0.08447096 -0.011204436 0.32883155
000320 20 2c 34 3e e8 00 38 be 18 e1 d1 be c8 30 a5 3d
       0.17594957 -0.17969096 -0.40992045 0.08065945
000330 c7 80 33 3d 1c cd 76 bd 5c 04 b0 3d 91 52 f6 3d
       0.043823984 -0.0602542 0.085945815 0.12027467
000340 a7 ca e1 3d ea f8 3b bf b3 f0 19 be 4b 27 56 3d
       0.11024981 -0.7342669 -0.15033226 0.052283566
000350 ab 38 be 3d f5 ea c2 3d 91 ec f8 be 8a 2f 8b 3e
       0.09288152 0.09517471 -0.48617986 0.27184707
000360 02 d3 a3 3e 77 1c 40 be a0 1b 63 be aa c7 ce bf
       0.31996924 -0.18760858 -0.22178507 -1.6154683
000370 2a dd 2b 3f 5f 0a c0 be ec 2b 77 be 09 35 cb be
       0.67134345 -0.37507913 -0.24137849 -0.396889
000380 a4 53 a4 be 69 c2 92 bd e5 71 24 be 84 c1 1b 3f
       -0.32095063 -0.07165987 -0.16059072 0.60842156
000390 7a d0 0f 3e fd f8 d1 3e 78 04 10 be 14 6d 56 be
       0.14044371 0.41010275 -0.14064205 -0.20940048
0003a0 56 d7 af bd 98 1f 3a 3e d7 09 c8 3e 4f 4f aa bd
       -0.08585994 0.18176115 0.39070007 -0.08315908
0003b0 08 1e a0 3d ba a3 ee 3e 37 2f 18 3e 05 d1 a0 bf
       0.07818228 0.46609288 0.14861761 -1.2563788
0003c0 81 9e 2d 3e 20 59 da 3d 1d b1 b9 bd 74 d4 8a be
       0.16954996 0.106615305 -0.09066985 -0.27115214
0003d0 9e 90 51 bf 76 fd 7c 3e 0f e7 63 be 23 7e 61 3e
       -0.81861293 0.24706063 -0.2225611 0.22020774
0003e0 14 10 7d 3d 91 3a 3c be 0c b8 c2 3a 90 7f 14 bd
       0.06178291 -0.18381716 0.0014855876 -0.036254466
0003f0 f1 0f 8c 3d 21 71 33 3e 0b 29 44 3e 5c c1 b7 bd
       0.06838978 0.17523624 0.19156282 -0.08972427

bias f4 [5]
000000 c1 bc 79 3f 80 46 de 3f 5f 23 ec 3e 7a 12 3e be
       0.9755364 1.7365265 0.46120736 -0.18561736
000010 fd 02 21 be
       -0.15723796

weight f4 [2, 5, 3, 3]
000000 6b cd 26 3e ca fc 52 3e 02 19 c3 3e b3 54 cb bc
       0.16289298 0.20604244 0.38105017 -0.024820661
000010 aa 8a 2a be 2e 32 31 3e e8 5b cc 3d 59 8b 15 3f
       -0.16654459 0.17304298 0.09978467 0.5841575
000020 92 27 08 3f a3 72 81 3e 17 5c 92 be b7 55 89 bd
       0.5318538 0.25282773 -0.28585884 -0.06705802
000030 b6 0c b5 3e da bd 63 3e f5 6e 72 be 25 93 fc 3e
       0.3536126 0.22240391 -0.23675139 0.49331012
000040 a8 b1 25 3e 60 c5 c8 be 99 01 e0 3d 16 3a 08 be
       0.16181052 -0.39213085 0.10937805 -0.13303408
000050 71 35 fe bd 0c ce fc bd eb 04 94 3e aa 68 7c 3f
       -0.12412537 -0.12343988 0.28910002 0.98597205
000060 29 c6 d1 3e 8e 08 71 3f cd 79 a0 3f c4 e3 cd 3d
       0.40971497 0.9415368 1.2537171 0.100532085
000070 20 46 54 3e 55 00 fb be 35 65 57 3d 36 72 f4 3c
       0.20729876 -0.4902369 0.052586753 0.029839616
000080 6a 5e 1a be 35 f4 fe be f7 8e a5 be af f1 23 be
       -0.15075079 -0.4979569 -0.32335636 -0.16010164
000090 90 d7 e4 bc 7f e7 69 bd 5d 2a 58 3e e6 60 99 3e
       -0.02793482 -0.057105538 0.2110991 0.2995674
0000a0 24 f2 41 3e f1 cd b5 bc 07 e7 23 bf 01 0c 44 be
       0.18940026 -0.022192927 -0.64024395 -0.19145204
0000b0 96 6e a5 be 29 49 ff bb 67 e0 b7 3c ce 74 96 3d
       -0.32310933 -0.007790704 0.02244587 0.073464975
0000c0 9e 48 d2 bd e6 26 93 bd 11 3a cb bd a6 b9 2e bd
       -0.10267757 -0.07185154 -0.09923185 -0.042657517
0000d0 e7 d5 2c bb 67 81 1f bd 98 c6 48 bd 5e 99 13 bd
       -0.0026372613 -0.038941767 -0.04901752 -0.036034934
0000e0 ea d2 23 bb a3 d1 c2 bd 10 28 0d be 71 66 c8 bc
       -0.002499754 -0.09512641 -0.13784814 -0.02446291
0000f0 ae 4c 63 bd 46 74 e1 bd 3a 74 56 3b 50 79 6c bd
       -0.05549305 -0.110085055 0.0032723085 -0.05773288
000100 21 19 67 bd 5d 5e cc bd 16 19 9c bd 03 02 3d be
       -0.05642045 -0.09978936 -0.07621972 -0.18457799
000110 67 52 cb bc 2f e1 5b bd e0 f4 0b 3d 8e b1 46 bd
       -0.024819566 -0.05368155 0.034169078 -0.048509173
000120 c5 f2 3d bd 35 f4 93 bc 90 6a 5a 3d 16 45 be bd
       -0.0463741 -0.018060783 0.053324282 -0.09290521
000130 00 6c 87 3d 2a d9 3b bc 64 06 fe bd 39 cc 3e 3c
       0.06612396 -0.01146535 -0.12403563 0.01164537
000140 b7 d9 14 be fe ba 5a bd 93 8f b4 bd 41 03 10 be
       -0.14536177 -0.053400986 -0.08816447 -0.14063741
000150 4a 10 e0 3d 88 00 15 be b7 42 ea 3c c7 d8 18 be
       0.10940607 -0.14550984 0.028596265 -0.14926444
000160 b6 48 12 bd a5 bf 19 bd
       -0.035713874 -0.037536282

bias f4 [2]
000000 5a 30 29 3f 49 94 bc bd
       0.66089404 -0.09207971

weight f4 [2, 18]
000000 f7 69 64 be a0 91 a6 3e 12 51 b6 3e 9a 06 84 be
       -0.22306047 0.32532978 0.35608727 -0.25786287
000010 78 bc 7e 3e 92 cf a7 3e b4 28 76 be 01 93 74 3e
       0.24876583 0.3277555 -0.24038965 0.23884203
000020 40 c9 33 bf 09 5b 24 bd 77 67 e9 bc 31 05 6c 3e
       -0.7022896 -0.04012588 -0.028491719 0.23048855
000030 d8 a4 50 bd 11 6a 32 be b2 bc 74 bd 1c 2a 89 3d
       -0.050938457 -0.17423274 -0.059750266 0.06697485
000040 0c a0 da 3d ab ac 47 3e 39 c9 92 3d 82 b2 ef 3d
       0.10675058 0.19499461 0.071672864 0.117039695
000050 c6 68 16 be 95 4f 6a 3f bf 40 b7 3d 9f 21 cd 3e
       -0.14688405 0.9152768 0.08947896 0.40064713
000060 65 7b 5e be b2 48 9c be fa c3 60 3e 6a 83 2b be
       -0.21726759 -0.30524212 0.21949759 -0.16749349
000070 20 ff 3f be a3 32 68 be db 92 57 3c b1 43 12 3e
       -0.18749666 -0.22675566 0.013157572 0.14283635
000080 5f fb 77 3d 09 45 be bc d1 0a 8c 3d cb ab 17 be
       0.06054246 -0.023226278 0.068380006 -0.14811628

bias f4 [2]
000000 b4 74 f0 bf 50 de 9c bf
       -1.8785615 -1.2255344

weight f4 [5, 2]
000000 0d bb dd 3e a3 13 c2 3f 85 70 3b bf b4 11 f5 3e
       0.4330677 1.5162243 -0.73218566 0.4786507
000010 88 d5 a3 bf f9 d1 c3 3d 6e 63 23 bf eb 2d 47 bf
       -1.279954 0.095615335 -0.6382359 -0.7780444
000020 83 59 84 bf c1 21 41 3f
       -1.0339817 0.7544213

bias f4 [5]
000000 28 cb 8b bf 13 5d 48 40 8d d0 f3 bf 25 4d 60 40
       -1.0921373 3.1306808 -1.904802 3.5047085
000010 28 5f 7a 3e
       0.24450362

weight f4 [10, 5]
000000 ec f9 2a 3d ad 9e b6 bf 34 32 62 bf 3a 68 90 3f
       0.04174225 -1.4267174 -0.88357854 1.1281807
000010 cf c2 03 3f 8a 69 c0 bf 19 c4 a7 3f df 68 8a 3c
       0.5146913 -1.5032208 1.3106719 0.01689571
000020 04 a9 33 bf f0 e8 c5 bf 47 67 03 be 4d 6f 29 3e
       -0.7017977 -1.5461712 -0.12832366 0.16546364
000030 d5 c3 b3 3e 06 17 e1 3e 8c 09 51 bd 4a b5 eb 3e
       0.35110345 0.43962878 -0.051034495 0.4603675
000040 2c d1 f5 bc 88 20 6c bf 6a db 36 3f 20 1c 2b 3e
       -0.030006967 -0.9223714 0.7142855 0.16709948
000050 b9 4d 62 bd 69 8f 64 be 12 d9 86 3f 3d 29 00 bf
       -0.055249903 -0.22320332 1.0534995 -0.50062925
000060 c4 e4 73 3e 3b 73 30 3f 8f eb 54 bf 99 d4 8f 3d
       0.23817736 0.6892583 -0.83171934 0.07022972
000070 90 0c e1 3e 0a 9f 6a be 59 35 81 bd 54 8b 36 be
       0.43954897 -0.22912231 -0.063090034 -0.17826587
000080 8e 29 08 3f 24 e3 77 3f e9 10 99 bf 24 7c d1 be
       0.5318841 0.96830964 -1.1958286 -0.40915024
000090 e3 f5 3c 3f d3 c9 d1 be 32 d6 91 bf f9 fd 8b 3e
       0.73812693 -0.40974292 -1.1393492 0.27342203
0000a0 7f da 0c bf eb 05 0a 3f 0c 50 44 bf 81 68 80 3d
       -0.550209 0.5391528 -0.7668464 0.062699325
0000b0 7a 64 b9 3e 54 ae b5 3e 1c 71 90 bd 93 03 26 3e
       0.3620947 0.35484564 -0.07052824 0.16212301
0000c0 5f 4c 39 3e 20 11 5a 3e
       0.1809554 0.21295595

bias f4 [10]
000000 89 cf 36 40 db 41 98 40 69 a7 ec bf 80 44 05 c0
       2.856417 4.758039 -1.848859 -2.082306
000010 21 4f 1f c0 cd 8c f5 3f 3b 8d 22 bf de 1b 86 3e
       -2.4892046 1.9183594 -0.6349675 0.26193136
000020 eb a7 4f 3f f1 b6 56 c0
       0.811156 -3.3549159
