project_2/part_2/models/saved/magda_cifar_small.pt (torch, 457031 bytes, 26 tensors)

weight f4 [32, 3, 3, 3]
0.120216064 0.17775466 -0.26275572 0.23192579 0.27116078 0.0959969 -0.20083341 0.10976269
0.16242902 -0.15108247 0.19892384 -0.092807494 0.13439767 0.13696408 0.09335778 -0.13187353
0.12440516 0.019171739 -0.04787122 0.16503607 -0.049763422 -0.013774763 0.014809721 0.16879056
-0.25756216 -0.14148712 -0.09477334 -0.14070685 0.106553115 -0.2246786 0.19258037 -0.25469893
0.09810436 -0.04312597 -0.12215234 0.1443632 0.018296966 0.25508717 -0.022887109 0.016085006
0.0016245123 -0.07135286 0.035632752 0.13785276 0.16781855 -0.08625448 0.20119774 -0.018913524
0.17100926 -0.19457449 -0.23376505 -0.12721144 -0.2155307 0.18131806 0.11414047 0.06627561
0.07737692 0.06049937 0.15494323 -0.15321745 -0.03759556 -0.17605203 0.03751935 -0.0074259574
-0.0048217904 -0.11693111 0.22778946 -0.14269015 -0.18235087 -0.13077725 0.13025759 0.046274826
0.32717547 -0.1767459 -0.2784153 0.015798025 -0.102494985 0.00840316 0.14697401 0.1710814
-0.1189362 -0.13371325 0.07627914 0.015410527 0.10544735 -0.21341176 0.2000682 -0.07478639
-0.10100612 0.05010265 0.060104966 -0.10675274 0.17201668 0.20462422 -0.30753532 -0.02086799
0.31459767 -0.038040414 -0.07108704 -0.101815574 -0.12001696 0.14021777 0.13656181 -0.28764224
0.11683738 0.10064387 -0.07355761 -0.0854108 0.05239331 -0.024282688 0.25653327 0.15142
0.0856533 -0.0625494 -0.026566401 -0.07121561 0.13130967 -0.2530784 -0.23343284 -0.16100094
-0.21647698 -0.18428957 0.09312701 -0.27754655 -0.28730887 -0.008981656 -0.0124640325 -0.16034509
0.22480641 -0.1372501 0.10360821 0.2118816 -0.17072825 0.071595535 0.09241402 -0.12944914
-0.13185911 -0.26192746 -0.024529252 -0.07934242 0.012801801 -0.20350893 0.12324124 -0.18273324
-0.078890555 0.1608893 0.06426074 0.13993856 0.25847512 -0.15213653 0.025389973 -0.03847961
-0.032363508 -0.2044932 0.26929227 -0.2037279 0.078594595 0.13963568 0.05166713 -0.13852555
0.218018 0.034180257 0.04184477 -0.0415871 0.15983574 -0.06615657 -0.19976759 0.20793052
0.14759101 -0.0763538 -0.15471302 -0.05426907 0.15587063 -0.04635132 -0.18090995 -0.2150606
-0.13576259 0.12969466 0.15398672 -0.2550919 0.020033432 0.19396321 0.0536184 -0.13649139
0.030547941 0.16895136 0.05736557 -0.028370246 -0.08891322 0.05027269 0.016456753 -0.11572129
0.1248369 0.25774336 -0.053153276 -0.106636114 -0.05512098 -0.05696457 0.04485836 0.097919
-0.22256222 -0.09074998 0.24496628 0.05328281 -0.05022528 -0.15604213 -0.12654155 -0.25190833
-0.073578164 0.05608264 0.081535354 0.16738252 -0.11711102 -0.108769834 0.0012125911 0.2794234
0.10862332 0.0660934 0.15061848 -0.13332294 -0.18126228 0.0717866 -0.053730614 0.05952506
-0.16610706 0.1286639 0.20098995 0.090054706 -0.25782177 -0.2894599 -0.25218877 0.1335511
0.16072246 0.17065614 0.123514526 0.122491546 0.06458396 -0.20086934 -0.19399217 -0.19530013
0.1302522 0.04241511 0.04429416 0.015533161 0.16278909 -0.101372465 -0.061312087 0.1424897
-0.2711444 0.14816178 -0.052119814 -0.23001103 0.030666808 0.089960076 -0.017375695 -0.12903115
00000000: d733 f63d 5105 363e eb87 86be f47d 6d3e
00000010: 96d5 8a3e 069a c43d 46a7 4dbe 43cb e03d
00000020: cb53 263e 5db5 1abe b1b2 4b3e db11 bebd
00000030: 8b9f 093e 5040 0c3e 5d32 bf3d db09 07be
00000040: 22c8 fe3d 0d0e 9d3c 9d14 44bd 37ff 283e
00000050: bbd4 4bbd 8baf 61bc 79a4 723c 6fd7 2c3e
00000060: 30df 83be 00e2 10be 8618 c2bd 7515 10be
00000070: 8538 da3d 2612 66be ca33 453e e667 82be
00000080: f0ea c83d dba4 30bd 022b fabd f2d3 133e
00000090: 85e3 953c c99a 823e bf7d bbbc b4c4 833c
000000a0: 96ed d43a 7321 92bd a6f3 113d 4629 0d3e
000000b0: a0d8 2b3e 30a6 b0bd c806 4e3e 89f0 9abc
000000c0: 0d1d 2f3e 893e 47be 1b60 6fbe b743 02be
000000d0: 14b4 5cbe 71ab 393e 7bc2 e93d 82bb 873d
000000e0: ca77 9e3d 30ce 773d 70a9 1e3e 09e5 1cbe
000000f0: cdfd 19bd fc46 34be e4ad 193d 7255 f3bb
00000100: 1c00 9ebb 9479 efbd a441 693e 5e1d 12be
00000110: 30ba 3abe 79ea 05be 3f62 053e ac8a 3d3d
00000120: 8b83 a73e e1fc 34be 738c 8ebe dc6a 813c
00000130: e4e8 d1bd 68ad 093c 5b80 163e f62f 2f3e
00000140: d394 f3bd 20ec 08be 3d38 9c3d 6f7c 7c3c
00000150: c8f4 d73d 9d88 5abe aede 4c3e 9b29 99bd
00000160: 4cdc cebd 7038 4d3d a030 763d 2ea1 dabd
00000170: 2425 303e 0389 513e 4575 9dbe 59f3 aabc
00000180: f212 a13e 44d0 1bbd 1596 91bd af84 d0bd
00000190: 74cb f5bd 3f95 0f3e dcd6 0b3e d845 93be
000001a0: 7048 ef3d 601e ce3d 5fa5 96bd dceb aebd
000001b0: 5e9a 563d 7dec c6bc 5458 833e d80d 1b3e
000001c0: ff6a af3d e619 80bd c8a1 d9bc 7dd9 91bd
000001d0: 0b76 063e 7e93 81be 0509 6fbe 6edd 24be
000001e0: 24ac 5dbe 68b6 3cbe 60b9 be3d 951a 8ebe
000001f0: 261a 93be cc27 13bc f135 4cbc 8131 24be
00000200: a733 663e 4a8b 0cbe 8b30 d43d 7df7 583e
00000210: 63d3 2ebe aea0 923d 9043 bd3d 518e 04be
00000220: 1306 07be 5b1b 86be 92f1 c8bc 477e a2bd
00000230: a5be 513c a564 50be e765 fc3d 6c1e 3bbe
00000240: 5f91 a1bd 2ac0 243e 239b 833d 0e4c 0f3e
00000250: da56 843e aec9 1bbe a2fe cf3c cc9c 1dbd
00000260: 998f 04bd aa66 51be ade0 893e 0c9e 50be
00000270: 34f6 a03d a8fc 0e3e eaa0 533d a4d9 0dbe
00000280: 1c40 5f3e 9900 0c3d 6c65 2b3d 3c57 2abd
00000290: fbab 233e 197d 87bd e08f 4cbe bdeb 543e
000002a0: 1922 173e 625f 9cbd 176d 1ebe 3f49 5ebd
000002b0: 8d9c 1f3e e2da 3dbd 7540 39be d938 5cbe
000002c0: 5905 0bbe adce 043e b2ae 1d3e 689b 82be
000002d0: 271d a43c 4b9e 463e f89e 5b3d 66c4 0bbe
000002e0: ad3f fa3c 9601 2d3e 29f8 6a3d b868 e8bc
000002f0: 2218 b6bd bcea 4d3d 50d0 863c 49ff ecbd
00000300: 7daa ff3d f0f6 833e 40b7 59bd 0964 dabd
00000310: 89c6 61bd ae53 69bd 66bd 373d c289 c83d
00000320: 5ae7 63be 20db b9bd 71d8 7a3e 133f 5a3d
00000330: 06b9 4dbd 82c9 1fbe 1c94 01be 21fa 80be
00000340: 26b0 96bd e9b6 653d 02fc a63d 5366 2b3e
00000350: e7d7 efbd b8c2 debd ceef 9e3a 9510 8f3e
00000360: e775 de3d fa5b 873d bb3b 1a3e cf85 08be
00000370: d29c 39be da04 933d a214 5cbd 8dd0 733d
00000380: f817 2abe 78c0 033e 4fd0 4d3e 9a6e b83d
00000390: 3701 84be 1734 94be e31e 81be 9fc1 083e
000003a0: 6e94 243e 7cc0 2e3e 2ff5 fc3d d9dc fa3d
000003b0: 9844 843d b1b0 4dbe e2a5 46be c2fc 47be
000003c0: d560 053e 77bb 2d3d cb6d 353d cd7e 7e3c
000003d0: 2fb2 263e 5e9c cfbd 6222 7bbd d2e8 113e
000003e0: 70d3 8abe b9b7 173e 967b 55bd 0388 6bbe
000003f0: f538 fb3c fd3c b83d 7957 8ebc be20 04be

bias f4 [32]
-0.19896649 0.16909619 0.15288748 -0.020203967 0.111860655 -0.37736428 -0.14407781 0.069040984
0.075712055 0.020903004 0.04635743 -0.018096117 0.16600205 0.10808593 0.034954343 0.038260836
-0.064952604 0.016164847 -0.11301057 0.107217364 0.1229447 0.21418193 0.12423429 -0.028576724
-0.069792956 0.11878614 -0.109944105 0.040216293 0.14357391 0.11978726 0.2410831 0.078353025
00000000: dfbd 4bbe 8d27 2d3e 898e 1c3e ca82 a5bc
00000010: 3317 e53d e435 c1be 2289 13be 5c65 8d3d
00000020: ec0e 9b3d c73c ab3c 4ae1 3d3d 4f3e 94bc
00000030: 71fc 293e 285c dd3d 492c 0f3d 65b7 1c3d
00000040: df05 85bd 246c 843c 1672 e7bd c794 db3d
00000050: 6eca fb3d 8252 5b3e 8c6e fe3d bc19 eabc
00000060: 9cef 8ebd 2646 f33d 602a e1bd d7b9 243d
00000070: 0a05 133e 0653 f53d 7dde 763e 8d77 a03d

weight f4 [32]
0.8505117 1.0200678 0.9223173 1.179286 0.78054446 0.80460536 0.9578997 0.8480018
1.2507956 0.8257966 1.1219273 0.79620385 0.8501391 1.0517795 1.16558 0.71898633
1.1199751 0.8936594 0.82515365 1.3638119 1.0217235 1.0482631 0.6463977 0.7289141
0.8698607 0.92598313 0.87034464 0.859811 1.0758961 0.9980392 0.8555783 0.84529585
00000000: 23bb 593f 9591 823f fd1c 6c3f d8f2 963f
00000010: c3d1 473f 9efa 4d3f ea38 753f a516 593f
00000020: 121a a03f 6867 533f 509b 8f3f 04d4 4b3f
00000030: b7a2 593f b6a0 863f ba31 953f 7d0f 383f
00000040: 585b 8f3f ddc6 643f 453d 533f 6391 ae3f
00000050: d6c7 823f 7c2d 863f 527a 253f 1d9a 3a3f
00000060: 31af 5e3f 3b0d 6d3f e8ce 5e3f 931c 5c3f
00000070: f7b6 893f 7f7f 7f3f 2e07 5b3f 4f65 583f

bias f4 [32]
-0.317857 -0.32426342 0.0628804 -0.2270541 -0.44139883 -0.0013557096 -0.0909737 0.05493805
-0.23029141 -0.10751147 -0.2507057 -0.14005198 -0.16740446 -0.13665229 -0.1166908 -0.4311968
-0.008254192 -0.120228805 -0.38518366 0.031857006 -0.31387588 -0.15790692 -0.32803917 -0.4539059
0.031971876 -0.17575477 -0.09360245 -0.3473393 -0.16247605 0.029254552 -0.34041166 -0.07356213
00000000: 27be a2be db05 a6be 70c7 803d df80 68be
00000010: 07ff e1be 11b2 b1ba 6b50 babd b906 613d
00000020: 83d1 6bbe f92e dcbd 7f5c 80be c969 0fbe
00000030: 136c 2bbe 94ee 0bbe 96fb eebd d4c5 dcbe
00000040: 973c 07bc 853a f6bd cb36 c5be 7e7c 023d
00000050: 57b4 a0be 5ab2 21be c0f4 a7be 5b66 e8be
00000060: f1f4 023d 0ff9 33be a4b2 bfbd 75d6 b1be
00000070: 1f60 26be 3ea7 ef3c 704a aebe bea7 96bd

running_mean f4 [32]
0.22041655 0.172714 0.12254008 -0.06544359 -0.26928043 -0.5103747 -0.21741071 0.037597913
0.032812018 -0.07983145 -0.008363457 0.00084106915 -0.11068891 0.094495654 0.044438343 -0.5727881
-0.09112266 -0.0054826047 -0.16092315 0.0711402 0.12738197 0.18685327 -0.3198089 -0.3589309
-0.084153175 0.18612748 -0.0911934 0.5473406 0.12756087 0.12567349 0.09692966 0.0039189933
00000000: e0b4 613e f0db 303e 4bf6 fa3d 4a07 86bd
00000010: 20df 89be eba7 02bf eaa0 5ebe 4500 1a3d
00000020: e565 063d ac7e a3bd e206 09bc 327b 5c3a
00000030: deb0 e2bd f086 c13d fb04 363d 3ea2 12bf
00000040: 849e babd 6ca7 b3bb 0ac9 24be f4b1 913d
00000050: 6b70 023e 7756 3f3e febd a3be cac5 b7be
00000060: 8058 acbd 3498 3e3e 9bc3 babd 831e 0c3f
00000070: 519f 023e 8db0 003e 0f83 c63d e66a 803b

running_var f4 [32]
0.050166566 0.003915053 0.01699945 0.0114634745 0.061262213 0.021016108 0.0090471795 0.0073802704
0.022628156 0.025785314 0.01160478 0.023100138 0.06645175 0.016252639 0.0038075899 0.11072426
0.014678295 0.027468521 0.03352743 0.019191729 0.0037014366 0.031968437 0.078965716 0.042263184
0.011326213 0.018200506 0.013257521 0.08472253 0.037787434 0.0110036805 0.019362979 0.03581333
00000000: 757b 4d3d d849 803b 6e42 8b3c 4cd1 3b3c
00000010: 16ee 7a3d f929 ac3c 9f3a 143c 32d6 f13b
00000020: af5e b93c b93b d33c fa21 3e3c 803c bd3c
00000030: db17 883d 4124 853c c288 793b 67c3 e23d
00000040: 3b7d 703c aa05 e13c 0f54 093d f937 9d3c
00000050: cd93 723b 56f1 023d c7b8 a13d 291c 2d3d
00000060: 9591 393c 3a19 953c 1336 593c 0183 ad3d
00000070: ffc6 1a3d c848 343c 1c9f 9e3c 00b1 123d

weight f4 [64, 32, 3, 3]
-0.18243068 -0.07185214 -0.14970778 -0.05925197 0.13869432 0.15236539 0.06195753 0.047265477
0.10298263 0.16261597 -0.08733652 -0.118629366 0.057572518 -0.23033033 -0.1064285 0.06559868
0.026321042 0.061003733 0.056580726 0.061527763 0.04577433 -0.054504767 0.033897996 0.0103512285
-0.07364715 0.07172485 -0.18068698 0.0036609585 0.18018802 -0.108598895 -0.11342734 0.04493089
-0.15840876 -0.033280186 -0.07383313 -0.23404665 -0.09543589 -0.050519787 0.06892885 -0.15734825
-0.021569204 0.30276823 -0.13193578 -0.06384623 0.08235633 -0.059210803 -0.072642446 0.14848112
-0.14950296 -0.11187891 -0.077516206 -0.20696075 -0.17021225 -0.02653726 -0.08365739 -0.019095846
-0.0016294981 0.031316575 0.19786048 0.10424818 -0.09739667 -0.02555718 -0.011567405 -0.08478892
0.052576676 0.3349373 -0.082380205 -0.121786416 0.020666845 0.021396123 0.06811386 -0.01667951
-0.018055705 -0.119823515 -0.14335905 -0.053901695 0.028168088 0.034775406 -0.07119391 -0.082287215
-0.08660713 0.14795303 0.040856402 0.15786919 0.041887783 0.079172924 0.12720667 -0.12231635
-0.07791648 0.011200129 -0.043566164 -0.026844598 0.08741119 -0.10848892 -0.2171223 -0.028214015
-0.0012961032 -0.16353396 0.0008017051 -0.008938417 -0.07984708 0.029109605 -0.07092277 -0.1477696
-0.0719317 -0.21333705 -0.14727455 -0.022053184 -0.14493503 -0.17656928 -0.18975939 0.117813796
0.0941357 0.043106463 -0.06806703 0.021152025 0.23002958 0.013061904 0.14512266 0.09307564
-0.18722613 -0.056405414 0.19132224 0.06415526 0.0033952512 0.09956674 0.028923044 0.008055763
0.07317029 0.00870681 0.020013075 0.06215282 -0.10218498 -0.1704792 -0.049695995 -0.11669956
-0.08594921 -0.064651296 0.11493485 0.31866717 0.31511873 -0.068408065 0.19042857 0.27787825
-0.043561645 0.21656913 0.14782263 0.044435974 0.15516496 0.05761484 0.020570781 0.08659332
-0.0066303406 0.08497745 0.05926866 -0.07169941 -0.09468401 0.007717017 0.055927124 0.15724272
0.045438442 -0.06531483 -0.05654853 -0.11937613 -0.1305559 -0.041965757 0.011468576 0.09265932
0.07781981 0.09629427 -0.03436543 0.15528587 0.12825844 -0.008177866 -0.0472657 0.025066176
0.00104727 -0.14273298 -0.08252922 -0.013846795 0.04103315 -0.09167877 -0.06576215 0.015220058
-0.18198365 -0.088347614 -0.091819696 -0.08052862 -0.027801296 -0.08119841 0.047595393 0.09998971
-0.011289299 -0.01504024 0.08779784 -0.04479662 -0.004286559 0.18631311 -0.037100047 -0.12402381
-0.10056507 0.08979939 0.10001566 0.19217722 -0.21483833 0.023118116 0.22025181 0.09677549
0.08923639 0.16311072 0.011342844 0.1412616 0.19885597 0.024754986 0.019031368 -5.6514313e-05
0.060202934 -0.0038915053 -0.087709256 0.0919542 -0.07242618 -0.0926822 -0.04528028 -0.2084218
-0.045360133 -0.15960819 -0.028602496 -0.022954378 -0.06127237 -0.19105174 0.01960815 -0.030997667
-0.21481535 -0.16799738 -0.05270612 0.023147035 0.02923522 -0.10026702 -0.049996838 0.03611948
0.07424171 0.08723467 -0.0026878216 -0.18214224 -0.06879987 -0.057783596 -0.0921436 -0.015467227
0.11781045 -0.18587422 -0.19741274 -0.09887919 0.21038501 0.1446568 0.047760233 0.11257343
00000000: 1ccf 3abe 3727 93bd ff4c 19be 32b2 72bd
00000010: e205 0e3e ac05 1c3e 2ec7 7d3d 7299 413d
00000020: 8fe8 d23d cd84 263e 7ddd b2bd f4f3 f2bd
00000030: 29d1 6b3d b7db 6bbe 2ff7 d9bd 9a58 863d
00000040: 3a9f d73c 0ddf 793d 31c1 673d 8904 7c3d
00000050: dd7d 3b3d 6440 5fbd a0d8 0a3d 3398 293c
00000060: 51d4 96bd 7ae4 923d 0206 39be b1ec 6f3b
00000070: 3583 383e 1969 debd 984c e8bd 7409 383d
00000080: e835 22be ce50 08bd d335 97bd eda9 6fbe
00000090: e473 c3bd d6ed 4ebd 922a 8d3d e61f 21be
000000a0: e6b1 b0bc 7004 9b3e 2c1a 07be d0c1 82bd
000000b0: 6faa a83d 0787 72bd 90c5 94bd 6f0b 183e
000000c0: 4e17 19be c520 e5bd d1c0 9ebd 85ed 53be
000000d0: 1f4c 2ebe ab64 d9bc 9154 abbd e46e 9cbc
000000e0: e294 d5ba cf45 003d f09b 4a3e 1280 d53d
000000f0: e877 c7bd 4b5d d1bc 3785 3dbc d0a5 adbd
00000100: a45a 573d e77c ab3e f4b6 a8bd 286b f9bd
00000110: 844d a93c ec46 af3c 487f 8b3d 78a3 88bc
00000120: 8fe9 93bc 0866 f5bd b7cc 12be 06c8 5cbd
00000130: c3c0 e63c a870 0e3d 1dce 91bd 3386 a8bd
00000140: 145f b1bd 0081 173e 0b59 273d 76a8 213e
00000150: 8692 2b3d 6a25 a23d 7742 023e ff80 fabd
00000160: ad92 9fbd bf80 373c 6f72 32bd 34e9 dbbc
00000170: a304 b33d 702f debd 4f55 5ebe 1421 e7bc
00000180: 02e2 a9ba 7275 27be 8529 523a 7072 12bc
00000190: de86 a3bd 4477 ee3c f53f 91bd ea50 17be
000001a0: ed50 93bd 0775 5abe 24cf 16be e1a8 b4bc
000001b0: d969 14be 94ce 34be 4950 42be 5c48 f13d
000001c0: 38ca c03d 6790 303d ba66 8bbd 0347 ad3c
000001d0: e08c 6b3e 9901 563c 099b 143e 719e be3d
000001e0: 35b8 3fbe 5d09 67bd fae9 433e d563 833d
000001f0: dd82 5e3b a6e9 cb3d 05f0 ec3c 52fc 033c
00000200: 4eda 953d 02a7 0e3c 76f2 a33c f593 7e3d
00000210: 5c46 d1bd 1992 2ebe 078e 4bbd 2e00 efbd
00000220: 2406 b0bd e667 84bd f662 eb3d 5828 a33e
00000230: 3e57 a13e 8719 8cbd b5ff 423e 0f46 8e3e
00000240: b26d 32bd 4cc4 5d3e d15e 173e 7f02 363d
00000250: 90e3 1e3e 8afd 6b3d 0e84 a83c d757 b13d
00000260: 5443 d9bb a808 ae3d b2c3 723d 24d7 92bd
00000270: b1e9 c1bd 08df fc3b d713 653d 3c04 213e
00000280: a91d 3a3d c8c3 85bd 6e9f 67bd 797b f4bd
00000290: 72b0 05be 49e4 2bbd b2e6 3b3c 2bc4 bd3d
000002a0: fe5f 9f3d ee35 c53d c4c2 0cbd 4203 1f3e
000002b0: 2e56 033e 75fc 05bc ae99 41bd 9557 cd3c
000002c0: 8d44 893a 9828 12be 1405 a9bd abdd 62bc
000002d0: 6012 283d 14c2 bbbd 4eae 86bd 8d5d 793c
000002e0: ec59 3abe 98ef b4bd f70b bcbd 30ec a4bd
000002f0: 8bbf e3bc 5a4b a6bd 63f3 423d 68c7 cc3d
00000300: c0f6 38bc 576b 76bc 5bcf b33d a97c 37bd
00000310: 4376 8cbb ddc8 3e3e 38f6 17bd 3200 febd
00000320: 0ff5 cdbd bee8 b73d 03d5 cc3d 1bca 443e
00000330: 94fe 5bbe 3462 bd3c b189 613e 3a32 c63d
00000340: 92c1 b63d 7f06 273e 56d7 393c e2a6 103e
00000350: e6a0 4b3e f8ca ca3c ace7 9b3c c809 6db8
00000360: 5a97 763d a008 7fbb e9a0 b3bd 7c52 bc3d
00000370: 2d54 94bd 2ad0 bdbd d177 39bd 866c 55be
00000380: 8ccb 39bd 5470 23be c84f eabc d20a bcbc
00000390: bdf8 7abd 11a3 43be 45a1 a03c d2ee fdbc
000003a0: 8ef8 5bbe 8107 2cbe 5fe2 57bd da9e bd3c
000003b0: b37e ef3c cc58 cdbd 7cc9 4cbd 05f2 133d
000003c0: 0a0c 983d 17a8 b23d 2a26 30bb 7f83 3abe
000003d0: f2e6 8cbd 7eae 6cbd c9b5 bcbd 416a 7dbc
000003e0: 9b46 f13d d055 3ebe 9126 4abe 2c81 cabd
000003f0: 2b6f 573e ea20 143e 3ca0 433d e68c e63d

bias f4 [64]
-0.004396594 -0.054954693 0.014786929 0.06330766 -0.05302383 -0.010079606 0.012555926 -0.105444424
-0.1392392 -0.00092112145 0.02252612 0.10408448 -0.030862203 -0.049820855 0.08967618 0.061067082
0.0605939 0.09248665 0.0905019 0.091687694 -0.0631629 0.052162345 0.0055304132 0.006505547
0.13803054 0.03488363 0.011194235 -0.11679597 0.07560693 0.068551905 -0.0015662386 0.047071896
0.0050833127 0.034290645 -0.15156662 0.04605817 -0.03945519 0.0036806727 0.1156187 -0.025015853
-0.12623413 -0.05701077 -0.08907194 0.06144858 -0.04215012 -0.006033172 -0.13306776 0.056104988
-0.09601332 -0.050476167 0.08466128 -0.004387647 -0.010670492 -0.03841019 -0.0015516098 0.0976872
0.08188518 0.05604728 -0.014179013 0.024067696 -0.024011208 0.009306172 0.0038628327 -0.027550569
00000000: 4e11 90bb 2c18 61bd e044 723c 72a7 813d
00000010: 842f 59bd ef24 25bc 5fb7 4d3c 3ff3 d7bd
00000020: b994 0ebe 6a77 71ba b388 b83c 3e2a d53d
00000030: bbd2 fcbc f410 4cbd 25a8 b73d 7a21 7a3d
00000040: 4f31 783d a469 bd3d 0f59 b93d c2c6 bb3d
00000050: 8d5b 81bd 2fa8 553d 7838 b53b 7c2c d53b
00000060: e157 0d3e 23e2 0e3d 0668 373c ba32 efbd
00000070: ced7 9a3d f164 8c3d 3f4a cdba 76ce 403d
00000080: eb91 a63b 5974 0c3d 4834 1bbe 7ea7 3c3d
00000090: c49b 21bd 7137 713b 7fc9 ec3d 0cee ccbc
000000a0: 8543 01be 2084 69bd 596b b6bd 82b1 7b3d
000000b0: 9ba5 2cbd eab1 c5bb ea42 08be 58ce 653d
000000c0: a2a2 c4bd 19c0 4ebd e562 ad3d 40c6 8fbb
000000d0: 4ad3 2ebc 0154 1dbd 635f cbba 3a10 c83d
000000e0: 6bb3 a73d d591 653d 174f 68bc 9e29 c53c
000000f0: 27b3 c4bc ea78 183c 9427 7d3b bbb1 e1bc

weight f4 [64]
0.8488583 0.9922491 0.99314904 0.9910409 0.94619364 1.074514 1.0306205 0.8422573
1.0396413 0.99440217 0.9664933 0.95481026 0.92399275 0.8879057 0.8775996 0.96929276
0.9106267 0.91842633 1.0494303 0.7727267 0.91010976 1.0322368 1.0918734 0.92233974
0.9593971 0.7844627 1.0195663 0.87262726 0.94040275 1.008446 0.88037103 0.89186573
0.9864107 0.973967 0.98703176 0.92884976 0.9994702 1.004124 0.9268567 0.9062221
0.8255041 1.0563259 0.89445794 0.9570036 0.9105494 0.9028737 1.0425128 0.9000204
0.99179727 0.81290084 1.0201786 0.91172886 0.9825961 0.9512017 0.8087265 0.9903064
0.9787433 1.0102232 0.779927 0.96555656 0.9007211 1.0732448 0.8654598 0.94403
00000000: c74e 593f 0904 7e3f 043f 7e3f dbb4 7d3f
00000010: bf39 723f ad89 893f 5feb 833f 2d9e 573f
00000020: f712 853f 2491 7e3f 1b6c 773f 726e 743f
00000030: ca8a 6c3f ca4d 633f 5eaa 603f 9223 783f
00000040: d51e 693f fd1d 6b3f bb53 863f 6bd1 453f
00000050: f4fc 683f 5620 843f 82c2 8b3f 751e 6c3f
00000060: 0c9b 753f 8cd2 483f 2681 823f 8064 5f3f
00000070: 3cbe 703f c214 813f ff5f 613f 5051 643f
00000080: 6985 7c3f e755 793f 1dae 7c3f 19c9 6d3f
00000090: 47dd 7f3f 2387 803f 7b46 6d3f 2cfe 673f
000000a0: 3d54 533f b035 873f 32fb 643f 30fe 743f
000000b0: c419 693f bb22 673f 0f71 853f bd67 663f
000000c0: 6de6 7d3f 451a 503f 3695 823f 1067 693f
000000d0: 6b8b 7b3f f481 733f b308 4f3f b884 7d3f
000000e0: ec8e 7a3f fe4e 813f 4ca9 473f b72e 773f
000000f0: a895 663f 1660 893f c68e 5d3f f3ab 713f

bias f4 [64]
-0.58198154 -0.5641091 -0.4602653 -0.26612857 -0.27171168 -0.42340204 -0.304605 -0.45272884
-0.37861967 -0.42688558 -0.3648215 -0.3257413 -0.27681905 -0.42853636 -0.41552782 -0.3534509
-0.31797752 -0.42011327 -0.41590342 -0.4586908 -0.43552136 -0.412259 -0.4762637 -0.4239963
-0.307645 -0.4398246 -0.40438634 -0.2165758 -0.36622182 -0.5346481 -0.52869827 -0.49149853
-0.46547285 -0.36260867 -0.40450445 -0.19112247 -0.50167334 -0.26682696 -0.4422202 -0.3109062
-0.43938932 -0.5261155 -0.619014 -0.43107817 -0.4600962 -0.5048646 -0.36587346 -0.38425663
-0.28417856 -0.4284312 -0.45272532 -0.35958517 -0.3211902 -0.52295095 -0.4247816 -0.21581846
-0.43059543 -0.32754853 -0.45267752 -0.40877423 -0.35959727 -0.4400699 -0.3348282 -0.28660613
00000000: befc 14bf 7469 10bf e5a7 ebbe 0142 88be
00000010: cb1d 8bbe 27c8 d8be 30f5 9bbe 13cc e7be
00000020: 70da c1be bf90 dabe e2c9 babe 90c7 a6be
00000030: 3abb 8dbe 1e69 dbbe 10c0 d4be 84f7 b4be
00000040: f3cd a2be 1619 d7be 4bf1 d4be 85d9 eabe
00000050: a8fc debe 9d13 d3be d6d8 f3be 0b16 d9be
00000060: a583 9dbe b130 e1be ba0b cfbe 0cc6 5dbe
00000070: 6d81 bbbe b3de 08bf c558 07bf b2a5 fbbe
00000080: 7552 eebe d8a7 b9be 351b cfbe 9cb5 43be
00000090: aa6d 00bf 8b9d 88be b06a e2be 192f 9fbe
000000a0: a3f7 e0be 81af 06bf b477 1ebf 47b6 dcbe
000000b0: bb91 ebbe ce3e 01bf c453 bbbe 49bd c4be
000000c0: da7f 91be 565b dbbe 9dcb e7be 8c1b b8be
000000d0: 0b73 a4be 1de0 05bf f97c d9be 84ff 5cbe
000000e0: 0177 dcbe 71b4 a7be 59c5 e7be db4a d1be
000000f0: 221d b8be d850 e1be 9a6e abbe 0abe 92be

running_mean f4 [64]
-0.63181376 -1.1968758 -1.7512257 -4.3644814 -0.8953286 -1.7656184 -1.9004115 -0.5703089
-3.0853407 -1.4773115 -0.596851 -1.2625296 -5.2899613 -0.59632355 0.3959384 -0.52423
-0.24090695 -2.4278965 -1.2303786 3.5930521 -0.70509446 -1.891535 -2.537185 -2.4015908
-1.1643573 0.80928385 -1.3078843 -2.2037244 -1.3403553 -0.7222 -1.1046171 -1.0765262
-3.3650339 -1.0299025 -1.8653572 -1.9898442 -1.3699132 -1.6968453 -1.7182804 -3.3737824
-0.67314744 -1.9116297 -0.29043213 -2.0768695 -2.4685915 -1.5492277 -0.87063396 -1.3799385
-1.3685471 1.4645977 -1.8361647 -4.2961473 -1.2315468 -0.57001287 -0.35451162 -1.0396633
-0.61173326 -2.072708 0.45830888 -3.3355265 -1.9188112 -1.8472278 -0.90509564 -1.4597044
00000000: 8cbe 21bf 3a33 99bf 2a28 e0bf d5a9 8bc0
00000010: 4134 65bf c9ff e1bf af40 f3bf c4ff 11bf
00000020: 3976 45c0 8b18 bdbf 3acb 18bf 929a a1bf
00000030: 5d47 a9c0 a9a8 18bf 70b8 ca3e f033 06bf
00000040: 50b0 76be a862 1bc0 0c7d 9dbf 91f4 6540
00000050: 1281 34bf d21d f2bf 3d61 22c0 aab3 19c0
00000060: a909 95bf 3a2d 4f3f c168 a7bf d209 0dc0
00000070: c390 abbf 19e2 38bf 1864 8dbf 9ccb 89bf
00000080: b75c 57c0 d8d3 83bf 06c4 eebf 37b3 febf
00000090: 5159 afbf 3a32 d9bf 9df0 dbbf 0dec 57c0
000000a0: 6453 2cbf 48b0 f4bf 85b3 94be 6eeb 04c0
000000b0: 67fd 1dc0 184d c6bf dee1 5ebf d3a1 b0bf
000000c0: 8d2c afbf f077 bb3f 7207 ebbf 0a7a 89c0
000000d0: 53a3 9dbf 5dec 11bf 8c82 b5be b013 85bf
000000e0: 8d9a 1cbf 3fa7 04c0 76a7 ea3e 4479 55c0
000000f0: 9b9b f5bf f671 ecbf 59b4 67bf 98d7 babf

running_var f4 [64]
3.318032 4.952706 4.3977146 8.103241 2.4671867 4.666366 3.2807033 2.8861592
5.1705213 2.5111642 2.6677265 1.8780767 9.3294115 2.3607075 2.8381858 1.8100804
1.9221623 4.8583 3.135842 5.7743955 1.4665624 3.3003929 5.2042727 4.247349
3.11972 2.8258655 4.130837 4.461545 2.6271558 1.6299465 2.8298352 2.8298597
7.7829113 2.2340941 3.644226 4.172344 4.6429586 4.4737697 3.5490825 4.6401215
3.1179287 2.8164053 2.6283505 2.8533125 4.9856534 4.8032575 1.9647567 2.258531
2.4038227 3.2048137 3.4381607 6.690027 3.7844806 3.4964695 3.0270913 2.4019027
2.7075844 5.97964 3.7948105 6.8910522 3.6432533 3.8428416 2.533798 4.7777076
00000000: a35a 5440 917c 9e40 14ba 8c40 e0a6 0141
00000010: 63e6 1d40 df52 9540 0bf7 5140 d5b6 3840
00000020: e974 a540 eab6 2040 08bc 2a40 d164 f03f
00000030: 4545 1541 d515 1740 d6a4 3540 b7b0 e73f
00000040: 6a09 f63f 3277 9b40 a3b1 4840 d9c7 b840
00000050: 51b8 bb3f a339 5340 6789 a640 48ea 8740
00000060: 7ea9 4740 fbda 3440 d12f 8440 fac4 8e40
00000070: 5223 2840 16a2 d03f 051c 3540 6c1c 3540
00000080: 9c0d f940 66fb 0e40 003b 6940 d883 8540
00000090: 1e93 9440 1f29 8f40 2b24 6340 e07b 9440
000000a0: 258c 4740 fc3f 3440 e536 2840 ac9c 3640
000000b0: 798a 9f40 49b4 9940 267d fb3f c68b 1040
000000c0: 3bd8 1940 ab1b 4d40 d30a 5c40 b414 d640
000000d0: ee34 7240 28c6 5f40 ddbb 4140 c6b8 1940
000000e0: 1049 2d40 3659 bf40 2dde 7240 8083 dc40
000000f0: 102b 6940 1ef1 7540 bf29 2240 fbe2 9840

weight f4 [128, 64, 3, 3]
-0.030988092 0.12178048 0.14505915 -0.15189856 -0.053759724 0.14749525 -0.043157335 -0.014319607
-0.05665295 -0.022992143 -0.06761477 0.115788005 -0.016930224 -0.019746741 0.18171512 -0.15407827
-0.031761922 0.05868421 0.0855347 0.0034644136 0.02093621 -0.14353552 -0.095814124 -0.12752706
-0.011076849 0.01951247 -0.018863434 0.032687675 -0.06281132 -0.056558948 -0.02685992 0.06811483
0.13475198 -0.07209862 0.052133676 0.19604395 0.04055888 0.02219176 0.02539253 0.16037267
0.089713804 0.028636253 0.089089446 -0.115091175 -0.20269378 0.02096248 -0.059133634 -0.019319225
0.025483668 0.00082622044 0.16688538 -0.02814984 0.053017598 -0.004234303 -0.2383764 -0.25547245
-0.17028718 0.010223277 -0.04553448 -0.05309667 0.114990406 -0.016246064 -0.033748418 -0.04854471
-0.16512519 -0.19226335 -0.0032122624 -0.09318537 -0.09465351 0.14676544 -0.013347488 -0.0645181
0.093039125 0.07745794 -0.027079737 0.032440986 -0.008358583 0.03759835 -0.065790735 0.029039249
0.22022974 0.057470087 0.024778225 0.2454433 0.06195164 0.0064294473 0.08126177 -0.0023546268
-0.022237347 0.09519247 -0.09735966 -0.27292284 -0.10996096 0.01589403 -0.08720941 -0.039934568
-0.03739223 0.006277708 -0.025174852 0.062686175 0.05000488 0.12872423 -0.04949379 0.102848135
-0.12776725 0.07192311 0.25221983 0.13825582 0.010623259 0.065927066 -0.08710548 0.058980387
0.10402096 -0.0017101258 -0.03615315 -0.009517653 0.15441824 -0.09623786 -0.07007251 0.042496465
-0.31023198 0.029565232 0.06056761 -0.09260202 0.10214654 0.14111885 -0.017658621 -0.14299561
0.32700065 -0.098068304 -0.11239126 0.07621681 -0.06681817 -0.093997866 -0.019531474 -0.15188846
0.05216819 -0.0812431 -0.026845332 -0.030520262 -0.14031209 -0.2869321 -0.17045785 -0.18102726
-0.11728603 -0.12518317 0.016494656 0.03473652 -0.035980735 0.07633917 0.06284991 -0.023082513
-0.09163713 -0.024425196 0.0028618686 0.18211208 -0.06218343 -0.113410145 0.03589183 -0.07290314
-0.010599139 -0.061339285 0.031419225 -0.086600095 -0.14076519 0.01424732 0.14832519 -0.08498504
-0.07851738 -0.025617199 -0.0688885 -0.08243939 0.062190324 0.087315716 -0.14270793 -0.03758092
0.013169006 -0.14321798 -0.1235807 -0.24515134 -0.11856719 -0.012768306 0.036452822 0.049245644
-0.00427243 -0.032690138 -0.19346236 -0.025492629 -0.106237724 0.113666125 0.04389281 0.17907475
-0.1946852 -0.13080248 0.034374017 0.11053158 -0.06416136 0.015580936 0.07572103 0.013051021
0.09536563 0.080857255 -0.016934281 0.13227038 0.014172629 -0.03393738 0.046341646 0.049752183
0.007891903 0.015425645 -0.10048557 -0.1132412 -0.06575876 0.15524308 -0.1554667 -0.033422608
-0.013034109 -0.033383906 0.075932935 0.08440229 0.037805736 0.122312464 -0.14831968 -0.19973561
-0.0716585 -0.0737703 -0.07407484 0.15578137 -0.063372165 -0.043592997 -0.004294766 -0.028703105
-0.019696865 0.0071114427 0.13668296 -0.0078038885 -0.09055044 -0.017628245 -0.07049437 -0.06662956
0.13075244 -0.027734589 0.019440226 0.08134818 -0.030213205 0.0010946019 0.0010436665 -0.15819904
0.092279196 0.09484176 0.021751814 -0.029346334 -0.024794182 -0.053603414 0.12808675 -0.0103461575
00000000: bdda fdbc 0b68 f93d 638a 143e 4c8b 1bbe
00000010: 2833 5cbd ff08 173e bfc5 30bd c99c 6abc
00000020: ec0c 68bd 055a bcbc 9d79 8abd 4322 ed3d
00000030: 41b1 8abc ebc3 a1bc 8713 3a3e b2c6 1dbe
00000040: ca18 02bd db5e 703d d12c af3d 370b 633b
00000050: 6a82 ab3c fafa 12be 323a c4bd 7496 02be
00000060: ac7b 35bc 9ed8 9f3c 7d87 9abc 83e3 053d
00000070: 39a3 80bd 5baa 67bd 5609 dcbc ca7f 8b3d
00000080: 6cfc 093e 71a8 93bd 1f8a 553d bfbf 483e
00000090: 1121 263d 7ecb b53c ff03 d03c bc38 243e
000000a0: dfbb b73d 9396 ea3c 8774 b63d ecb4 ebbd
000000b0: f58e 4fbe 82b9 ab3c 1c36 72bd 5a43 9ebc
000000c0: 20c3 d03c b796 583a 00e4 2a3e 7e9a e6bc
000000d0: fb28 593d e8bf 8abb f118 74be 49cd 82be
000000e0: c35f 2ebe 887f 273c 5d82 3abd e57b 59bd
000000f0: 1780 eb3d 7716 85bc c83b 0abd d1d6 46bd
00000100: 9416 29be afe0 44be d284 52bb f9d7 bebd
00000110: b3d9 c1bd ae49 163e 6caf 5abc 1122 84bd
00000120: 4c8b be3d 45a2 9e3d 53d6 ddbc d7e0 043d
00000130: 70f2 08bc ba00 1a3d 4bbd 86bd b8e3 ed3c
00000140: e883 613e c165 6b3d b4fb ca3c 7d55 7b3e
00000150: 01c1 7d3d 1dae d23b 926c a63d 1550 1abb
00000160: 192b b6bc 45f4 c23d 8064 c7bd 8bbc 8bbe
00000170: 3633 e1bd 3234 823c d99a b2bd 6e92 23bd
00000180: 9828 19bd 3bb5 cd3b 7e3b cebc 9c61 803d
00000190: ebd1 4c3d 49d0 033e 00ba 4abd 0ba2 d23d
000001a0: 6bd5 02be 6c4c 933d f522 813e ef92 0d3e
000001b0: 2d0d 2e3c c504 873d 5c64 b2bd 6b95 713d
000001c0: f108 d53d 4d26 e0ba 5315 14bd eeef 1bbc
000001d0: d11f 1e3e 5b18 c5bd 2d82 8fbd c610 2e3d
000001e0: bad6 9ebe c932 f23c be15 783d 21a6 bdbd
000001f0: 3532 d13d 7681 103e d0a8 90bc 716d 12be
00000200: a16c a73e 09d8 c8bd 642d e6bd 8f17 9c3d
00000210: f7d7 88bd f481 c0bd 7800 a0bc a688 1bbe
00000220: 50ae 553d c862 a6bd beea dbbc a105 fabc
00000230: f9ad 0fbe c4e8 92be 818c 2ebe 365f 39be
00000240: a833 f0bd 0430 00be cd1f 873c e247 0e3d
00000250: 8960 13bd b657 9c3d 74b7 803d 8a17 bdbc
00000260: 3fac bbbd 5917 c8bc 308e 3b3b 977b 3a3e
00000270: 0db4 7ebd 9443 e8bd 5003 133d 3e4e 95bd
00000280: 03a8 2dbc e73e 7bbd 72b1 003d 645b b1bd
00000290: c024 10be 976d 693c 8fe2 173e a30c aebd
000002a0: b8cd a0bd 29db d1bc 6a15 8dbd fcd5 a8bd
000002b0: 48bb 7e3d 95d2 b23d 0722 12be 73ee 19bd
000002c0: d1c2 573c bca7 12be e117 fdbd f408 7bbe
000002d0: 5bd3 f2bd 2832 51bc 8e4f 153d cdb5 493d
000002e0: beff 8bbb 18e6 05bd ff1a 46be ebd5 d0bc
000002f0: 2a93 d9bd c9c9 e83d f2c8 333d 5f5f 373e
00000300: 8f5b 47be 16f1 05be c5cb 0c3d 625e e23d
00000310: 0867 83bd 2f47 7f3c a113 9b3d f3d3 553c
00000320: 0e4f c33d 7d98 a53d c3b9 8abc e371 073e
00000330: 5134 683c ec01 0bbd bdd0 3d3d f2c8 4b3d
00000340: 0a4d 013c d8bb 7c3c 61cb cdbd 01eb e7bd
00000350: 87ac 86bd 0bf8 1e3e aa32 1fbe 25e6 08bd
00000360: 048d 55bc 90bd 08bd ba82 9b3d 1cdb ac3d
00000370: 30da 1a3d f57e fa3d 1de1 17be 7e87 4cbe
00000380: b1c1 92bd e214 97bd 8db4 97bd 2785 1f3e
00000390: 44c9 81bd 928e 32bd 1cbb 8cbb c622 ebbc
000003a0: 525b a1bc 1b07 e93b 9ef6 0b3e c3b7 ffbb
000003b0: 8272 b9bd 1c69 90bc 5a5f 90bd 1475 88bd
000003c0: f8e3 053e a633 e3bc 1c41 9f3c e099 a63d
000003d0: af81 f7bc bf78 8f3a a3cb 883a eefe 21be
000003e0: e0fc bc3d 663c c23d dc30 b23c b967 f0bc
000003f0: 2b1d cbbc 418f 5bbd 2c29 033e ee82 29bc

bias f4 [128]
-0.05487533 0.0029376603 0.0060872505 0.0026030617 -0.015368583 0.016984617 -0.06677763 -0.01961065
-0.036301114 0.017058041 -0.0035966516 -0.0697965 0.026281126 0.080046274 -0.020463077 0.012248957
-0.118894 -0.021693623 0.013162884 0.017077146 0.02159406 -0.0027710581 -0.01000108 0.015798034
0.042547483 -0.006906704 0.06312847 0.06804322 -0.042751014 0.045495603 -0.06140667 -0.041706387
0.020063153 -0.032590393 -0.05015413 0.0787069 0.0059997533 0.008662871 -0.014599421 0.0073703825
0.021169765 -0.025657587 -0.0024879267 0.011981748 0.012785525 0.003090918 -0.026347043 0.01578892
-0.010877069 0.011339967 -0.013770092 -0.04067415 -0.025521213 -0.02646437 0.03849674 -0.030049382
-0.06818695 0.06473327 -0.00065086264 -0.017678138 0.027585402 -0.020749286 0.0389287 -0.011041304
-0.0017643449 0.00621102 -0.03195472 -0.031144531 0.027338767 0.026212577 0.052203964 0.0245827
-0.018205509 -0.09038923 -0.04296115 0.0005131861 0.019494232 -0.012661678 0.039117035 0.016628228
-0.0032770815 -0.05976462 0.03847947 -0.013846363 -0.009016872 -0.015181927 -0.05581276 0.045793954
0.03673286 0.037874326 -0.03688932 -0.029849619 0.0460205 0.034472063 0.053456508 0.02623517
0.04740436 -0.0022167382 -0.0021037264 0.02486578 0.007111968 -0.006529231 0.019001748 -0.034595218
-0.058790445 -0.07501862 0.00295687 0.028297802 0.0005889346 -0.033554893 0.041344438 0.025111029
0.0127554005 -0.03216647 0.037908807 0.06279273 -0.02557496 -0.06263515 -0.017803594 -0.008832225
-0.05975663 -0.018406121 -0.02547146 -0.013983174 -0.046271957 0.02666668 0.006171271 -0.0049445936
00000000: f4c4 60bd c385 403b 8f77 c73b 2198 2a3b
00000010: 82cc 7bbc 5323 8b3c b6c2 88bd 84a6 a0bc
00000020: 7ab0 14bd 4ebd 8b3c cdb5 6bbb 78f1 8ebd
00000030: 844b d73c 4def a33d 2fa2 a7bc d9af 483c
00000040: b37e f3bd d3b6 b1bc 23a9 573c 5fe5 8b3c
00000050: 07e6 b03c a49a 35bb 92db 23bc e16a 813c
00000060: 4546 2e3d a251 e2bb 8049 813d 3e5a 8b3d
00000070: b01b 2fbd 9959 3a3d 8f85 7bbd 51d4 2abd
00000080: 7b5b a43c 817d 05bd 6b6e 4dbd 1531 a13d
00000090: 9499 c43b b7ee 0d3c 6932 6fbc 4083 f13b
000000a0: 376c ad3c dc2f d2bc 7c0c 23bb 184f 443c
000000b0: 617a 513c 0091 4a3b c1d5 d7bc c457 813c
000000c0: bc35 32bc 45cb 393c f49b 61bc f099 26bd
000000d0: dd11 d1bc cecb d8bc c2ae 1d3d 1f2a f6bc
000000e0: 9aa5 8bbd e092 843d a79e 2aba bed1 90bc
000000f0: c8fa e13c 68fa a9bc b373 1f3d 96e6 34bc
00000100: 9741 e7ba d085 cb3b f4e2 02bd d122 ffbc
00000110: 8df5 df3c c2bb d63c d3d3 553d a961 c93c
00000120: b823 95bc fd1d b9bd 08f8 2fbd 5687 063a
00000130: 5eb2 9f3c ed72 4fbc 2f39 203d ec37 883c
00000140: 4ec4 56bb bfcb 74bd a69c 1d3d dbdb 62bc
00000150: 81bb 13bc 9ebd 78bc ec9b 64bd 7192 3b3d
00000160: 3275 163d 1c22 1b3d 4119 17bd 3087 f4bc
00000170: fe7f 3c3d 9432 0d3d 36f5 5a3d 24eb d63c
00000180: 132b 423d b246 11bb acde 09bb 52b3 cb3c
00000190: 830b e93b 29f3 d5bb 8ea9 9b3c b7b3 0dbd
000001a0: 40ce 70bd 5da3 99bd 0cc8 413b cbd0 e73c
000001b0: bb62 1a3a db70 09bd c958 293d a5b5 cd3c
000001c0: 07fc 503c fdc0 03bd 4446 1b3d 7a99 803d
000001d0: 9482 d1bc dc46 80bd d8d8 91bc 09b5 10bc
000001e0: 5ec3 74bd 6fc8 96bc 86a9 d0bc af19 65bc
000001f0: aa87 3dbd 1574 da3c 6038 ca3b 4206 a2bb

weight f4 [128]
0.84378666 0.83013487 0.7932389 0.83369 0.8073679 0.9262236 0.84833986 0.80613196
0.82194567 0.88157517 0.7656289 0.9474794 0.8563658 0.85629386 0.83086747 0.87379676
0.86222374 0.86713547 0.77974534 0.8000128 0.77975076 0.7924737 0.8389858 0.90088075
0.746569 0.8669049 0.8884971 0.85582876 0.79895675 0.78568745 0.8204771 0.85003525
0.7540304 0.8107565 0.9089515 0.8321844 0.92444646 0.79978585 0.8332121 0.836013
0.70972896 0.8327454 0.8713731 0.85870767 0.8130548 0.8450355 0.69871473 0.9527749
0.86963165 0.88601357 0.8428393 0.75628877 0.850545 0.8787336 0.66700536 0.7536796
0.7963173 0.85688317 0.8006887 0.8449883 0.8413853 0.7665098 0.83559877 0.9950332
0.79774904 0.91312647 0.85896623 0.8842024 0.8355678 0.8055326 0.6900388 0.86690646
0.7968481 0.93773055 0.79368705 0.818197 0.832154 0.7250295 0.68095624 0.8570806
0.7479467 0.7201717 0.8409691 0.7843813 0.80726546 0.74734634 0.8784122 0.7887796
0.86819726 0.87523854 0.7875477 0.877611 0.8080112 0.8322967 0.7975919 0.88400334
0.684055 0.87190056 0.79325545 0.80915475 0.819344 0.8774404 0.8869733 0.860946
0.8963777 0.81224424 0.8295608 0.74209327 0.867349 0.8097432 0.68680936 0.8537614
0.7717047 0.8486344 0.7122035 0.8478303 0.86687875 0.90971017 0.80816716 0.8886367
0.9042779 0.75346094 0.79143983 0.75659287 0.8041176 0.84168243 0.8234018 0.7670793
00000000: 6702 583f b883 543f b411 4b3f b56c 553f
00000010: aaaf 4e3f fd1c 6d3f cd2c 593f aa5e 4e3f
00000020: 086b 523f e9ae 613f 4100 443f 038e 723f
00000030: ca3a 5b3f 1336 5b3f bbb3 543f 25b1 5f3f
00000040: b2ba 5c3f 97fc 5d3f 649d 473f a4cd 4c3f
00000050: bf9d 473f 8edf 4a3f c6c7 563f 1fa0 663f
00000060: 251f 3f3f 7bed 5d3f 8c74 633f 9817 5b3f
00000070: 6e88 4c3f d022 493f ca0a 523f e99b 593f
00000080: 2308 413f bd8d 4f3f 0cb1 683f 090a 553f
00000090: 86a8 6c3f c4be 4c3f 634d 553f f304 563f
000000a0: ccb0 353f cd2e 553f 4f12 5f3f 44d4 5b3f
000000b0: 5c24 503f 3f54 583f f8de 323f 0ee9 733f
000000c0: 2ea0 5e3f c9d1 623f 51c4 573f 249c 413f
000000d0: 51bd 593f aff4 603f ddc0 2a3f 25f1 403f
000000e0: 73db 4b3f b25c 5b3f eff9 4c3f 2751 583f
000000f0: 0765 573f fc39 443f cde9 553f 7fba 7e3f
00000100: 4839 4c3f a8c2 693f 36e5 5b3f 175b 623f
00000110: c5e7 553f 6237 4e3f 62a6 303f 95ed 5d3f
00000120: 3dfe 4b3f 1c0f 703f 132f 4b3f 5c75 513f
00000130: 0b08 553f 899b 393f 2653 2e3f a269 5b3f
00000140: 6f79 3f3f 2c5d 383f c049 573f 36cd 483f
00000150: f3a8 4e3f 1752 3f3f 9fdf 603f 76ed 493f
00000160: 2d42 5e3f a20f 603f ba9c 493f 1dab 603f
00000170: d2d9 4e3f 6611 553f fc2e 4c3f 0b4e 623f
00000180: 3a1e 2f3f e034 5f3f ca12 4b3f c424 4f3f
00000190: 87c0 513f ef9f 603f af10 633f f566 5c3f
000001a0: 0279 653f 3def 4f3f 195e 543f d3f9 3d3f
000001b0: 960a 5e3f 554b 4f3f bdd2 2f3f 1b90 5a3f
000001c0: 708e 453f 1b40 593f f852 363f 680b 593f
000001d0: c4eb 5d3f c4e2 683f 0be4 4e3f b27d 633f
000001e0: c27e 673f d1e2 403f cd9b 4a3f 12b0 413f
000001f0: a7da 4d3f 8078 573f 76ca 523f 4f5f 443f

bias f4 [128]
-0.3292073 -0.585446 -0.30834734 -0.2892803 -0.64511997 -0.28523585 -0.3484279 -0.4946335
-0.42251593 -0.34735426 -0.4339068 -0.30629432 -0.33953762 -0.36209002 -0.35129964 -0.36371866
-0.25071937 -0.21148413 -0.434147 -0.62970996 -0.45352125 -0.30662158 -0.47602072 -0.39464527
-0.43938228 -0.24290204 -0.34825507 -0.361132 -0.53584445 -0.44476002 -0.49357006 -0.36963227
-0.34696233 -0.41628247 -0.34375077 -0.38436094 -0.57039946 -0.45760262 -0.24879761 -0.2730841
-0.35803983 -0.31666398 -0.46787646 -0.5789869 -0.47780612 -0.3039242 -0.38370743 -0.3285179
-0.45565104 -0.30961555 -0.4806418 -0.5067917 -0.400258 -0.30967176 -0.4244385 -0.46241912
-0.3434842 -0.41688636 -0.42651954 -0.34432113 -0.3895715 -0.49233022 -0.3633798 -0.32642108
-0.3242535 -0.3615415 -0.31752142 -0.28230837 -0.24838887 -0.6420609 -0.5558844 -0.33090854
-0.4133619 -0.25305456 -0.47612745 -0.40843087 -0.53419894 -0.4272428 -0.37833944 -0.4630835
-0.53242326 -0.5154574 -0.5254956 -0.5189879 -0.37615603 -0.50974464 -0.41831952 -0.44982716
-0.38440195 -0.48454654 -0.5251014 -0.6135878 -0.39948028 -0.28641784 -0.39858902 -0.2553513
-0.4256128 -0.47706816 -0.51377124 -0.5978851 -0.48121843 -0.5632363 -0.27270153 -0.55318415
-0.30928236 -0.34667638 -0.35497472 -0.3380641 -0.4872799 -0.34789565 -0.5056325 -0.43486837
-0.60629576 -0.38827127 -0.530941 -0.3501478 -0.41321465 -0.32399988 -0.31713182 -0.3300201
-0.29369217 -0.4899416 -0.34890932 -0.52296585 -0.42101628 -0.45648918 -0.39242467 -0.40120775
00000000: dc8d a8be cadf 15bf b4df 9dbe 8c1c 94be
00000010: 9526 25bf 6f0a 92be 2465 b2be 9a40 fdbe
00000020: 0254 d8be 6bd8 b1be 0829 debe 9cd2 9cbe
00000030: e0d7 adbe dd63 b9be 8cdd b3be 5539 babe
00000040: 4a5e 80be 4c8f 58be 8448 debe ac34 21bf
00000050: f033 e8be 81fd 9cbe fdb8 f3be f20e cabe
00000060: b7f6 e0be 50bb 78be 7d4e b2be 4be6 b8be
00000070: 1a2d 09bf 96b7 e3be 37b5 fcbe 7140 bdbe
00000080: 0ca5 b1be fa22 d5be 1a00 b0be f5ca c4be
00000090: b305 12bf e44a eabe cdc4 7ebe aed1 8bbe
000000a0: ff50 b7be c821 a2be 818d efbe 7c38 14bf
000000b0: 01a3 f4be f49b 9bbe 4d75 c4be 8033 a8be
000000c0: 184b e9be ee85 9ebe af16 f6be 1abd 01bf
000000d0: 9eee ccbe 4c8d 9ebe 0150 d9be 33c2 ecbe
000000e0: 29dd afbe 2172 d5be c560 dabe dc4a b0be
000000f0: ea75 c7be b512 fcbe eb0c babe aa20 a7be
00000100: 8e04 a6be f81b b9be 2b92 a2be b98a 90be
00000110: a759 7ebe 1a5e 24bf 714e 0ebf d86c a9be
00000120: 2ca4 d3be 5e90 81be fac6 f3be da1d d1be
00000130: 43c1 08bf 91bf dabe b5b5 c1be 4819 edbe
00000140: e44c 08bf 04f5 03bf e186 06bf 64dc 04bf
00000150: 8697 c0be a07e 02bf fa2d d6be bf4f e6be
00000160: 55d0 c4be 7c16 f8be 0c6d 06bf 1714 1dbf
00000170: ae88 ccbe 5ca5 92be dc13 ccbe 68bd 82be
00000180: ece9 d9be 4742 f4be 8386 03bf ff0e 19bf
00000190: 4362 f6be 4130 10bf 899f 8bbe 7a9d 0dbf
000001a0: 425a 9ebe 917f b1be 3fbf b5be bd16 adbe
000001b0: c07c f9be 611f b2be 2271 01bf 11a7 debe
000001c0: 3336 1bbf 7ecb c6be c0eb 07bf 9346 b3be
000001d0: df90 d3be 50e3 a5be 1a5f a2be 65f8 a8be
000001e0: d25e 96be a0d9 fabe 3ea4 b2be 17e1 05bf
000001f0: 728f d7be f3b8 e9be e3eb c8be 1a6b cdbe

running_mean f4 [128]
-2.2856958 1.1003485 -1.7788141 -0.9311913 -0.9644289 -0.20006065 -3.1761117 -3.0540917
-0.3655355 -5.186775 -0.24183317 -5.74192 3.5573642 0.6294661 -1.5093287 -2.4643314
-2.4811766 -0.50720465 -0.22704129 -3.4869933 -1.3497705 3.0556786 -2.0371723 -3.7393336
-1.260031 -0.67652607 -1.302272 -0.7874388 -0.7534324 -1.4393674 -1.3725138 -0.32491678
0.50469506 -1.917626 -1.9097944 -1.0676726 -2.0091422 -2.8095653 1.5438232 -2.1430433
0.9817413 -3.2013497 -1.6487317 -0.4276066 -1.6887958 -1.7192818 -2.814383 -1.4315991
-3.0302882 -4.886107 -4.2867317 -1.8165683 -0.6447711 -2.2014802 -2.3530014 -1.2128407
-1.0133814 -4.0486665 -0.936497 -1.6223301 -2.1698732 -1.0051427 -0.72433376 -6.0125256
-0.015802177 -1.7281728 -1.7950219 -1.8013726 -3.67072 -1.0985469 -4.081565 0.30044174
-5.0260987 -3.7244802 -1.6545242 -1.4773248 -0.29353994 0.13003066 -1.083589 -3.481623
-0.9069012 -2.2852921 -3.2620795 -1.0328857 0.3101111 -2.3411627 -3.635627 -0.10132474
-1.9496505 -3.1999345 -2.6007216 -0.5456263 -2.581279 -2.008595 -3.1864462 -2.5873039
-1.1743903 -2.7277956 -0.9521072 -0.29775044 -2.1197333 -3.1131535 -2.5591917 -2.1581128
-0.87242305 -0.54531896 -0.6968696 -0.90947413 -0.7964986 -1.308717 -2.566771 -2.136981
-2.2839923 -2.6550715 -1.9696786 -1.6179632 -1.2744573 -0.6736909 -3.1811829 -1.4650915
-3.3125203 -2.5588744 -1.5311298 -2.890025 -2.6554797 -1.9302175 -2.2994165 -1.3288167
00000000: d748 12c0 38d8 8c3f 2eb0 e3bf 8e62 6ebf
00000010: d0e4 76bf b3dc 4cbe 6a45 4bc0 3d76 43c0
00000020: 7827 bbbe 10fa a5c0 1da3 77be cfbd b7c0
00000030: dbab 6340 b124 213f af31 c1bf 9bb7 1dc0
00000040: 99cb 1ec0 2ad8 01bf 837d 68be e62a 5fc0
00000050: 48c5 acbf 3d90 4340 0861 02c0 3e51 6fc0
00000060: b248 a1bf d030 2dbf d9b0 a6bf 9795 49bf
00000070: f2e0 40bf 313d b8bf 88ae afbf 7e5b a6be
00000080: b233 013f c574 f5bf 2574 f4bf 7fa9 88bf
00000090: c995 00c0 ebcf 33c0 009c c53f 9f27 09c0
000000a0: 6653 7b3f eae2 4cc0 a409 d3bf 41ef dabe
000000b0: 762a d8bf 6d11 dcbf da1e 34c0 a43e b7bf
000000c0: 3ef0 41c0 fd5a 9cc0 e82c 89c0 4f85 e8bf
000000d0: b80f 25bf 0de5 0cc0 9397 16c0 5d3e 9bbf
000000e0: 7bb6 81bf ad8e 81c0 44be 6fbf 83a8 cfbf
000000f0: 34df 0ac0 84a8 80bf f06d 39bf 9c66 c0c0
00000100: 9173 81bc c434 ddbf 47c3 e5bf 6193 e6bf
00000110: 14ed 6ac0 2f9d 8cbf 2e9c 82c0 80d3 993e
00000120: cdd5 a0c0 e25d 6ec0 73c7 d3bf fb18 bdbf
00000130: de4a 96be c226 053e 0bb3 8abf e9d2 5ec0
00000140: ad2a 68bf 3a42 12c0 e9c5 50c0 9935 84bf
00000150: e2c6 9e3e 9cd5 15c0 1dae 68c0 5883 cfbd
00000160: 268e f9bf bacb 4cc0 3972 26c0 2aae 0bbf
00000170: ad33 25c0 d28c 00c0 bcee 4bc0 6396 25c0
00000180: 6c52 96bf 3494 2ec0 4cbd 73bf bf72 98be
00000190: b6a9 07c0 e83d 47c0 ccc9 23c0 851e 0ac0
000001a0: 1e57 5fbf 069a 0bbf 0c66 32bf 4cd3 68bf
000001b0: 55e7 4bbf 0a84 a7bf fa45 24c0 4cc4 08c0
000001c0: ee2c 12c0 b1ec 29c0 6e1e fcbf 6b19 cfbf
000001d0: 6b21 a3bf 0277 2cbf 8098 4bc0 1e88 bbbf
000001e0: 5500 54c0 99c4 23c0 10fc c3bf 2bf6 38c0
000001f0: 61f3 29c0 5e11 f7bf a429 13c0 aa16 aabf

running_var f4 [128]
6.8915844 3.787316 5.1849766 3.8748746 3.5101912 5.0316052 4.333802 4.4153185
3.9574249 9.270033 3.7717733 6.00661 5.320098 3.7289672 4.524171 4.33181
3.8482316 5.584132 4.607099 4.484957 3.5930634 3.8944845 4.6960173 5.4049993
4.4575005 5.1689296 4.059014 4.013943 3.8451421 4.040049 4.0996733 3.5167108
3.9601052 4.114285 4.5937643 5.058065 4.014463 4.468726 6.651416 4.353131
3.5207756 6.1423283 5.044437 4.506214 3.3139644 5.2777157 3.7996347 3.6661334
5.80857 5.8530474 5.6713037 3.9004955 4.5531015 4.5035677 2.502834 3.731082
3.8564768 4.326799 4.0711865 7.2343087 4.809558 3.9416058 4.4994164 9.464507
4.554446 4.0087113 4.2181177 4.4291153 7.901026 3.8353949 5.614479 5.429645
5.368844 6.2688866 3.7148142 4.862403 3.7588408 2.8549063 3.2246602 5.862575
4.094744 4.581252 4.6625075 4.093229 4.049471 3.2294834 4.5157194 4.6842155
5.886504 5.3247776 3.9953935 3.672587 4.642452 3.2648485 5.6198864 7.1150026
4.13111 3.763502 5.7917037 3.212859 4.6572766 5.112411 5.8949246 5.5436106
3.6264727 4.7686696 5.12677 7.813531 3.9098294 4.6357765 4.824159 4.2222967
3.7662537 3.2554197 3.8391569 5.720742 5.1352167 5.643547 6.2911196 5.107642
5.001394 4.556279 3.8474445 4.7179027 4.0625744 4.0121245 3.3242395 3.5848541
00000000: dc87 dc40 6363 7240 54eb a540 f2fd 7740
00000010: f9a6 6040 e902 a140 82ae 8a40 4a4a 8d40
00000020: 7346 7d40 0e52 1441 bc64 7140 2636 c040
00000030: 3e3e aa40 66a7 6e40 02c6 9040 309e 8a40
00000040: 6d49 7640 36b1 b240 5b6d 9340 c584 8f40
00000050: c0f4 6540 3c3f 7940 c645 9640 c1f5 ac40
00000060: d8a3 8e40 df67 a540 71e3 8140 3972 8040
00000070: cf16 7640 1548 8140 8630 8340 ca11 6140
00000080: 5d72 7d40 39a8 8340 1e00 9340 abdb a140
00000090: 7b76 8040 ceff 8e40 66d8 d440 d94c 8b40
000000a0: 6354 6140 f48d c440 076c a140 e832 9040
000000b0: fe17 5440 0ce3 a840 372d 7340 eea1 6a40
000000c0: cedf b940 2a4c bb40 527b b540 b8a1 7940
000000d0: 02b3 9140 3a1d 9040 6f2e 2040 0cca 6e40
000000e0: 84d0 7640 2375 8a40 2947 8240 757f e740
000000f0: e6e7 9940 4543 7c40 38fb 8f40 9f6e 1741
00000100: 06be 9140 5d47 8040 d2fa 8640 50bb 8d40
00000110: 34d5 fc40 1c77 7540 d0a9 b340 a7bf ad40
00000120: 92cd ab40 b89a c840 84bf 6d40 ce98 9b40
00000130: d990 7040 c9b6 3640 d560 4e40 379a bb40
00000140: 2508 8340 9e99 9240 4333 9540 bbfb 8240
00000150: 4495 8140 dbaf 4e40 c680 9040 18e5 9540
00000160: 3e5e bc40 9464 aa40 87b4 7f40 aa0b 6b40
00000170: f78e 9440 47f3 5040 1cd6 b340 1aae e340
00000180: 0e32 8440 37dd 7040 a355 b940 7b9f 4d40
00000190: 6908 9540 df98 a340 39a3 bc40 4265 b140
000001a0: 2118 6840 f198 9840 800e a440 7208 fa40
000001b0: a53a 7a40 4858 9440 835f 9a40 0e1d 8740
000001c0: 4d0a 7140 cc58 5040 bfb4 7540 5210 b740
000001d0: b253 a440 f097 b440 da50 c940 ce71 a340
000001e0: 6b0b a040 0acd 9140 883c 7640 0ff9 9640
000001f0: 9c00 8240 5363 8040 57c0 5440 406e 6540
