project_2/part_2/models/saved/magda_mnist_small.pt (torch, 409742 bytes, 26 tensors)

weight f4 [32, 1, 3, 3]
000000 c9 54 a8 3e 4d 41 53 3e 80 fc 5a be 73 d9 20 3e
       0.32877186 0.20630379 -0.21385384 0.1570795
000010 03 4a 3f be 26 c7 c7 bb ae 14 03 be ca cb 4d 3e
       -0.18680577 -0.0060967384 -0.12800857 0.2009727
000020 bc 93 bb 3e ec dc 8f be e4 8b 75 3e 2d a9 23 3e
       0.3663615 -0.28098238 0.23979145 0.15982504
000030 b2 10 93 3e 0d 5b 10 be aa 71 2f 3e 13 11 44 3d
       0.28723675 -0.14097233 0.17133203 0.047867846
000040 28 b5 a3 3d 45 fd 68 3e 2d 85 20 3d 7a 06 54 be
       0.07993537 0.22752865 0.039189506 -0.20705596
000050 ae 3c 44 be a7 f0 a3 bc 85 4d 84 be 03 50 88 3e
       -0.19163772 -0.020012213 -0.25840393 0.26623544
000060 5e 3b 96 be bd eb 0f be b5 0b 82 3c ba 15 54 be
       -0.2934217 -0.14054771 0.015874723 -0.20711413
000070 07 2c 66 bd 8e eb db be 17 39 9e 3e 55 5d 2d be
       -0.05619433 -0.4295315 0.3090293 -0.16930135
000080 bf e0 a9 3e e0 2f f9 3d 50 1d 66 bd 91 b5 31 3e
       0.3317928 0.121673346 -0.0561803 0.17354418
000090 ff 3d d6 3d eb 81 ad 3e c2 f1 61 3d 11 1f c6 bd
       0.104610436 0.33888182 0.0551622 -0.09673894
0000a0 f2 34 b9 3d 41 fd 2e be 98 f6 2a 3e 20 f8 8c 3e
       0.09043302 -0.17088796 0.1669563 0.27533054
0000b0 12 ea 1e 3e c6 31 ef bc 54 c9 57 3e bc bd 5a bd
       0.15518978 -0.029198539 0.21072894 -0.0534036
0000c0 d7 94 89 3e d0 59 0e be d1 22 bf be ec 72 7f be
       0.26871368 -0.13901448 -0.3733125 -0.24946183
0000d0 b5 18 85 be a7 3f 89 3e 02 55 c5 3d d6 26 ce 3d
       -0.25995412 0.26806375 0.096353546 0.10066001
0000e0 b7 21 7c 3e 35 0f 20 3d 70 aa 1e 3e c2 d1 46 be
       0.24622236 0.039077003 0.15494704 -0.19415954
0000f0 ac 35 d3 bd bc 87 c2 be 25 6b f4 3c e2 7a ef bd
       -0.103129715 -0.37994182 0.029836247 -0.1169336
000100 8e 87 00 3d 58 0d 40 be e1 9e 8c 3e 9b ec 17 be
       0.031379275 -0.1875509 0.27464965 -0.14836352
000110 ea 24 b4 be 1e 99 2a be e2 f3 97 3e 6b ab b0 3d
       -0.35184413 -0.16659972 0.29678255 0.086264454
000120 0a 1b 91 3e ca ae 8c be b6 69 b2 be cf 08 ae be
       0.28340942 -0.27477103 -0.34846276 -0.33991095
000130 e7 3a 13 be cb a1 3c 3e 97 14 08 3e d4 f0 9f 3e
       -0.14377938 0.18421094 0.13289104 0.31238425
000140 ad d5 5f be 07 a1 89 be eb e6 e7 3d ef d6 44 be
       -0.21858855 -0.26880667 0.11323341 -0.19222616
000150 c1 71 35 3e 87 02 b3 bd f7 8f 57 3e d5 97 a6 be
       0.17719175 -0.087407164 0.21051012 -0.32537714
000160 c2 23 36 be 6b 6b 1e 3e 9d 0d 98 3d a4 04 13 be
       -0.17787078 0.15470664 0.074244715 -0.14357239
000170 2b e0 b6 3d 4c 5e 9a 3e 83 57 5a be 25 ea 6c be
       0.089294754 0.30150068 -0.21322446 -0.23136194
000180 45 a7 bb 3e ed 9c 89 bd 93 30 34 be d3 1d b2 be
       0.36651054 -0.06719384 -0.17596655 -0.3478838
000190 fe 8f c4 3d ed 32 42 3e 66 fe 6c be a0 41 c3 bd
       0.09597777 0.18964739 -0.2314392 -0.09534001
0001a0 fd 5d 11 3e 52 92 ea bd 6f a7 8e be da 2c 57 be
       0.1419601 -0.1145369 -0.27862117 -0.21013203
0001b0 55 a2 88 be 3a d3 29 be f3 f1 c0 3e f8 05 ba 3d
       -0.2668635 -0.16584483 0.37684593 0.0908317
0001c0 c4 83 be 3a 16 f5 d1 be 60 37 e4 bd 0a 6e 42 bd
       0.0014535119 -0.41007298 -0.111433744 -0.047468223
0001d0 e4 0b 65 3d 23 f3 db bd a8 e1 4b bc 27 d7 86 be
       0.055919543 -0.10739734 -0.012443937 -0.26336023
0001e0 5e 88 9a 3e 3e a9 63 be e9 e8 46 bd 13 e4 56 be
       0.30182165 -0.2223253 -0.048561964 -0.20985441
0001f0 ab 53 92 be 36 86 13 be a1 7b 52 be d3 24 77 be
       -0.2857946 -0.14406666 -0.20554973 -0.24135141
000200 cb 98 9b 3e d0 3d 90 be 47 05 8b 3e 92 e1 cc 3d
       0.3039001 -0.2817216 0.27152464 0.100039616
000210 a5 f8 7b be 52 8e 7a 3e 2a 01 9c bd 33 04 79 bd
       -0.24606569 0.24468353 -0.076174095 -0.06079502
000220 96 c7 7e be 21 b5 b8 be 68 c3 21 be da ca 80 3c
       -0.24880823 -0.3607569 -0.15797198 0.015721727
000230 71 e5 83 3e ee 9f a5 be 13 8d a4 3e 48 21 b8 bd
       0.25760987 -0.3234858 0.3213888 -0.08990723
000240 85 c4 ad bd 07 c2 1d 3d ae 93 8a 3d e0 82 30 3e
       -0.08484749 0.038515117 0.06766449 0.17237425
000250 33 f5 b0 3e 16 59 a8 be 37 74 d3 3c aa 92 79 be
       0.34562072 -0.32880467 0.025812251 -0.24372354
000260 81 a7 3e be d9 ac 80 be 7b 92 9a 3e e7 f1 ae be
       -0.18618585 -0.25131872 0.3018988 -0.34168932
000270 9a a2 f7 3d a3 76 1f 3e 7d 6a 46 bb cd dd 96 be
       0.12091561 0.155726 -0.0030275874 -0.29466096
000280 cb 03 78 3e c2 15 fd bc a4 4b 2c 3d 8b 13 b8 be
       0.24220197 -0.030894164 0.042064324 -0.3595241
000290 a6 20 27 3e b3 52 d1 3c 36 8e 86 be 76 6d 8a 3e
       0.16321048 0.02555213 -0.26280373 0.27036637
0002a0 13 fe 0c 3e 6a d8 71 be 90 e0 02 be 74 2f 59 bc
       0.13768797 -0.23617712 -0.12780976 -0.013255943
0002b0 bc fb 12 3e 09 fd 82 bd e4 c9 68 be 07 6b 62 be
       0.14353842 -0.06395919 -0.22733265 -0.2211114
0002c0 09 2e 66 be 72 5a 1b 3e 3e ff 9d 3e b5 0d a2 be
       -0.22478499 0.15171221 0.30858797 -0.31651083
0002d0 90 d3 0a 3e 4d 39 56 3e 0d 7f 4b 3e 83 a2 b6 3c
       0.13557267 0.20920296 0.19872685 0.022294289
0002e0 e9 53 c7 3d fd a8 48 3e 92 2f 4e 3e 64 c0 30 bd
       0.097328015 0.19595714 0.20135334 -0.043152228
0002f0 45 54 80 bd 32 3a 39 bc 04 70 1f be c9 04 34 be
       -0.06266073 -0.011305379 -0.15570074 -0.1757995
000300 75 a7 17 3e 6c fe 9d 3e d7 ea 86 3b c4 23 44 be
       0.14809974 0.3085817 0.0041173506 -0.19154269
000310 f2 7e 0a 3d 7f 0b cc bc 29 15 ed 3d 50 68 f6 3d
       0.03381247 -0.024907826 0.115763016 0.12031615
000320 15 98 68 be 48 3e 50 be 55 cc 83 3e d3 bd 6c 3e
       -0.22714265 -0.20336258 0.2574183 0.23119287
000330 43 dc 14 be 2a be 94 be 5b b7 1e be c4 f4 ce be
       -0.14537148 -0.29051334 -0.15499632 -0.40421116
000340 6d 67 40 be 0f 6b d5 3d c4 4b 80 3e c8 d2 24 3e
       -0.18789454 0.104208104 0.25057805 0.16096032
000350 3f 45 97 be 8b f6 54 be fb ec 84 bd be f6 92 3e
       -0.29545018 -0.20797174 -0.06490513 0.28703874
000360 42 58 5d 3d f6 41 a0 3d 51 d5 61 3e d9 d0 14 be
       0.054039247 0.07825081 0.2205403 -0.14532794
000370 42 c4 d9 bd 0c a0 72 3e c5 2b 0d be f3 b2 41 be
       -0.10633136 0.23693866 -0.13786228 -0.1891592
000380 05 24 c4 be 35 25 62 3e 9f ce 56 3e 84 f7 b6 3d
       -0.3830873 0.22084506 0.20977257 0.089339286
000390 63 de a0 be 87 b0 d8 be a4 59 ae be a5 b4 35 3e
       -0.31419668 -0.4232218 -0.34052765 0.17744692
0003a0 4f 1b 21 3e ed 7b 80 3e 26 3f fd 3d d3 7d 6b 3e
       0.15733074 0.25094548 0.1236556 0.22997217
0003b0 08 07 e8 3d 29 71 c8 be 93 d1 13 be 0e f7 65 be
       0.11329466 -0.39148834 -0.14435415 -0.22457525
0003c0 99 13 e1 3d ea 58 1b be 70 ba be bc f7 fd 82 be
       0.10990066 -0.15170637 -0.02328226 -0.25584385
0003d0 94 d1 d0 bd 8b d1 fa bd 25 3c d0 bd f4 fe 15 3e
       -0.10196224 -0.122469984 -0.10167722 0.14648038
0003e0 a2 aa 81 bd 64 1d a6 3e 96 3d 91 bd 30 3f 7f be
       -0.06331374 0.32444298 -0.07091825 -0.24926448
0003f0 bc e8 90 bc 13 37 b4 be f7 d4 ee bd b3 db 8e be
       -0.017689101 -0.35198268 -0.116617136 -0.27901992

bias f4 [32]
000000 9b e5 51 3e 8d 58 db bd 8f 3e 80 bd cc a3 d5 bd
       0.20497744 -0.10710249 -0.06261932 -0.104316324
000010 89 ba 3b be 1a bb e4 be 9b 10 4a 3e c2 7f 0a bb
       -0.18332876 -0.44673997 0.19732897 -0.0021133278
000020 9f 4f 38 be ab b2 a0 bd 60 6e 54 be 3b d9 a6 be
       -0.17999123 -0.07846578 -0.2074523 -0.3258761
000030 a0 27 f0 3d da a9 41 be f3 a0 a9 be 88 52 4e be
       0.11726308 -0.1891245 -0.33130607 -0.2014867
000040 84 46 95 be 78 37 64 3e b6 52 75 be b4 28 c0 bd
       -0.29155362 0.22286785 -0.23957333 -0.093827635
000050 96 68 5a be 0f 51 76 3d 1c 46 c4 3e d6 75 17 3e
       -0.21328959 0.060135897 0.3833474 0.14791045
000060 b2 88 e7 be 76 cc ac 3c f7 79 97 3e 36 ac 6a 3d
       -0.45221478 0.021093588 0.2958524 0.05729314
000070 72 87 b6 3e 74 3e a3 3e 42 00 14 bd 56 ef 61 3d
       0.35650212 0.31883585 -0.03613306 0.05515989

weight f4 [32]
000000 7b 69 39 3f ed 78 03 3f b2 3c 99 3f 1a b8 50 3f
       0.72426575 0.51356393 1.1971648 0.81530917
000010 42 3c ff 3e 0f d4 ac 3f 06 14 59 3f 3d 07 6c 3f
       0.4985066 1.3502215 0.8479618 0.92198545
000020 5e 17 8a 3f 55 77 76 3f a1 b1 8e 3f 19 40 98 3f
       1.0788381 0.96275836 1.1147958 1.1894561
000030 eb 95 93 3f 53 14 82 3f a4 ec 80 3f 27 44 bb 3f
       1.1530126 1.0162452 1.0072217 1.4630173
000040 e3 1c 6d 3f 03 cc 49 3f 6b 2d 9a 3f 76 44 a1 3f
       0.926222 0.7882692 1.204511 1.2599018
000050 f6 c0 fd 3e c0 de 74 3f 17 06 8a 3f b7 b9 79 3f
       0.4956128 0.9565239 1.0783108 0.97549003
000060 6a 0e a2 3f 18 36 78 3f 64 46 a3 3f 7f d1 ac 3f
       1.2660649 0.9695754 1.2755857 1.3501433
000070 b1 7a 86 3f 6a 1a a5 3f f0 f8 18 3f 29 26 94 3f
       1.0506192 1.2898686 0.5975485 1.1574146

bias f4 [32]
000000 48 37 b7 be 3b ea b4 be 97 3a 35 bd 12 78 ed bd
       -0.35784364 -0.35334954 -0.04424533 -0.11595167
000010 a1 91 bd be f5 c2 1c 3e e7 06 db bd c4 fa 7b 3d
       -0.3702517 0.15308745 -0.10694676 0.061518446
000020 72 44 82 3c 10 9f 67 be 1e 1d 11 be 4d d7 8a bd
       0.015901778 -0.22619271 -0.14171264 -0.067793466
000030 86 cb a1 be 3c c2 76 bc 35 81 58 be 67 18 89 bd
       -0.3160059 -0.0150609575 -0.21143039 -0.066941075
000040 0a 00 6f be 0d 89 b4 be 43 b0 2d bd 1a d3 12 bc
       -0.23339859 -0.3526081 -0.042404424 -0.008961463
000050 be 8c 87 be f6 25 cb be 5c 8f 65 3d 73 71 08 be
       -0.26474565 -0.396774 0.05604492 -0.13324527
000060 f6 8d 24 bd 46 f8 d7 be a4 04 97 3c 1e 53 37 be
       -0.040174447 -0.42181605 0.01843483 -0.179028
000070 56 31 56 3e b0 73 f8 bd 80 5d e5 be 49 b2 14 be
       0.20917258 -0.12131441 -0.44797897 -0.14521135

running_mean f4 [32]
000000 d3 68 99 3e 49 c3 f9 bb ed 07 29 be 63 28 d5 bd
       0.29962787 -0.0076221568 -0.1650693 -0.10408094
000010 08 2e 83 bd ba 75 fb be 5b 4a 48 3e 31 21 16 bd
       -0.06405264 -0.49113256 0.19559614 -0.036652748
000020 83 d1 6d be 74 30 05 be 92 79 52 be 70 e4 df be
       -0.23224454 -0.13006765 -0.20554188 -0.4372897
000030 6d 57 58 3d 4e bf a0 be 33 15 b3 be b0 62 92 be
       0.05281775 -0.31395954 -0.3497711 -0.28590918
000040 10 1a a1 be 74 d6 55 3e 1c 70 92 be a4 7c 1d be
       -0.31465197 0.20882589 -0.28601158 -0.15379578
000050 14 3f b7 bd 1e 70 65 3d 0a f4 af 3e 21 8d cd 3d
       -0.08947578 0.056015126 0.34365875 0.10036684
000060 38 a3 fe be 9d 27 cf 3c 87 d9 7d 3e b0 47 c4 bb
       -0.497339 0.025287444 0.24790011 -0.005989991
000070 a2 a7 ae 3e d0 15 8d 3e 77 b5 3a 3a 76 97 16 bd
       0.3411227 0.27555704 0.0007122377 -0.03676554

running_var f4 [32]
000000 13 61 16 3d f7 21 3e 3d bf ce 4e 3d 8f 88 82 3c
       0.03671367 0.04641911 0.050490137 0.015934257
000010 d0 0c 69 3d b2 1b a8 3c a0 45 73 3c 97 a5 68 3c
       0.056896985 0.020521019 0.014848143 0.014199636
000020 da 01 c6 3c b0 60 89 3c 54 0c b8 3c 50 8e 70 3d
       0.024170805 0.016769737 0.022466816 0.05872947
000030 c8 e4 9c 3c 07 1a 8e 3d 90 0e d3 3c 7b a4 22 3d
       0.01915206 0.06938558 0.02576378 0.039707642
000040 1d 45 83 3c c4 43 b3 3b 8e 3d 75 3c 59 bd b6 3c
       0.016024167 0.005470725 0.014968289 0.022307085
000050 a7 b1 80 3d 8c f5 62 3b 78 49 57 3c da 54 85 3c
       0.062838845 0.003463122 0.013140075 0.016275812
000060 9a 61 df 3c dd d4 39 3c 6f b3 9d 3c 10 5e b0 3c
       0.02726822 0.0113422545 0.0192506 0.021529227
000070 88 3c e4 3c f1 e1 3d 3c ef 7b 33 3c e7 d2 39 3d
       0.027860895 0.011589513 0.010954841 0.045367148

weight f4 [64, 32, 3, 3]
000000 00 ad 0c be f9 1c e8 bd 9f eb 97 bd b3 ec 0c bc
       -0.1373787 -0.11333651 -0.07417988 -0.008601355
000010 4e 0d 60 bd bf c1 a4 bc 5b ed 32 bd a2 53 82 bd
       -0.05470019 -0.020111917 -0.04368339 -0.06363608
000020 88 d5 ad bd a6 6d f0 bd 60 2c 86 bc dd a9 17 be
       -0.084879935 -0.11739664 -0.016378582 -0.14810891
000030 17 d1 0a bd 59 31 be bd 14 5b 7b 3d d2 16 4a bd
       -0.03389081 -0.09286756 0.061366156 -0.04933817
000040 39 ce a0 bc c6 6a 31 3d 65 5f 89 3d 8a 5d 7c 3d
       -0.019629585 0.043314718 0.06707648 0.061612643
000050 84 9a 26 3d 7b 04 59 bd 8d 94 53 3d 22 cf b4 3d
       0.0406747 -0.05298279 0.05165534 0.0882857
000060 9c e2 23 be 72 c1 cf bc 6c 9d 3d bd 91 01 5e bd
       -0.16004413 -0.025360797 -0.046292707 -0.054200713
000070 1c 4b 62 bc c4 60 92 bd d3 77 9c 3d 3f a8 8c 3d
       -0.013811853 -0.07147363 0.07640042 0.06868028
000080 2a 40 2d 3e fd 88 de bc 20 6f 88 bd c5 a7 3c bd
       0.16919008 -0.02716493 -0.066618204 -0.046058435
000090 41 e2 22 bd 52 71 ae bd b9 bd 17 be 85 24 2d 3d
       -0.039766554 -0.08517708 -0.14818467 0.042271156
0000a0 86 1d fb bc 0c f3 ed bc 08 f4 97 bd f1 06 b1 bb
       -0.030653726 -0.029046558 -0.07419592 -0.005402439
0000b0 e0 04 82 3d 68 86 db 3d c2 ce 7b bc e3 d5 2d be
       0.06348586 0.10718995 -0.015369119 -0.16976123
0000c0 c5 0c 59 bd 19 bd 1e be 00 20 61 3d 32 b1 fe 3c
       -0.052990694 -0.15501823 0.05496216 0.031090353
0000d0 20 39 82 be df 42 bc bd 04 93 44 bd 12 f0 8d bd
       -0.25434208 -0.09192442 -0.047991768 -0.069305554
0000e0 43 c9 68 bd 37 a8 60 bd ae a6 c5 3b 68 ac 52 be
       -0.056832563 -0.054847922 0.0060318327 -0.2057358
0000f0 a3 cb de 3d c4 ee fa bc 2f b3 b6 3d 26 ff 0a 3d
       0.10878684 -0.03063143 0.08920895 0.033934735
000100 e9 15 55 bd b3 da 7c 3d a0 5f 3c bd c6 04 af bc
       -0.05202285 0.061732005 -0.045989633 -0.02136458
000110 76 23 f6 3d ed 64 93 bd 52 aa 8d 3c 16 e7 00 bd
       0.120184824 -0.071969844 0.01729313 -0.03147038
000120 0b f0 05 3d f9 16 05 3e fc b1 ca 3c f3 b5 06 3c
       0.032699626 0.12997045 0.024743073 0.008222091
000130 96 3e e9 bd eb d2 d3 3c 51 bb f8 3b 2c 9b 8d bd
       -0.113888904 0.02585741 0.007590689 -0.06914362
000140 2e 85 9e bd 1b 23 20 3d af b9 23 bd 48 c2 0d be
       -0.07740246 0.03909598 -0.039972004 -0.13843644
000150 9b ed a1 bd 28 3e 36 bd 3d af a5 bc bc 98 0e be
       -0.07906648 -0.04449287 -0.020225162 -0.13925451
000160 f5 94 ab bc 85 03 2f bd 89 0a 4e be 7c 0d d4 bc
       -0.020945052 -0.042727966 -0.20121206 -0.025885336
000170 8a 04 8a bc f5 dd 16 3c 9b 64 19 bd c3 cb 4b be
       -0.016847868 0.009208192 -0.03744946 -0.19901948
000180 d9 99 68 3d 3b de e4 bd 35 f9 c6 bd b7 20 0f 3e
       0.056787346 -0.111751996 -0.09715501 0.13977323
000190 f2 25 1c 3e 6a a5 23 3d 3c 52 d8 bd 35 1f 6e 3d
       0.1524885 0.039952673 -0.1056256 0.05813523
0001a0 ba 65 08 3c 60 ba 1b be 44 a8 54 bd 2d fb e5 bd
       0.008325035 -0.15207815 -0.051918283 -0.112295486
0001b0 df 2d a8 3d 84 43 dd 3d 8a 62 8a 3d 0a a7 a2 bd
       0.08211874 0.10803893 0.06757076 -0.079420164
0001c0 16 f1 fa bd c8 91 5f bd d7 67 42 be 30 3b 4f bd
       -0.12253015 -0.054582387 -0.18984924 -0.050593555
0001d0 41 07 24 bd 5c df 33 3d ba 5e df 3d de 9a 64 3e
       -0.04004598 0.043914184 0.109067395 0.22324702
0001e0 2b 1f ba bc 68 cc e2 3d df ab f4 3c 7a 18 a7 bc
       -0.02271994 0.11074144 0.02986711 -0.020397414
0001f0 fe b7 0c 3d a6 14 c1 bd 98 e8 be bd 35 94 dc bd
       0.034355156 -0.094277665 -0.093217075 -0.10770456
000200 22 ea 22 be 52 94 1c 3c 6d 3c 0b be 66 8e 72 bc
       -0.15909627 0.009556847 -0.1359727 -0.014804458
000210 21 60 e0 bd b4 93 e3 bd b3 33 87 3d f8 a7 45 3e
       -0.10955835 -0.111121565 0.06601658 0.19302356
000220 5e d4 c0 3c a3 02 f1 3d f9 a9 a4 3d 8e dd 45 be
       0.023538765 0.11768081 0.08040232 -0.19322798
000230 d9 59 3c 3e e6 64 24 bd ba a6 6c bd ec 55 04 bd
       0.18393649 -0.040135287 -0.05777619 -0.032308504
000240 72 b6 06 be 50 dd b8 bd 17 a3 67 be 65 8e 1e bd
       -0.13155535 -0.09026587 -0.22620808 -0.038710017
000250 07 a8 eb bc 59 1a fc bd db 13 bc 3d b1 98 76 bd
       -0.028766645 -0.12309713 0.09183475 -0.06020421
000260 f5 a4 e0 3d 56 40 d3 bc e6 75 bb bd 2e 84 98 bd
       0.10968963 -0.025787514 -0.09153347 -0.07447086
000270 9c 40 b8 bc a6 59 c5 bd ea fc eb 3d 70 dd 3d bc
       -0.022491746 -0.0963624 0.11522849 -0.011588439
000280 77 48 40 3d 70 1b 1e 3d cf 25 0d bd f6 c8 4a 3c
       0.046944108 0.038600385 -0.034459885 0.012377014
000290 92 f3 02 be 39 70 82 bd e3 9c 06 bc 52 4f c0 bd
       -0.12788227 -0.06369061 -0.008216116 -0.09390129
0002a0 3c 56 6c 3d 00 58 98 3d 8a 87 0b 3d 8e 35 0d 3e
       0.057699427 0.0743866 0.034064807 0.1378996
0002b0 30 6b 5d 3e ed 3c 94 3d 29 06 9b bd ea 43 94 3d
       0.2162292 0.07238183 -0.07569534 0.07239516
0002c0 8b 26 40 bd ac 99 03 bd 26 8b f9 bd 82 5c 29 bd
       -0.046911757 -0.032128975 -0.121847436 -0.041347988
0002d0 cd 98 7f bd b6 fb fa bd 95 fa 31 be 3e 06 89 3c
       -0.06240158 -0.12255041 -0.17380746 0.01672661
0002e0 20 9a 75 bc 1e f2 65 3a f3 02 9c bc 36 b4 08 bd
       -0.01499036 0.0008771735 -0.019044375 -0.033374988
0002f0 a4 6b 7d 3d 7a 35 a9 bd 33 3d bd 3d d4 87 08 be
       0.061870232 -0.08262153 0.092401884 -0.13333064
000300 a5 be 8c bc 25 c5 29 bd ab 7b 40 3d 7d 4f c2 bc
       -0.01718075 -0.041447777 0.04699294 -0.023719544
000310 b5 5f 34 3e 8f a2 57 bd bc 6e ff 3d 06 d6 d1 3d
       0.17614634 -0.052645262 0.12472293 0.102459
000320 33 10 2f 3d bc 31 03 be a4 0e a2 3c e6 0c 33 bd
       0.04274006 -0.12811941 0.019782372 -0.043713473
000330 6d b3 c0 3d 13 5c 13 3d 18 c8 60 bc 92 db bc 3d
       0.09409223 0.03597648 -0.013719581 0.09221567
000340 b9 ad 1f bc 8a cf c2 3b 15 25 a1 bc 3b 8f aa bd
       -0.009746009 0.0059451507 -0.019671002 -0.083281
000350 2a ea 1c 3d 41 b7 68 bc 0a 79 24 3d 05 27 0f be
       0.038309254 -0.014203847 0.040154494 -0.13979729
000360 dc 58 27 3e 99 57 83 3d d0 52 80 bd 9d 2a 9a bd
       0.16342491 0.06413192 -0.06265795 -0.07527659
000370 2c d9 fd bc 94 17 e7 bd 96 13 6f bd 19 43 de 3c
       -0.030987345 -0.11283794 -0.058368288 0.027131604
000380 e7 c7 47 3d 8e b8 fa 3d 5f 71 a3 3d e7 f5 3d 3d
       0.048774626 0.12242232 0.07980608 0.04637709
000390 fd 26 06 3d c9 c7 bd bc e7 c4 e0 3d ab 2d a2 3d
       0.032752026 -0.023166554 0.10975056 0.07918867
0003a0 76 9e 21 bd e9 56 89 3c e6 c7 fe 3d 13 55 c2 3d
       -0.03945776 0.016765075 0.12440471 0.09488883
0003b0 74 5e 97 3d 15 95 c5 bd bf f8 38 bd 4e fe 21 bd
       0.073910624 -0.09647576 -0.045159098 -0.039549164
0003c0 f8 7a b7 3d 8b 61 91 3d 8f 4f 16 3d 7b cc 81 3b
       0.08959001 0.07098683 0.036696967 0.0039611435
0003d0 6e d8 d1 3d 24 c7 ad 3d 30 b4 75 3d e3 bf 5e bc
       0.10246359 0.08485249 0.059986293 -0.013595554
0003e0 9a 96 2f be 68 10 38 bd 44 6a de bd e4 1a b6 bc
       -0.17147294 -0.04493752 -0.10860112 -0.02222962
0003f0 50 24 00 3d 2d 63 70 3d fa 5f 7f 3d 99 95 a2 3d
       0.03128463 0.05868833 0.06234739 0.0793869

bias f4 [64]
000000 cc d9 c5 bc a1 6c 83 3d 1f 5f 3d 3e 7e f0 2a 3d
       -0.024151705 0.06417204 0.18493317 0.041733257
000010 27 98 d6 3d fe ea ff bd f0 15 c5 ba fc 0d 12 3c
       0.104782395 -0.12495993 -0.0015036445 0.008914467
000020 27 f3 7b bd dd bf ac 3d 1a fe 14 3b ce 3b 23 3d
       -0.061511185 0.084350325 0.0022734464 0.039851956
000030 ec 23 0d 3e ad a2 f6 bc 93 27 4c 3d 33 7e 95 bd
       0.13783234 -0.030106867 0.04984243 -0.07299461
000040 22 e5 95 3d 9e fa 25 bd b3 c9 24 3d 2f 50 0a be
       0.07319094 -0.04052221 0.040231418 -0.1350715
000050 5f a9 2f bd 20 29 55 bd c8 9c 06 bd 5a 87 8d 3d
       -0.042886134 -0.052041173 -0.032864362 0.06910582
000060 30 ca 91 bc d1 06 17 3d ee 12 47 3d b2 53 ed bc
       -0.017796606 0.036871735 0.048602037 -0.028970573
000070 24 4c 95 3d 60 e5 fc b8 8d d1 fe bd ed fc 4c bd
       0.07289913 -0.00012059021 -0.124423124 -0.050045896
000080 71 b0 a1 3d aa 66 84 bc b5 f1 03 bd 20 43 3c bd
       0.07894982 -0.016162235 -0.03221293 -0.045962453
000090 21 fa 7e bd d7 ce 29 3d 2d 79 ab bd 4c 4f 89 3c
       -0.06225026 0.041457023 -0.08372722 0.016761445
0000a0 d6 d0 3e 3c b1 94 1e 3d db ca 6b 3b b6 22 a4 3d
       0.01164647 0.038716022 0.0035979066 0.08014433
0000b0 14 c3 05 be 2a 1e ee 3d 49 a4 1a 3d 21 c5 b6 3c
       -0.13062698 0.11626847 0.03775433 0.022310795
0000c0 ec 6e 89 3d d6 ce 72 3d bc 82 8b bd 29 a6 1e 3d
       0.0671061 0.059279285 -0.06812045 0.03873268
0000d0 13 bf a7 3b bf d3 aa 3d 3e 24 8e 3c 6d 7e 7d 3d
       0.0051192134 0.083411686 0.017351266 0.061888147
0000e0 a6 a2 10 3e 95 1b 67 bd 19 92 25 be a3 07 71 bd
       0.14124545 -0.05642279 -0.16169013 -0.058845174
0000f0 91 e2 25 3c 5d 0c 16 be f4 af 06 bd 3a e9 0c 3e
       0.010124818 -0.14653154 -0.032882646 0.13760844

weight f4 [64]
000000 ee f7 7d 3f d2 e5 86 3f f1 b5 88 3f 6a 5d 73 3f
       0.99206436 1.0538886 1.0680524 0.95064414
000010 02 3f 27 3f c5 53 96 3f da 36 8c 3f dd 50 68 3f
       0.6533052 1.1744314 1.0954239 0.9074839
000020 29 68 89 3f f0 11 84 3f 03 1e 63 3f 42 d4 81 3f
       1.0734912 1.0317974 0.8871767 1.0142901
000030 61 03 82 3f 96 cc 4f 3f 08 60 9a 3f 6e aa 3d 3f
       1.0157281 0.8117155 1.2060556 0.7408818
000040 33 c4 71 3f e4 ac 64 3f 43 37 32 3f c7 cb 86 3f
       0.9444 0.8932631 0.6961557 1.0530938
000050 c2 5e 88 3f d2 49 80 3f 7e 79 84 3f 11 b8 7e 3f
       1.0653918 1.0022528 1.0349576 0.99499613
000060 b5 fa 7b 3f 71 7f 83 3f b2 21 72 3f b0 6d 10 3f
       0.98429424 1.0273267 0.94582665 0.5641737
000070 a1 c6 82 3f 0e 0e 7f 3f 6c e2 98 3f 18 ab 8b 3f
       1.0216867 0.9963082 1.1944098 1.0911589
000080 39 9d 48 3f ba b8 76 3f de 17 81 3f 83 87 84 3f
       0.783649 0.9637562 1.0085409 1.0353855
000090 41 1b 7f 3f e3 bc 8b 3f 47 7d 8b 3f 96 18 81 3f
       0.9965096 1.0917019 1.0897607 1.0085628
0000a0 4b 46 5d 3f 66 50 84 3f 87 18 92 3f e5 a5 8e 3f
       0.86435384 1.0337036 1.1413735 1.1144377
0000b0 9b b8 69 3f e7 b8 96 3f cb 49 7f 3f 7a f9 35 3f
       0.9129731 1.1775178 0.99721974 0.71083796
0000c0 e8 4b 81 3f c3 c4 8e 3f 05 41 7c 3f 2a 65 99 3f
       1.010129 1.1153797 0.9853671 1.1983998
0000d0 32 52 7e 3f 61 aa 69 3f 47 aa 85 3f af a2 93 3f
       0.9934417 0.912756 1.044259 1.1534022
0000e0 06 40 6b 3f 99 49 82 3f f1 33 48 3f 30 4a 8e 3f
       0.91894567 1.017871 0.78204256 1.111639
0000f0 84 d0 69 3f 25 5b 5a 3f 3d 3c 81 3f 00 e9 77 3f
       0.91333795 0.85295326 1.0096508 0.96839905

bias f4 [64]
000000 be 93 5b be 29 a0 80 be 45 c5 23 be 2e d1 ec bd
       -0.21443078 -0.25122193 -0.15993221 -0.11563335
000010 b4 a8 08 bf 87 5c 29 be e2 68 8e be a9 39 a5 be
       -0.5338242 -0.16539203 -0.27814394 -0.32270554
000020 dd 78 89 be 57 45 3d be d4 c3 4d be 6c 5d ae be
       -0.26850024 -0.18483482 -0.20094234 -0.3405565
000030 f8 4f c1 be a0 19 a1 be 5e 12 bb be 01 1e 01 bf
       -0.37756324 -0.31464863 -0.3653745 -0.5043641
000040 b7 1f f7 bd 52 b8 d1 be a2 44 09 bf 15 b1 46 be
       -0.12066596 -0.40960938 -0.5362035 -0.19403489
000050 b4 a1 2d be 87 57 81 be d1 0e b4 bd 9b 10 31 be
       -0.16956216 -0.2526209 -0.087918885 -0.1729149
000060 d7 e5 05 bf fe c1 43 3d 06 cd ae be de 68 f1 be
       -0.5230383 0.047792427 -0.34140795 -0.4715032
000070 90 55 a5 be 95 20 8d be 26 9d c3 be ad e4 6f be
       -0.32291842 -0.2756392 -0.38205832 -0.23427077
000080 ba 13 af bc 4a ef 8b be 04 03 c7 bd 94 f9 ab bd
       -0.021371711 -0.27331 -0.09717372 -0.083972126
000090 45 fb 07 be ff b5 30 be 60 0f 95 be b2 fc 9b be
       -0.13279445 -0.17256926 -0.29113293 -0.3046623
0000a0 26 69 93 be 8d b3 a2 be 3e 30 87 bd 59 6a 39 bd
       -0.2879116 -0.3177761 -0.06600998 -0.045267437
0000b0 d9 8f 2e be c4 d0 88 be ca ec 4b be 44 23 d4 be
       -0.17047061 -0.26721776 -0.19914547 -0.41433156
0000c0 f5 d7 cd bd 89 ba 8f be 13 ec 66 be 5f 5a 7a be
       -0.10050956 -0.28072003 -0.22550993 -0.24448536
0000d0 d9 ab 3a be 5b c5 b0 be 95 39 83 bd 01 2f 6f be
       -0.18229617 -0.3452557 -0.06407467 -0.23357774
0000e0 cc b2 15 be 73 37 73 be 72 33 c6 be b9 9f 05 be
       -0.14618987 -0.23751621 -0.38711125 -0.1304921
0000f0 7a 60 b2 be 1d 8f a8 be d3 38 90 be 5c 2f d1 be
       -0.3483923 -0.32921687 -0.28168353 -0.40856445

running_mean f4 [64]
000000 36 68 9d bf ad f8 06 c0 a6 a0 e8 bf f7 b5 86 bf
       -1.2297428 -2.108928 -1.8174026 -1.0524281
000010 18 a5 ef 3e 14 fe 49 bf d5 bc 25 bf 88 10 10 bf
       0.46805644 -0.7890332 -0.6474126 -0.56275225
000020 a3 33 d0 bf 13 cf 50 bf 0d ea 0a c0 c5 aa bb bd
       -1.6265758 -0.8156597 -2.1705353 -0.09163431
000030 70 33 92 3f b6 85 ff bf e1 8b 29 c0 84 e1 0c bf
       1.1421947 -1.996268 -2.6491625 -0.5503161
000040 b4 8d 78 bd 74 be bb bf be 6a c0 3e 74 ce 00 c0
       -0.060682014 -1.4667497 0.37581438 -2.012601
000050 99 89 98 bf 36 f7 d9 bf 4d d4 fb be b1 74 ef be
       -1.1916991 -1.7028568 -0.4918541 -0.46768716
000060 eb 73 02 c0 76 db 09 c0 e3 03 d3 bf 3e 50 53 bf
       -2.038325 -2.1540198 -1.6485561 -0.82544315
000070 6a 30 b9 bf e5 ed c1 bf 34 a7 05 c0 dd d9 fc be
       -1.44679 -1.5150725 -2.0883303 -0.49384966
000080 34 62 a5 be 4a 19 96 bf 07 ad 2c c0 60 d6 0d c0
       -0.32301486 -1.1726468 -2.6980608 -2.2162094
000090 52 9c aa bf 2c d0 bf bf d9 dc 3b bf 82 f2 6d bf
       -1.3328955 -1.4985404 -0.7338386 -0.9294816
0000a0 74 43 fc bf df 1a 9d bf 97 c5 3b bf 13 06 ec bf
       -1.9708085 -1.2273825 -0.73348373 -1.8439354
0000b0 22 4c 45 3f d2 c1 30 bf f6 a8 16 c0 0b 40 d1 bf
       0.77069294 -0.69045746 -2.3540626 -1.6347669
0000c0 f0 7e a3 be ab 2b 7a c0 2e 53 4e bf 3b 67 89 bf
       -0.31932783 -3.9089153 -0.8059567 -1.0734628
0000d0 69 a5 c3 bf 19 34 23 bf 7a c1 0d bf 87 66 ad bf
       -1.5284854 -0.6375137 -0.55373347 -1.3546914
0000e0 f3 9f a0 bf 1f 5d 59 bf da 7d 8b bf f4 5a be bf
       -1.2548813 -0.84907717 -1.0897782 -1.4871507
0000f0 08 3a 34 bf 97 bd dc bf 8b 5b 0f c0 a6 a9 74 bf
       -0.7040105 -1.7245358 -2.2399623 -0.9557136

running_var f4 [64]
000000 e6 72 86 40 12 f6 8a 40 5e 11 27 40 c8 b1 97 40
       4.2015257 4.342538 2.610435 4.740452
000010 3c ac 2f 40 39 d7 85 40 98 64 91 40 ec 4d de 3f
       2.7448874 4.1825223 4.5435295 1.736753
000020 43 cf ba 40 d0 6d 99 40 94 56 9c 40 f9 f3 4b 40
       5.8378005 4.794655 4.8855686 3.186766
000030 b9 3c 4d 40 d1 8b 35 40 59 57 3d 40 95 43 ac 3f
       3.2068312 2.8366587 2.9584563 1.3458124
000040 27 cb fe 3f d7 29 1d 40 56 a3 18 40 0f 49 ad 40
       1.9905747 2.4556787 2.3849692 5.4151683
000050 14 ba ac 40 0d 2f 43 40 46 91 74 40 c3 1c 3d 40
       5.3977146 3.0497468 3.8213668 2.9548805
000060 3a 4e 1b 40 bd 24 58 40 36 3e 7e 40 4b 00 1e 40
       2.4266496 3.3772423 3.972547 2.468768
000070 3b 6f 62 40 99 f9 c6 40 83 08 c5 3f f3 7d 1c 40
       3.538039 6.2179685 1.5393223 2.4451873
000080 8d b3 52 40 af f5 37 40 7a 15 44 40 36 55 b3 40
       3.292209 2.8743703 3.0638108 5.6041517
000090 dc 51 62 40 19 05 63 40 34 52 7f 40 f2 17 5e 40
       3.5362463 3.5471861 3.9893923 3.4702115
0000a0 a3 d3 da 3f 7e 01 5c 40 2c d6 7f 40 ca 9d 3b 40
       1.7095836 3.437591 3.997447 2.9315057
0000b0 66 00 18 40 16 23 91 40 d0 a3 6c 40 88 8e cf 3f
       2.3750243 4.535533 3.6974983 1.6215372
0000c0 dd 6b 6f 40 4b 51 c3 40 c9 5f 7d 40 c3 12 9c 40
       3.7409585 6.1036735 3.9589713 4.8772902
0000d0 bb eb 91 40 ad 4b 5b 40 df e8 81 40 a8 7c 84 40
       4.5600257 3.426494 4.0596766 4.140217
0000e0 12 9a 99 40 36 01 36 40 ee 92 17 40 32 3b ad 40
       4.8000574 2.843824 2.3683429 5.413476
0000f0 2a c4 1d 40 01 73 b7 40 c8 fa 50 40 e1 77 1b 40
       2.465098 5.7327886 3.2653065 2.4291918

weight f4 [128, 64, 3, 3]
000000 d3 b6 cc bd 4c b9 14 3c 76 3e e1 bb 2e 95 35 3d
       -0.099958085 0.009077381 -0.006873901 0.044331722
000010 24 80 98 3d c0 c7 e1 3d 10 ec 03 3c b3 fd 2a 3a
       0.07446316 0.110244274 0.008051887 0.00065227895
000020 35 e3 02 bd a6 3c 6d 3c c7 de 9f 3d 04 c0 89 3d
       -0.031954963 0.014479792 0.07806163 0.06726077
000030 1f 05 b1 3c 2d cd 40 3c 30 dd 8c 3d 6c ec 2a 3c
       0.021608887 0.011767668 0.06878126 0.010432344
000040 1b d7 89 bd cf 03 87 bd 23 e4 ef bd b5 2a 17 bd
       -0.06730481 -0.06592523 -0.117134355 -0.036905963
000050 fe ed 9f bd f6 53 90 3d cd cf 04 3d 2c 14 a7 bc
       -0.07809065 0.07047264 0.032424737 -0.02039536
000060 e2 36 2c be 02 7b 82 bd 4a 5a 76 bd fe e0 c8 3d
       -0.16817811 -0.06371118 -0.0601447 0.09808539
000070 97 3f 8a bd 39 8a e9 bc 31 48 d3 bc 56 10 e7 3d
       -0.0675041 -0.028508293 -0.02579126 0.11282413
000080 b9 de da 3d 8e cf f3 bb ea 6f 3e 3d 09 bf db bc
       0.10687012 -0.007440514 0.04649345 -0.026824491
000090 a3 4c f2 bd 60 0f a8 bd b5 04 74 bd 07 0c d6 bd
       -0.118310235 -0.082060575 -0.0595748 -0.10451513
0000a0 b1 c8 45 bd 7d 93 d4 ba 4e 00 25 bd e5 cb 06 bd
       -0.048287097 -0.0016218271 -0.040283494 -0.032909293
0000b0 f2 f4 6f bd c2 89 aa 3b 79 96 00 3d b6 c9 7f 3d
       -0.058583207 0.0052044103 0.031393502 0.062448226
0000c0 f2 ec 8a bd f6 1f a7 ba d9 3f 55 bd 7c b7 07 be
       -0.06783475 -0.0012750614 -0.052062843 -0.13253587
0000d0 51 35 b3 bd 1c 64 64 bd 07 29 8c bc fb e8 94 3d
       -0.08750404 -0.055759534 -0.017109407 0.07271
0000e0 8a 58 15 3e 0a b6 bb bd f0 32 1a 3d 2f 90 1c bd
       0.14584556 -0.091655806 0.037646234 -0.03822344
0000f0 64 3b 11 be 02 54 7a be 6b 7c 5f bd 32 dd bf bd
       -0.14182812 -0.24446109 -0.054562014 -0.093683615
000100 fa 78 cb 3d 7b fd 87 bd 0b 22 d0 bd 76 70 12 bd
       0.09935184 -0.066401444 -0.10162743 -0.035751782
000110 e8 31 8d 3d f9 70 8c 3d cb b3 2a 3c 22 5f d2 bd
       0.068942845 0.06857485 0.010418843 -0.102720514
000120 65 8b 26 bd f6 64 2a bc 8e 02 60 bd 06 33 40 bd
       -0.04066028 -0.0104000475 -0.054689936 -0.04692366
000130 eb 18 d0 bd 35 37 c1 bd c0 88 aa bd 82 fe c9 bd
       -0.10161003 -0.09434358 -0.08326864 -0.09862997
000140 f4 08 79 bd 7b de 4f 3d c1 40 81 3d 64 31 c5 3d
       -0.060799554 0.050749283 0.06311179 0.09628561
000150 1f 55 4d 3c 96 29 5a 3d 35 f7 80 bd d2 1b 01 bd
       0.0125325015 0.053262316 -0.06297151 -0.031520672
000160 9e d2 67 bd 75 40 cc bb f8 36 c9 bd 3b b1 bf 3d
       -0.056597345 -0.00623327 -0.098249376 0.09359976
000170 7e 64 11 3d b9 ad 94 3c ff d1 4d bc c6 5b e1 3d
       0.035496227 0.018149244 -0.012562274 0.110038325
000180 c3 67 cc bd f4 02 9b bd 0a e7 19 bc 2c 17 07 be
       -0.099807285 -0.07568923 -0.009393463 -0.13192433
000190 2a 67 bc 3c d2 c3 00 3d d8 b6 8f bd 23 43 d7 bd
       0.022998411 0.03143675 -0.070172966 -0.10510852
0001a0 a9 6b 12 be bf fc d0 bc b4 ae eb bb 19 1b c7 3d
       -0.14298882 -0.025511144 -0.007192457 0.09721965
0001b0 fd e6 c0 bd b4 15 86 bd 9c 1b f2 3d 9e f7 0a be
       -0.094190575 -0.06547108 0.11821672 -0.13571021
0001c0 99 65 18 bd f4 a1 46 3d 8b b3 e2 bd 63 c1 f1 bd
       -0.037206266 0.048494294 -0.11069401 -0.11804464
0001d0 f1 67 f9 bc 02 ef f7 bc e4 e7 cd 3a 7e 1e 18 bd
       -0.030445071 -0.030265335 0.0015709368 -0.037138455
0001e0 d6 67 47 bd f2 65 95 3d bc 4f 9e bd 5c 9e bf bd
       -0.04868301 0.07294835 -0.07730052 -0.093563765
0001f0 e1 3e 0c be e3 4f 64 bd 5b 6f 1e bd f8 a2 2e 3d
       -0.13695861 -0.05574025 -0.038680416 0.042635888
000200 f3 d7 23 3c 71 e4 be bd 94 60 2d 3d 81 68 3b bd
       0.010000217 -0.093209155 0.042328432 -0.04575396
000210 45 fa f4 3d 75 43 31 3c 24 65 03 3d 21 f5 8a bd
       0.119617976 0.010819306 0.032078877 -0.06785036
000220 8d 1b 34 bd af 97 49 bd 15 53 8a bd c8 0e c2 bc
       -0.043971587 -0.049216922 -0.06754128 -0.023688689
000230 56 f5 91 bc 83 63 05 be b7 61 ad bd 79 c1 e5 bd
       -0.01781718 -0.13026242 -0.08465903 -0.112185426
000240 48 2e 42 bd 1b e8 92 bd 2f 02 92 bd 0b 4e 0d be
       -0.04740742 -0.07173177 -0.07129323 -0.13799302
000250 86 04 af bd dd fe 3b 3c d0 eb e2 bc 34 ec 86 bd
       -0.08545785 0.011474338 -0.027700335 -0.06588021
000260 88 be 06 3d 7a 17 0a be 88 4c 9e bc 5d f6 5a 3c
       0.03289655 -0.13485518 -0.019323602 0.013364402
000270 2e 07 4f bd 8a dd 2e 3d 21 37 09 bd 84 d7 a9 bd
       -0.050543956 0.042691745 -0.03349984 -0.082930595
000280 70 53 e5 bd dd 69 c0 bc 2d c7 0b be 39 54 b6 bc
       -0.11197555 -0.02348798 -0.13650198 -0.022256957
000290 64 b0 8a bd 4c e4 f3 3c f2 b0 89 bd 3f 09 b2 bd
       -0.06771925 0.029771946 -0.06723203 -0.0869317
0002a0 1c ea 20 bd 2b 10 16 be b2 8a aa 3c 8a 75 ce bc
       -0.039285764 -0.14654605 0.020818088 -0.025202531
0002b0 d8 83 32 3d 9b da 92 3a e7 15 b0 3d 34 7f 71 3d
       0.043582767 0.0011204066 0.085979275 0.0589592
0002c0 e8 47 57 3d 7a 61 bb bc 24 5d 41 bd aa fe a3 3d
       0.05255881 -0.022873629 -0.047207966 0.08007558
0002d0 70 26 df bc f8 8d 5e 3d 16 57 64 3d b5 98 35 3e
       -0.027240008 0.05433461 0.055747114 0.17734034
0002e0 be 7c 7d bd 9d 17 8e bd 9d 93 82 bb b7 6d 1f 3d
       -0.06188654 -0.069380976 -0.003984882 0.03892299
0002f0 58 b3 f2 3d e0 e5 22 be b9 3b 11 be b4 84 e4 bc
       0.11850613 -0.15908003 -0.14182939 -0.027895309
000300 80 f0 a1 bd 73 50 a8 bc 78 1d 10 3c ba 46 d1 bd
       -0.079072 -0.020546174 0.008796088 -0.10218568
000310 74 29 d0 3b 35 93 94 bd b3 c9 06 be af b0 0f be
       0.006352598 -0.0725464 -0.1316288 -0.14032243
000320 e5 85 ee 3d 12 88 b9 bd d4 d1 89 bc ec 10 65 3c
       0.11646632 -0.090591565 -0.016823687 0.013981085
000330 17 13 ce 3c 3e ce 44 bd 63 29 56 3d 05 d3 4b be
       0.025155587 -0.04804825 0.052285563 -0.19904716
000340 12 6a 41 3b 2b 6f ae bd 6a 17 b5 3c 7f e9 35 bc
       0.0029512686 -0.08517297 0.022105891 -0.011103033
000350 08 40 06 3e 6b 73 20 bd a1 96 8e bc 8f d0 d1 bd
       0.13110363 -0.03917257 -0.01740581 -0.102448575
000360 06 aa 54 be 3b 45 15 bc e4 14 04 bc a6 99 9e 3c
       -0.20767984 -0.009110744 -0.008061621 0.019360375
000370 e4 2b 05 3d 4b f0 25 3d ef f0 18 be 3c ac 51 be
       0.03251256 0.040512364 -0.14935659 -0.20475858
000380 6c 50 46 bd fa 48 0d be 3d 12 5a 3c 44 30 3c bc
       -0.04841654 -0.1379737 0.013310012 -0.011486117
000390 64 ac 7c bd 78 3e d1 bd ec b2 91 3d 28 2a 6e 3d
       -0.061687842 -0.10216993 0.07114205 0.058145672
0003a0 86 8e 03 bd e2 39 00 be c1 f6 38 3d c6 1e 4b 3d
       -0.032118343 -0.1252208 0.045157198 0.049589895
0003b0 e0 e7 f8 3c 09 b8 81 3b 5a e3 0c 3c 99 51 47 3b
       0.030384004 0.0039587063 0.008599127 0.0030413626
0003c0 ba d9 cf bd 38 5c 08 bb 50 9e a8 3d af 21 a4 bd
       -0.1014895 -0.002080692 0.08233321 -0.08014237
0003d0 61 b2 eb bd c2 7e 84 bd 6a 13 ff 3b cb 97 0f 3d
       -0.115086325 -0.0646949 0.0077842968 0.03505687
0003e0 8f b8 4d 3d 28 29 5d bd 81 48 d6 bd 08 7e 11 bd
       0.050224837 -0.053994328 -0.10463048 -0.035520583
0003f0 60 13 e2 bd 50 5c b3 bb 2f a8 d4 3d 79 00 80 3c
       -0.11038852 -0.005473651 0.10383641 0.015625225

bias f4 [128]
000000 37 4a da 3c d4 83 05 3c 30 57 46 3d 4a 33 47 bc
       0.026646717 0.008149106 0.048422992 -0.012158224
000010 71 16 0f 3d 2e 57 f7 bc 9b 37 4e bc 7a db 8e bc
       0.03493351 -0.030192938 -0.0125865 -0.017438639
000020 36 18 11 3d e8 fe 3b 3c 7a 75 71 bc 55 41 7f 3c
       0.03542348 0.011474349 -0.014737481 0.015579541
000030 f9 6e 6e 3b a6 04 9e bc 04 21 51 3d fd 5e a7 bc
       0.0036382063 -0.019289326 0.051056877 -0.020431036
000040 11 a9 4b bd f3 69 c9 3c 0a 2b a7 3c 36 4b 0f bd
       -0.04972178 0.024586653 0.020406265 -0.034983836
000050 b3 03 fc 3c 1f c0 da 3c 6d 9f 56 bc db d5 b7 bc
       0.030763483 0.026702939 -0.0130995335 -0.022440841
000060 f5 26 ff bc 69 d9 47 3d e0 80 36 bb 2f 58 dd b8
       -0.031146506 0.048791323 -0.0027847812 -0.00010554527
000070 d7 67 08 bd 35 a6 15 bd a1 fb 83 bc 39 35 61 3a
       -0.033302154 -0.03653546 -0.016111197 0.00085909996
000080 0e c3 3e 3c b3 6f b3 3c db a0 a8 3c da 41 14 3d
       0.011643184 0.021903848 0.020584514 0.036195613
000090 a6 29 cd bc 04 7a 86 3c 81 1f ab bb 2a 2a 0f 3d
       -0.025044274 0.016415603 -0.0052222614 0.03495232
0000a0 6f 81 15 bc e9 ec 90 bc 7a 5e 24 3d 42 ca cb 3b
       -0.009125098 -0.017691093 0.040129162 0.0062191794
0000b0 82 85 19 bd a3 f8 c8 bc f3 f2 61 bb f0 87 99 ba
       -0.03748084 -0.024532622 -0.0034477084 -0.0011713486
0000c0 cd c4 cf 3c 53 eb d7 3c bb 9b 51 bc 5e af 87 3b
       0.025362397 0.026357329 -0.012793477 0.0041407784
0000d0 07 2e e3 bc f5 d0 33 3c fb b3 32 bd f0 85 3b bc
       -0.027731908 0.010975112 -0.043628674 -0.011445507
0000e0 86 d0 ae bc 99 41 b3 bc 53 ce fb 3c ed 59 54 bd
       -0.021339666 -0.021881865 0.030738031 -0.051843572
0000f0 e0 08 05 3d 3d 95 c4 bc 7b 64 0e bd f9 bd 87 bc
       0.032479167 -0.023996944 -0.034763794 -0.016570078
000100 d0 84 65 bc f2 e1 82 bc 1b 68 b3 3b ed 4e 13 3b
       -0.014008716 -0.01597688 0.005475057 0.0022477463
000110 06 bd 00 bc 34 4f ab bc 01 67 c1 3b 23 cd 0f 3c
       -0.007857567 -0.02091179 0.0059021716 0.008776936
000120 13 03 3a 3d a7 2c ae 3c 57 6e 0a 3d f1 4d 38 bd
       0.045413088 0.021261526 0.033796635 -0.044996206
000130 e3 70 73 3b 16 02 1e 3c 6f c8 99 3c 78 94 96 3c
       0.0037146143 0.009644052 0.018772332 0.018381342
000140 ea 70 00 bd 43 e1 22 bd a1 b0 fe 3c 09 54 06 3d
       -0.031357683 -0.039765608 0.031090083 0.032794986
000150 88 16 8f 3c a6 09 02 bd e2 5d 9a bb be c5 56 bc
       0.017466798 -0.031747483 -0.0047108987 -0.013108669
000160 be da 90 3c e5 da db 3c 6a 2f cb 3c 45 95 ec ba
       0.01768243 0.026837775 0.024802882 -0.0018049857
000170 30 b2 a9 bc c5 ae c0 bb a6 33 bd bc 1b a8 44 bb
       -0.02071485 -0.005880209 -0.023095917 -0.0030007425
000180 92 44 f8 bb 41 64 e3 3c 50 2a e3 3c 52 78 87 3c
       -0.0075765336 0.027757766 0.027730137 0.016536865
000190 bb 99 16 3d f6 f0 8a bb 7f 2c a3 bc 9b 99 f4 bc
       0.036767703 -0.0042401506 -0.019918678 -0.029858401
0001a0 c3 87 40 bc c7 6f a6 bc c1 a8 fd 3c eb 6e 1e bd
       -0.011751118 -0.020316971 0.030964257 -0.03868
0001b0 f3 6e af 3b 2c 51 dd bc 3b 2c 81 ba 93 1d 9e 3a
       0.0053538023 -0.027016245 -0.0009855101 0.0012063257
0001c0 f8 e8 be ba 31 80 91 bc 04 12 82 bb 9a ed e8 3a
       -0.001456528 -0.017761322 -0.003969433 0.0017771006
0001d0 da fa c4 3c fe 7a 0e 3d 48 65 ec 3c c4 ef 06 bd
       0.024045397 0.034785263 0.028856888 -0.032943502
0001e0 d4 84 f0 3c b3 c5 86 bc ba 89 1e 3c 9c 4b 82 bb
       0.029360212 -0.016451692 0.009676391 -0.0039762985
0001f0 2c 4f 04 bc 94 90 1e 3c 2d ee e6 3b 07 f4 47 bc
       -0.008075517 0.009678025 0.0070474357 -0.012204177

weight f4 [128]
000000 09 3d 56 3f d4 03 29 3f 6f 36 54 3f d1 0b 88 3f
       0.8368688 0.66021466 0.8289556 1.0628606
000010 c1 96 83 3f 34 00 62 3f 07 e7 89 3f 73 ac 61 3f
       1.0280381 0.8828156 1.0773629 0.8815376
000020 66 e6 98 3f 15 3e 61 3f 4d d8 5e 3f 50 bc 48 3f
       1.1945312 0.87985355 0.870488 0.7841234
000030 9a ce 67 3f 88 79 72 3f a3 ea 9d 3f 9e 3d 76 3f
       0.90549624 0.9471669 1.233723 0.9618777
000040 bb 92 82 3f a0 0f 8c 3f 1d 82 62 3f c0 27 96 3f
       1.0201029 1.0942268 0.8847979 1.1730881
000050 3f 21 5d 3f 85 75 86 3f 98 35 6f 3f 82 ec 57 3f
       0.86378855 1.0504614 0.9344115 0.8434526
000060 16 bb 89 3f 54 9c 8c 3f 14 97 9c 3f 82 69 7c 3f
       1.0760219 1.0985208 1.2233605 0.9859849
000070 9a 9c 66 3f 4f a4 69 3f 0f 61 ae 3f be 5a 62 3f
       0.90082705 0.9126634 1.362337 0.8841971
000080 0d ea 68 3f b4 6a 4b 3f dd b8 6f 3f fe 77 98 3f
       0.90982133 0.7945969 0.93641454 1.1911619
000090 53 98 96 3f c1 c4 8c 3f 24 9a 52 3f d6 f9 42 3f
       1.1765236 1.0997545 0.8226645 0.7616247
0000a0 51 df 62 3f 6a 56 83 3f d2 9b 6c 3f 81 eb b3 3f
       0.88622004 1.0260746 0.9242526 1.4056245
0000b0 97 52 95 3f 8f b5 9a 3f 84 ab 50 3f 4d 12 80 3f
       1.166583 1.2086657 0.8151171 1.0005585
0000c0 1f e6 48 3f 8d 5d 81 3f ff 43 44 3f 8d 49 82 3f
       0.78476137 1.0106674 0.76666254 1.0178696
0000d0 27 cc 8e 3f ae da 6d 3f a9 be 68 3f 04 38 6e 3f
       1.1156052 0.92911804 0.90915924 0.93054223
0000e0 91 2e 90 3f bb fb 5b 3f 1c 14 45 3f a0 82 7a 3f
       1.1264211 0.85930985 0.7698381 0.9785557
0000f0 59 5b 61 3f b0 93 4d 3f 06 3c 86 3f ef 2d 69 3f
       0.8803001 0.8030348 1.0487068 0.91085714
000100 ad 21 61 3f 0b 84 6f 3f 67 22 85 3f 64 04 41 3f
       0.8794201 0.93560857 1.0401124 0.75397325
000110 b7 90 8b 3f 6a c0 5c 3f a9 52 9f 3f 3b e1 6a 3f
       1.0903538 0.862311 1.2447101 0.91749924
000120 8a 95 3b 3f bc 10 48 3f 08 39 b0 3f 97 14 55 3f
       0.73275054 0.78150535 1.3767405 0.8323454
000130 e9 85 33 3f dc 0f 81 3f fd b6 80 3f d4 1d 1c 3f
       0.70126206 1.0082965 1.0055844 0.60983014
000140 51 1e 46 3f 57 a2 34 3f 66 c1 64 3f c7 38 70 3f
       0.7739001 0.7056021 0.893576 0.93836635
000150 a7 2f 71 3f e9 3d 85 3f 7e 1d 66 3f 21 88 59 3f
       0.94213337 1.0409518 0.8988875 0.8497334
000160 ca 26 73 3f e3 2f 80 3f ac 13 8a 3f 4c b7 84 3f
       0.9498106 1.0014614 1.0787253 1.0368438
000170 5a d3 8d 3f a9 c3 58 3f 81 82 85 3f e9 72 8a 3f
       1.1080124 0.84673554 1.0430452 1.0816318
000180 6b bf 70 3f da 53 85 3f 9f 94 62 3f 14 4c 3a 3f
       0.9404208 1.0416214 0.8850803 0.72772336
000190 61 02 4b 3f cf 03 50 3f 8b e1 b3 3f 0b 62 a7 3f
       0.79300505 0.8125581 1.4053205 1.3076795
0001a0 c0 fd 57 3f 3b 75 53 3f 65 f8 75 3f 47 49 62 3f
       0.84371567 0.82600754 0.96082145 0.8839306
0001b0 b0 90 86 3f 8d 2e 68 3f df 70 85 3f 2e d5 3f 3f
       1.0512905 0.9069603 1.042507 0.7493466
0001c0 24 e2 64 3f d7 58 6d 3f 34 fd 90 3f ab 52 60 3f
       0.89407563 0.92713684 1.1327271 0.8762614
0001d0 89 2a 5e 3f 3a ba 89 3f 5b 9f 9d 3f f1 7b 4c 3f
       0.86783653 1.0759957 1.2314256 0.7987662
0001e0 8b 6c 75 3f 5a e7 65 3f 98 03 73 3f b8 d2 7d 3f
       0.9586875 0.8980614 0.9492736 0.99149656
0001f0 0d b5 b9 3f 5e d4 72 3f 95 5c 61 3f f0 cc 53 3f
       1.4508377 0.94855297 0.88031894 0.82734585

bias f4 [128]
000000 77 1b 9e bd c8 19 18 be 58 25 38 be f0 51 c6 be
       -0.07720082 -0.14853585 -0.17982996 -0.38734388
000010 ac 69 0f be 88 3f 2e 3d 87 e5 55 be 63 52 aa bc
       -0.14005154 0.042541057 -0.20888339 -0.020791238
000020 08 c0 40 be 00 70 08 be cf 00 37 be 96 07 35 be
       -0.18823254 -0.13323975 -0.17871402 -0.17678675
000030 fb e5 10 be 7d 97 48 3d 42 f8 24 be 6c 28 65 bd
       -0.1415023 0.048972595 -0.16110328 -0.055946752
000040 95 a7 d2 bd 9f 5b 42 be 8b a5 d1 bd b4 a6 e6 bd
       -0.1028587 -0.18980263 -0.10236653 -0.11262265
000050 17 4c 55 3e 75 b6 94 bd 16 72 9d 3b cf 31 f8 bd
       0.20829807 -0.072613634 0.00480486 -0.12118875
000060 ba 7f 28 be e0 0c a7 be 99 2c 91 be 74 dd b7 bd
       -0.16454974 -0.3262701 -0.28354338 -0.08977786
000070 57 75 9e 3d 75 7e 8c be 2d 9c 4a be 4a c5 ae bd
       0.077372245 -0.2744023 -0.19786139 -0.08533724
000080 9a ad ba bd 31 bf 1d be 13 24 3e be c8 b7 49 be
       -0.09115143 -0.15404965 -0.18568449 -0.19699013
000090 30 5f 90 be 9a 32 87 be 19 4b 29 be 99 f7 1b 3e
       -0.28197622 -0.26405793 -0.16532554 0.1523117
0000a0 dd 63 3e be eb 1c 75 be 1c 3c 61 bd 85 a8 63 be
       -0.18592782 -0.23936813 -0.054988965 -0.22232254
0000b0 d5 58 bf be 26 f6 8d be c8 aa 47 be ba 68 c5 bd
       -0.3737246 -0.2772686 -0.19498742 -0.09639116
0000c0 d5 a3 01 be 4e 12 58 3e 11 f5 2b be 89 93 a5 be
       -0.12660153 0.21100733 -0.16792704 -0.32339123
0000d0 78 d4 d9 be ac 91 72 3d 45 4f 45 be ba b7 cb bd
       -0.42544913 0.059220955 -0.1926852 -0.099471524
0000e0 b9 09 6d be f0 4c 1f be 8f 75 f3 bc 6a 38 9d be
       -0.2314824 -0.15556693 -0.029719142 -0.30707103
0000f0 0e 2e 09 be 1f bb 2a be 60 56 5f be 9d 18 62 bd
       -0.13396475 -0.16672944 -0.21810293 -0.055199254
000100 49 35 79 be 95 7d a8 be d8 1c ad be ca 27 f6 bd
       -0.24336733 -0.3290831 -0.3381107 -0.12019308
000110 e6 66 98 be 0f 56 87 bd c5 90 81 be dc 75 27 be
       -0.29766005 -0.06608211 -0.25305763 -0.16353554
000120 18 17 17 be 93 59 2c be 31 fc 95 be 7f 93 d2 bd
       -0.14754903 -0.16831045 -0.2929397 -0.10282039
000130 aa f6 c0 bd 90 86 0a be b1 ab 64 be 81 c0 24 be
       -0.094220474 -0.13527894 -0.2233112 -0.1608906
000140 31 f4 1c 3c 64 39 a2 bd b5 0f be bd e6 c7 26 bd
       0.009579704 -0.07921103 -0.0928034 -0.04071798
000150 56 b7 89 be 1e 28 3e be 60 f3 aa bd 21 d3 2a be
       -0.26897687 -0.18569991 -0.08347201 -0.16682102
000160 67 0c 58 be 43 f4 3b be cf 72 65 bd 45 47 58 bd
       -0.21098481 -0.18354897 -0.056017693 -0.052802343
000170 a2 3b da bd c5 62 17 be 1b eb 04 be 99 0c a7 bd
       -0.10655905 -0.14783771 -0.1298031 -0.081567
000180 67 33 b9 bd 0e 6a 99 bd e1 98 bb be fd 9d 28 be
       -0.09043007 -0.074909315 -0.36640075 -0.16466518
000190 0b 77 4a be e4 1c 1e be 3c d0 9b be d6 1b f4 be
       -0.19771974 -0.15440708 -0.30432308 -0.47677487
0001a0 5b b7 49 be 5b 48 f6 bc 3c 38 65 be 0f 65 21 be
       -0.19698851 -0.030063799 -0.22384733 -0.15761207
0001b0 43 b2 0f be 70 03 8d be 6d c2 56 be ed 78 ef bd
       -0.14032845 -0.27541685 -0.20972605 -0.11692987
0001c0 7a ce f6 bd fa 03 24 be 9f ac 77 be 35 56 4d be
       -0.12051101 -0.16017142 -0.24186943 -0.20052417
0001d0 70 9d aa bd a4 01 40 be 79 f2 8f be 69 ee 9d bd
       -0.0833081 -0.18750626 -0.2811468 -0.07711489
0001e0 12 82 9e be ac b4 12 be 24 48 12 bd 10 45 90 bd
       -0.3095861 -0.14326733 -0.03571333 -0.070444226
0001f0 04 7d 0f be 54 98 14 be 52 b4 b9 bd f0 50 7d be
       -0.14012533 -0.14511234 -0.090675965 -0.24737906

running_mean f4 [128]
000000 d7 f4 86 c0 a4 8c 5c 40 a2 36 4a bf 0e 2c 16 c0
       -4.2173877 3.446084 -0.78989613 -2.346439
000010 71 de 6b c0 1b 65 73 bf a4 4f 90 c0 4d 1b cd bf
       -3.6854517 -0.9507615 -4.5097218 -1.6023957
000020 08 3c dd bf aa 3f 00 bf 26 6d e9 3e 81 3a 81 bf
       -1.7283945 -0.50097144 0.45591086 -1.0095979
000030 6f 48 7f c0 b4 78 23 bf e3 ee 33 c0 db 32 87 c0
       -3.988796 -0.63856053 -2.8114555 -4.224958
000040 5c a3 9d c0 23 dc 7b c0 ff da bb bf 7a 69 08 c0
       -4.9261913 -3.935311 -1.4676207 -2.1314378
000050 47 58 c3 3f c9 d3 33 c0 13 f9 19 bf c3 19 3b bf
       1.5261315 -2.8098013 -0.6014568 -0.73086184
000060 d1 ba 0f c0 ed 93 7d be ff cc 6d c0 2f e4 a4 bf
       -2.2457774 -0.2476346 -3.715637 -1.2882136
000070 35 d7 83 40 39 33 36 bf 6b e3 75 c0 83 7c e6 be
       4.1200204 -0.7117191 -3.8420055 -0.4501687
000080 19 70 44 c0 2b a5 81 be bd 28 b6 3f e9 e1 14 c0
       -3.069342 -0.25321326 1.4231182 -2.3262885
000090 c7 17 16 c0 48 32 e6 3c 68 22 cd bf 3b 4f f2 be
       -2.3452013 0.028100148 -1.6026125 -0.47326073
0000a0 8e a9 4e c0 78 4a 52 c0 13 da 49 bf 65 ee ad c0
       -3.2290988 -3.2857952 -0.7884838 -5.435351
0000b0 47 29 68 c0 23 06 5b c0 bc f9 67 c0 e9 a4 21 bf
       -3.6275194 -3.4222496 -3.6246176 -0.6314226
0000c0 e3 1d 30 3f 93 95 14 40 3d 3a c5 c0 00 29 84 c0
       0.68795604 2.3216293 -6.163359 -4.130005
0000d0 8c 55 1c c0 8d 6f 11 3f a2 dc 00 c0 88 14 28 be
       -2.4427214 0.5681084 -2.0134664 -0.16414082
0000e0 7a 5d 23 c0 76 8a 80 3e 4e aa 45 be 96 3f 54 c0
       -2.5525804 0.25105637 -0.19303247 -3.316381
0000f0 22 3e 24 3f c5 44 37 c0 08 a6 36 c0 56 97 e3 be
       0.6415731 -2.8635724 -2.8538837 -0.44451398
000100 30 f9 46 3f 09 61 90 c0 37 b2 02 3e 1d 51 8e c0
       0.7772398 -4.511845 0.12763296 -4.4474015
000110 88 25 6d c0 6f 50 1a c0 da 64 3c c0 a8 a7 21 c0
       -3.7054157 -2.4111593 -2.9436555 -2.525858
000120 9a e1 40 40 fa 6f 09 3f ff bb 25 bf e3 7e 02 c0
       3.0137696 0.5368649 -0.64739984 -2.0389946
000130 d8 b4 8d bf 51 b3 72 c0 ec ce 14 c0 9f d6 0b 40
       -1.1070814 -3.7921946 -2.3251295 2.1849744
000140 99 a0 02 c0 e7 e1 b0 bf df 9b 1b bc f7 5e 7e c0
       -2.041052 -1.381894 -0.009497612 -3.9745462
000150 7a 47 b7 bf 91 0b 3d c0 0c 47 8f bf 14 9b 06 c0
       -1.4318688 -2.953831 -1.1193557 -2.1032152
000160 c2 09 2b be bb c5 a4 be 53 c1 43 c0 69 c6 37 c0
       -0.16702941 -0.32182106 -3.0586746 -2.871485
000170 50 86 f0 be 90 2c 6c 3f 91 42 90 bf 3e 48 4a c0
       -0.46977472 0.92255497 -1.1270314 -3.1606593
000180 f0 cf 9c c0 0d 12 89 c0 b9 6f c9 be e4 c6 11 40
       -4.900383 -4.2834535 -0.3934305 2.2777643
000190 d9 36 f9 bf d4 c8 b1 3f 64 51 19 c0 e7 51 33 c0
       -1.9469863 1.3889413 -2.3955927 -2.801874
0001a0 34 d3 ec be 83 ea 67 c0 9c a1 ed bf 3f 8c 47 be
       -0.46254885 -3.6236885 -1.8564944 -0.19487093
0001b0 15 7b ec bd ae 27 df bf 64 a0 06 c0 6e 58 87 3f
       -0.115469135 -1.7433984 -2.1035395 1.0573862
0001c0 8b 0d 31 3d 6c c1 c3 bf 25 ee 69 c0 33 9e 74 bf
       0.043225806 -1.5293403 -3.6551602 -0.9555389
0001d0 65 a5 20 3f cf 59 36 c0 3d 01 5c c0 fe dc ab bf
       0.6275237 -2.8492315 -3.4375756 -1.3426816
0001e0 6b d4 00 c0 36 c6 94 bc f9 44 94 c0 7e ae 6d c0
       -2.012965 -0.01816092 -4.6334195 -3.7137752
0001f0 f5 d7 3f c0 a0 81 9d bf 68 1b d1 be 36 79 a6 bf
       -2.997556 -1.2305183 -0.40841222 -1.3005741
