project_2/part_2/models/saved/magda_mnist_big.pt (torch, 94776 bytes, 8 tensors)

weight f4 [8, 1, 5, 5]
0	0x3e6ec896	0.23318705
1	0x3e93e399	0.2888458
2	0xbd8d44f2	-0.06897916
3	0x3e654725	0.2239042
4	0xbd885004	-0.06655887
5	0x3d23a798	0.03995475
6	0x3cddb536	0.027063947
7	0x3e1e8939	0.15482034
8	0x3e95dabf	0.29268453
9	0xbdbe5338	-0.092932165
10	0x3e3621c3	0.17786317
11	0x3e14078e	0.14456007
12	0x3e294cac	0.16533154
13	0x3e36923d	0.17829223
14	0x3e9b3ae9	0.30318382
15	0xbe0a8643	-0.1352778
16	0x3e285f24	0.16442543
17	0xbd9065d1	-0.0705067
18	0xbd679f2c	-0.056548283
19	0x3e42b77a	0.19015303
20	0xbe896858	-0.2683742
21	0xbdea8675	-0.11451427
22	0xbe4e373c	-0.20138258
23	0x3d9a7a8b	0.075429045
24	0xbe54cf61	-0.20782234
25	0xbe36efa7	-0.17864858
26	0xbe0698d5	-0.13144238
27	0xbe0006b2	-0.12502554
28	0xbd8e2476	-0.06940548
29	0xbedfdb78	-0.4372213
30	0x3e4d7c50	0.20066953
31	0xbe179eaf	-0.14806627
32	0x3e6aa584	0.22914702
33	0xbe256273	-0.16150837
34	0xbed6a794	-0.41924727
35	0x3e924a45	0.28572288
36	0x3e8267c0	0.2546978
37	0x3ed19112	0.40930992
38	0x3dba18c2	0.090867534
39	0xbd8bf776	-0.06834309
40	0x3d7da34f	0.06192332
41	0x3ca40c46	0.020025384
42	0x3e9adb12	0.30245262
43	0x3ed81aa3	0.42207822
44	0x3ea78ba1	0.32723716
45	0xbe753fa2	-0.23950055
46	0x3daaa2be	0.08331822
47	0x3cd350ce	0.025795367
48	0x3e7dc288	0.24781239
49	0x3d7120fe	0.058869354
50	0xbe71a685	-0.23598678
51	0xbda31e17	-0.079647236
52	0xbe09f16e	-0.13471004
53	0x3eb2d7f4	0.34930384
54	0x3e77f22e	0.24213478
55	0x3e2ee29a	0.17078629
56	0x3e9fa3b2	0.31179577
57	0x3e89c6bf	0.26909444
58	0x3edba726	0.42900962
59	0x3cf7f805	0.030269632
60	0x3c06f300	0.008236647
61	0x3d9d1c04	0.07671359
62	0x3e87085a	0.2637356
63	0xbc9dd117	-0.01926474
64	0xbca85c7c	-0.020551912
65	0xbd94aac8	-0.072591364
66	0x3eab62e5	0.33473888
67	0xbd941a9b	-0.07231637
68	0xbebc6569	-0.3679612
69	0xbf0b7f18	-0.54490805
70	0x3e240ac1	0.16019727
71	0x3e28dbaf	0.16490053
72	0x3db5fa37	0.08885615
73	0xbf00ce45	-0.5031474
74	0xbf0d007b	-0.5507886
75	0xbeb1f3b7	-0.34756252
76	0xbed06b02	-0.4070664
77	0x3ce267d4	0.0276374
78	0x3e491fea	0.1964108
79	0x3eae0b50	0.33993006
80	0xbeb395e7	-0.35075304
81	0xbe1fb056	-0.1559461
82	0x3e9a2722	0.3010798
83	0x3e6b399e	0.22971198
84	0x3ebbbde9	0.36668327
85	0xbe319242	-0.17340949
86	0x3e70c362	0.23512033
87	0x3e391c1d	0.1807713
88	0x3e4ee1f8	0.20203388
89	0x3e0ea53b	0.13930218
90	0xbd0e82cc	-0.034792706
91	0x3d3ace2c	0.045606777
92	0x3e9af7c8	0.30267167
93	0x3e6c191f	0.23056458
94	0xbe995b11	-0.2995229
95	0xbe21c3e4	-0.15797383
96	0x3e3d46b5	0.18484004
97	0xbd91a8a2	-0.07112242
98	0xbe8c6b2f	-0.27425525
99	0xbf29075b	-0.6602685
100	0x3c681e94	0.014167447
101	0x3e909db4	0.28245318
102	0x3e368574	0.17824346
103	0xbde08205	-0.10962299
104	0xbe1469a9	-0.14493431
105	0x3e19d539	0.15022744
106	0x3e4e8ce0	0.20170927
107	0x3e0ef3c4	0.13960177
108	0xbe883008	-0.26599145
109	0xbec48416	-0.38382024
110	0x3ec37ae2	0.3817969
111	0x3ebf3603	0.37345895
112	0x3e53c24d	0.20679589
113	0xbed61a78	-0.4181707
114	0xbeee68ba	-0.46564275
115	0x3e149a17	0.14511906
116	0x3edd0847	0.43170378
117	0x3d85ba08	0.06529623
118	0xbe5b1605	-0.21395119
119	0xbeb127d3	-0.34600696
120	0x3e56003b	0.20898525
121	0x3eaf1d9d	0.3420228
122	0x3ea4f749	0.32219914
123	0xbca8b836	-0.020595651
124	0xbe114093	-0.1418479
125	0xbea8ae41	-0.32945445
126	0xbe94abb5	-0.29037252
127	0xbf00ae98	-0.5026641
128	0xbc94ed1e	-0.018179473
129	0x3c553472	0.013012992
130	0xbe801d46	-0.25022334
131	0xbedaf6d0	-0.42766428
132	0xbed6c25c	-0.4194516
133	0x3e234104	0.1594277
134	0x3d9702e8	0.07373601
135	0xbe74594e	-0.23862192
136	0xbe99ea49	-0.30061558
137	0xbcc5c5a8	-0.024142101
138	0x3eaaccd2	0.3335939
139	0x3dcfba7f	0.10142993
140	0x3e7d5f96	0.24743494
141	0x3e0ee504	0.1395455
142	0x3f0137f1	0.50475985
143	0x3e31ec1d	0.17375226
144	0x3da94e43	0.0826688
145	0x3eb955e3	0.3619834
146	0x3efd8213	0.495133
147	0x3ee179b8	0.44038177
148	0x3ec94e85	0.39317718
149	0x3cd5e428	0.02610977
150	0x3db82947	0.08992248
151	0xbd9bf29e	-0.07614635
152	0xbe1b0784	-0.15139586
153	0xbea580ae	-0.32324737
154	0x3d8ba568	0.06818658
155	0xbda88463	-0.08228376
156	0x3eb6fb32	0.35738522
157	0x3dfa3571	0.122172244
158	0x3c41dda1	0.011832626
159	0xbe26a44f	-0.16273616
160	0x3eba51fa	0.36390668
161	0x3ed74eed	0.42052403
162	0x3ea3dc24	0.3200389
163	0xbd1c16fd	-0.03810786
164	0x3e893688	0.26799417
165	0xbe3c2c20	-0.18376207
166	0xbc71bd4e	-0.014754606
167	0x3ee3362c	0.44377267
168	0x3e1d4224	0.15357262
169	0xbd21dabb	-0.03951524
170	0xbed8df2d	-0.4235777
171	0xbdde9314	-0.10867897
172	0x3e52207a	0.20520201
173	0xbd216890	-0.03940636
174	0xbe4c60bb	-0.19958775
175	0xbe3a8591	-0.18215014
176	0xbdc332f2	-0.095312014
177	0x3e4bb484	0.1989308
178	0x3e33e857	0.175691
179	0xbeaa5014	-0.3326422
180	0x3ddfc33d	0.109259106
181	0x3ec1f695	0.3788344
182	0x3ea75eef	0.32689616
183	0xbdff9467	-0.124794774
184	0xbdabdfb8	-0.0839228
185	0x3dae0166	0.084963605
186	0x3e3efdf1	0.18651558
187	0x3e010454	0.12599307
188	0xbe249ee3	-0.16076235
189	0xbdfa0c38	-0.12209362
190	0xbe828c3d	-0.25497618
191	0xbd8be16e	-0.06830107
192	0x3eaf4afa	0.3423689
193	0x3ebc33fe	0.36758417
194	0x3ddcde4e	0.10784589
195	0xbe16bfd9	-0.14721622
196	0x3dc119db	0.0942876
197	0x3dba0e56	0.090847656
198	0x3e3e9ff5	0.18615706
199	0x3e025b3c	0.12730116

bias f4 [8]
0	0xba27f7e9	-0.0006407486
1	0x3be107e2	0.006867395
2	0x3d2b41d1	0.041810814
3	0x3b83c99c	0.0040218364
4	0xbac413b2	-0.0014959483
5	0x3d12cf9a	0.035842516
6	0x3aa3d3b1	0.0012499002
7	0x3b1466bb	0.002264424

weight f4 [16, 8, 5, 5]
0	0xbe04226f	-0.1290376
1	0xbaa190cb	-0.0012326477
2	0x3d2e04f5	0.042485196
3	0xba8b6904	-0.0010636155
4	0xbde09b7d	-0.10967157
5	0xbd229b40	-0.03969884
6	0x3d5778ca	0.052605428
7	0x3e546d99	0.20744933
8	0x3e06e1dd	0.13172098
9	0x3cd54aac	0.026036583
10	0x3b43c5c9	0.0029872528
11	0xbcaa1ebd	-0.02076661
12	0x3e0472fc	0.12934488
13	0x3e7b7405	0.24555977
14	0x3da1c2e1	0.07898498
15	0xbdd64a91	-0.10463441
16	0xbe948b4d	-0.29012528
17	0xbe26520f	-0.1624224
18	0x3d53043c	0.05151771
19	0x3d626113	0.05526836
20	0x3cf4cf27	0.029883934
21	0xbd9d1a74	-0.07671061
22	0xbe33b81a	-0.17550698
23	0xbcd0a156	-0.025467556
24	0xbc115de6	-0.008872485
25	0xbcfbacdb	-0.030722072
26	0xbce6a250	-0.028153569
27	0x3d882576	0.0664777
28	0x3d4eb90f	0.050469454
29	0xbdd0d658	-0.10197133
30	0xbda9421a	-0.08264561
31	0xbd2007b9	-0.039069865
32	0x3e999201	0.29994205
33	0x3e8248bf	0.25446126
34	0x3de028b9	0.10945267
35	0xbe20d990	-0.15707994
36	0xbe1c03fa	-0.15235892
37	0xbde79b0b	-0.11308869
38	0x3e13c2b8	0.14429748
39	0x3e25f861	0.1620803
40	0x3deb39f2	0.114856616
41	0x3d5a1146	0.05323913
42	0xbe56b89c	-0.2096886
43	0xbe141788	-0.14462101
44	0xbdae3644	-0.08506444
45	0x3e33c144	0.17554194
46	0x3dc6e1d1	0.0971104
47	0xbda89cf8	-0.082330644
48	0xbd118fe7	-0.035537627
49	0xbdc83733	-0.097761534
50	0x3b6f3c62	0.0036504497
51	0xbd98bd52	-0.07457985
52	0x3d98033b	0.07422491
53	0x3df874fd	0.12131689
54	0x3d652783	0.055945884
55	0xbcaae360	-0.020860374
56	0x3d0a4f68	0.033767134
57	0xbd594067	-0.053039934
58	0x3d5c745a	0.0538219
59	0x3d2de910	0.042458594
60	0xbd4f411c	-0.050599203
61	0xbd4c75c7	-0.04991701
62	0x3c9be261	0.019028844
63	0xbe62c226	-0.22144374
64	0x3df61d82	0.12017347
65	0xbd5eac8f	-0.054363783
66	0xbd81fe86	-0.063473746
67	0xbdeb0621	-0.11475778
68	0xbd8c64c1	-0.06855155
69	0x3d1d09d0	0.038339436
70	0x3e5c5350	0.21516156
71	0x3e2550e7	0.16144143
72	0x3d8d42df	0.0689752
73	0x3b30f0fd	0.002699911
74	0xbe134a30	-0.14383769
75	0xbdd40bf4	-0.103538424
76	0xbdb0564a	-0.08610208
77	0x3d868737	0.06568759
78	0xbd7844a7	-0.060612347
79	0xbca6d6fe	-0.020366188
80	0x3ded55ec	0.11588654
81	0x3d710a71	0.05884785
82	0xbd976f47	-0.07394271
83	0xbe17d64f	-0.14827846
84	0xbde8fae2	-0.11375977
85	0xbdbccc9b	-0.09218713
86	0x3dbeb783	0.09312346
87	0x3d92002a	0.071289375
88	0xbe48b203	-0.19599156
89	0xbe0aab63	-0.13541941
90	0xbe4f0341	-0.20216085
91	0xbe9d0a7d	-0.30672064
92	0xbca1e24d	-0.019761229
93	0x3d7997cc	0.06093578
94	0xbde26d90	-0.11056054
95	0x3b72d67e	0.0037054117
96	0xbda54755	-0.08070246
97	0x3dbceac8	0.092244685
98	0x3d67ee94	0.05662401
99	0xbda94c72	-0.08266534
100	0xbd2bf25a	-0.04197917
101	0x3d197bd8	0.037471622
102	0x3e1fe5ff	0.1561508
103	0x3e0ce4dd	0.1375918
104	0xbe306a62	-0.17228082
105	0xbde351ca	-0.110995844
106	0x3cfa29a1	0.030537428
107	0xbd37cbce	-0.044872098
108	0x3e98c5c8	0.29838395
109	0x3e418717	0.18899189
110	0xbde3fdcf	-0.111323945
111	0xbe185e0e	-0.14879629
112	0xbee7b094	-0.45251906
113	0xbb123e3e	-0.0022314931
114	0x3e1fdc22	0.15611318
115	0x3dcfd2c4	0.10147622
116	0xbdfec987	-0.12440782
117	0xbf060ab6	-0.52360094
118	0xbdc5a631	-0.09650839
119	0x3d8d3cca	0.0689636
120	0x3e404960	0.1877799
121	0x3e7bb313	0.2458003
122	0xbd98c443	-0.07459309
123	0x3d923f05	0.07140926
124	0x3caf348f	0.021387367
125	0xbcfd20f8	-0.03089951
126	0x3d39c9af	0.045358356
127	0xbc0a7d06	-0.0084526595
128	0xbccbc61d	-0.024874741
129	0x3d9a805d	0.075440146
130	0xbd6e412e	-0.05816763
131	0xbcdc9471	-0.026926251
132	0xbd8e0284	-0.069340736
133	0xbdcd6c78	-0.100304544
134	0x3d148f2f	0.036269363
135	0xbe41c9dc	-0.1892466
136	0xbec49465	-0.38394466
137	0xbe9c326a	-0.30507213
138	0xbe74e33c	-0.23914808
139	0xbe2afd91	-0.1669829
140	0x3da62432	0.081123725
141	0x3d8b5bda	0.06804629
142	0x3c147919	0.009062075
143	0x3cd591a6	0.026070427
144	0xbe1b2f8e	-0.1515486
145	0x3e54ea42	0.20792487
146	0xbd5ec74f	-0.054389294
147	0x3c9daf71	0.019248696
148	0x3e2acc0b	0.16679399
149	0x3ca15f80	0.019698858
150	0xbe52981d	-0.20565839
151	0xbd8fe499	-0.070260234
152	0xbd0817ba	-0.033225752
153	0xbd1c6f9c	-0.038192376
154	0xbe301532	-0.17195585
155	0xbc83960c	-0.016062759
156	0xbb6acd9f	-0.0035828126
157	0x3e22c956	0.15897116
158	0x3e9de2c9	0.30837086
159	0x3ddebdde	0.10876058
160	0xbde729ba	-0.112872556
161	0xbdae3c2f	-0.08507573
162	0x3d644909	0.055733714
163	0x3e711bea	0.23545805
164	0x3e36ceee	0.17852375
165	0xbc8b01de	-0.016968664
166	0xbdccde34	-0.100033194
167	0xbe70c408	-0.2351228
168	0xbd9563f5	-0.07294456
169	0x3d2bcf43	0.041945707
170	0x3e86fd39	0.2636507
171	0x3c982937	0.01857434
172	0x3d34c3ce	0.044132046
173	0xbdfbbfb0	-0.12292421
174	0xbd2d814f	-0.042359646
175	0x3caf5c4a	0.021406312
176	0xba58428e	-0.00082496635
177	0x3e72381b	0.23654215
178	0x3ca378b1	0.019955011
179	0xbdcd68bd	-0.10029743
180	0x3d003838	0.031303614
181	0x3ba82e0f	0.0051324437
182	0x3e746eb1	0.2387035
183	0x3e792296	0.243296
184	0x3dd76853	0.10517945
185	0xbd80a840	-0.06282091
186	0xbe0c199b	-0.13681643
187	0xbd965df4	-0.07342139
188	0x3e0b5fd5	0.13610776
189	0x3dfafa99	0.12254829
190	0xbc2934eb	-0.010327558
191	0xbdf383c2	-0.11890365
192	0xbe73d74b	-0.23812596
193	0xbd72bf71	-0.059264604
194	0xbd8ffb35	-0.07030336
195	0x3e1f29f8	0.15543354
196	0x3b9f70d0	0.004865743
197	0xbdcdb8d4	-0.10045019
198	0xbdf5ae4b	-0.11996134
199	0xbd8caf74	-0.068694025
200	0x3bcffbae	0.006347141
201	0x3d9c5a71	0.07634438
202	0x3d7b33cc	0.061328694
203	0x3db4a095	0.08819691
204	0x3e5d397d	0.21603961
205	0x3d7d4ec0	0.06184268
206	0x3dcea74b	0.10090502
207	0x3d01c918	0.03168592
208	0x3d7343f9	0.059390996
209	0x3dd1d9cc	0.102466196
210	0x3b94026c	0.0045168903
211	0xbcd895a1	-0.026438536
212	0xbd8cc58c	-0.068736166
213	0xbdd54c4a	-0.104149416
214	0xbe14d168	-0.14533007
215	0x3da0f7cb	0.07859763
216	0x3dbe5a15	0.092945255
217	0xbd337122	-0.043809064
218	0xbdbc610f	-0.091982
219	0xbdbfdeac	-0.09368643
220	0x3d1e914f	0.038712796
221	0x3db0c383	0.08631041
222	0x3ca48c0f	0.020086316
223	0xbe0f961e	-0.14022109
224	0xbe1230fd	-0.142765
225	0x3dd6fca2	0.10497405
226	0x3d18080a	0.03711704
227	0x3de620fc	0.1123676
228	0x3da64189	0.081179686
229	0x3dd59589	0.10428912
230	0xbc28e93f	-0.010309516
231	0xbd1b7bcc	-0.03795986
232	0xbd932757	-0.07185238
233	0x3c86af2e	0.016440954
234	0xbd0f6ac3	-0.035013925
235	0x3dde7e85	0.108639754
236	0x3dc4c7fc	0.096084565
237	0xbde00445	-0.10938314
238	0xbdf74e9e	-0.12075542
239	0x3daca1db	0.08429309
240	0x3e063703	0.13106923
241	0x3cc31f92	0.023818765
242	0x3d1a1385	0.03761627
243	0xbe35a8fc	-0.17740244
244	0xbd91b045	-0.07113699
245	0x3d9013c3	0.07035019
246	0x3dbc9694	0.09208408
247	0x3d4f8371	0.05066246
248	0xbe00cc12	-0.12577847
249	0xbd94128b	-0.07230099
250	0xbdeaac1c	-0.114586085
251	0xbd16c2b3	-0.036806773
252	0x3d17eda7	0.037091877
253	0x3db38f97	0.08767622
254	0x3e04e1ff	0.12976836
255	0xb57fe000	-9.5320866e-07

bias f4 [16]
0	0x3da90df3	0.08254614
1	0xbda31e34	-0.07964745
2	0xbcef50f8	-0.029213414
3	0xbc07844b	-0.008271287
4	0xbe2126bd	-0.15737434
5	0x3c0a2754	0.008432228
6	0xbe1058a0	-0.14096308
7	0xbd935482	-0.07193853
8	0x3ce9ba6b	0.028531274
9	0xbcb59361	-0.022165002
10	0x3dd1f15d	0.102511145
11	0x3c2a8455	0.010407527
12	0x3ca65fab	0.02030929
13	0x3e23b723	0.1598783
14	0x3c493f1e	0.012283115
15	0x3ccbece0	0.024893224

weight f4 [32, 16, 5, 5]
0	0x3d26bc6a	0.04070703
1	0xbb5d920e	-0.003380898
2	0x3d993e98	0.07482642
3	0xbdab8845	-0.08375601
4	0xbd25cb94	-0.04047735
5	0xbdc8ca6d	-0.09804235
6	0xbd05f10d	-0.032700587
7	0x3d14ceee	0.036330156
8	0x3c1dc30e	0.009629024
9	0xbdc54947	-0.09633117
10	0xbc5f1aca	-0.013617227
11	0xbdf6d7b9	-0.120528646
12	0xbc22320c	-0.009899627
13	0xbe140416	-0.14454684
14	0xbe495434	-0.19661027
15	0xbd6f1675	-0.058371026
16	0xbd67c518	-0.056584448
17	0xbe09fc19	-0.13475074
18	0x3e2772c8	0.1635238
19	0x3e0b181b	0.13583414
20	0x3cec3d1f	0.028837739
21	0x3de92105	0.11383251
22	0x3d1ebf55	0.038756687
23	0x3d91a057	0.071106605
24	0xbda97a22	-0.08275248
25	0xbd43d727	-0.047812607
26	0x3c3da080	0.011573911
27	0xbdd81534	-0.10550919
28	0x3c8f3d9c	0.017485432
29	0xbdc91ab1	-0.09819544
30	0xbe156f0d	-0.14593144
31	0xbdb8685d	-0.09004281
32	0xbdbc4550	-0.09192908
33	0xbc661335	-0.014042665
34	0xbe00b699	-0.12569655
35	0xbe4031bd	-0.18768974
36	0xbe3571d7	-0.17719208
37	0xbdb87d9b	-0.09008332
38	0x3c42b010	0.011882797
39	0x3d3bf543	0.045888197
40	0x3c7edf2c	0.015556138
41	0xbd8ca10e	-0.06866656
42	0xbc6379d3	-0.013884026
43	0xbc94fed1	-0.018187912
44	0xbd6a8a09	-0.057260547
45	0x3d9433ab	0.072364174
46	0x3d9c9111	0.07644857
47	0x3d6ed34f	0.05830699
48	0x3d1a29c9	0.037637506
49	0x3d56ee71	0.05247349
50	0x3d8a66c5	0.06757883
51	0xbcb2da4c	-0.021832608
52	0x3d394b7c	0.045238003
53	0x3dd63b44	0.10460523
54	0xbd02c6dd	-0.031927932
55	0xbce2bf26	-0.027679037
56	0x3dc4d75f	0.09611391
57	0xbd221467	-0.03957024
58	0x3e00f7a3	0.12594466
59	0xbd656b91	-0.056010786
60	0xbd2b77ab	-0.04186217
61	0xbdc41d52	-0.09575905
62	0x3df8e83d	0.12153671
63	0x3c5497ae	0.012975616
64	0x3b96954b	0.004595434
65	0xbd80c01e	-0.062866434
66	0xbd99c110	-0.07507527
67	0xbe111629	-0.1416861
68	0x3d8aad90	0.06771386
69	0x3c296a56	0.010340294
70	0x3d7cc9ee	0.061716013
71	0xbde51bd7	-0.11186951
72	0x3e0f7e96	0.14013132
73	0x3bf3b7af	0.0074376683
74	0xbdac065d	-0.08399651
75	0xbdea19e1	-0.11430717
76	0xbc8e0d6f	-0.01734039
77	0x3cf5ba73	0.029996132
78	0x3d964115	0.07336632
79	0xbc926740	-0.017871499
80	0xbe63924b	-0.22223775
81	0xbddab318	-0.10678691
82	0x3ce3053b	0.027712455
83	0x3cd6080d	0.026126886
84	0x3d344452	0.044010468
85	0xbdb8de5f	-0.09026789
86	0xbda2fd6e	-0.07958494
87	0x3dcc46f0	0.09974468
88	0x3d48c1fd	0.049013127
89	0xbd17ce1c	-0.037061796
90	0x3d3d5d27	0.046231415
91	0xbda6d045	-0.08145193
92	0x3db631c3	0.0889621
93	0xbe74e263	-0.23914485
94	0x3d947d63	0.07250478
95	0x3c75d8df	0.015005319
96	0xbe0e0669	-0.13869633
97	0x3ce1be40	0.027556539
98	0xbdb83310	-0.089941144
99	0x3dc1556b	0.0944012
100	0xbdc62e1d	-0.09676764
101	0xbd94c564	-0.07264212
102	0xbdd56b0a	-0.10420807
103	0xbd468f27	-0.048476364
104	0xbd573ac4	-0.052546278
105	0xbe8e2d0b	-0.2776874
106	0xbdc2a221	-0.0950358
107	0xbcd6a13d	-0.026199931
108	0x3d2085e7	0.0391902
109	0x3da6db23	0.08147266
110	0xbe31ebf4	-0.17375165
111	0xbd670067	-0.056396868
112	0xbde8624d	-0.113468744
113	0xbd5addd9	-0.053434227
114	0x3d0321b1	0.032014553
115	0xbb2c1cc8	-0.0026262272
116	0x3d8f24fe	0.069894776
117	0x3dccff1b	0.10009595
118	0x3d9221ab	0.07135328
119	0xbd116885	-0.03550007
120	0x3d17a5f3	0.037023496
121	0x3b41b014	0.0029554414
122	0xbd124d14	-0.03571804
123	0xbac56f3e	-0.001506306
124	0x3d6785f1	0.05652422
125	0x3da34530	0.07972181
126	0x3daf49e3	0.08559015
127	0xbc0fdbfc	-0.008780476
128	0xbdb60984	-0.08888534
129	0xbd6fa301	-0.058505062
130	0xbdbaa9fa	-0.09114452
131	0x3d732002	0.059356697
132	0xbd231c01	-0.03982163
133	0x3cc4db91	0.024030479
134	0xbe164840	-0.14675999
135	0xbdb9c56a	-0.09070857
136	0xb965c102	-0.00021911043
137	0xbd8dee24	-0.06930187
138	0x3d8f380b	0.06993111
139	0x3c3672a0	0.011135727
140	0xbc8e9db7	-0.017409189
141	0x3b999416	0.0046868427
142	0xbd8271fd	-0.06369398
143	0x3d9dcd89	0.07705218
144	0x3decf0ef	0.11569392
145	0x3e34d42b	0.1765906
146	0x3caf4614	0.02139572
147	0x3de7cf3a	0.11318822
148	0x3d3b51e8	0.04573241
149	0x3cfac57b	0.030611744
150	0xbe037625	-0.12838037
151	0x3d15c566	0.036565207
152	0xbbdf7ada	-0.006820065
153	0xbd59fc7b	-0.0532193
154	0x3d3e5655	0.04646905
155	0xbd826879	-0.06367583
156	0xbd3a0fe1	-0.0454253
157	0xbcc22704	-0.023700245
158	0x3d32f43e	0.04368996
159	0xbb10a103	-0.0022068627
160	0x3c2fd464	0.01073179
161	0x3cc93504	0.024561413
162	0x3da3609d	0.07977412
163	0xbd915513	-0.07096305
164	0xbdf372f7	-0.11887162
165	0x3da4e139	0.0805077
166	0x3c03ac6e	0.008036716
167	0xbd778fd7	-0.06043991
168	0x3cf8e70b	0.030383607
169	0x3da2ab49	0.07942826
170	0x3d9228ba	0.07136674
171	0xbd546f03	-0.05186368
172	0x3d44c166	0.048036
173	0x3c830e00	0.015997887
174	0xbdd7fa07	-0.10545736
175	0x3d154cf3	0.036450338
176	0xbc3d4a67	-0.011553383
177	0xbdcab4b7	-0.0989775
178	0x3dfeba58	0.12437886
179	0xbb471cd0	-0.0030382164
180	0xbc91c01f	-0.017791806
181	0xbd895deb	-0.067073666
182	0x3bf198d8	0.0073729567
183	0x3de22e5d	0.11043999
184	0x3c6e2170	0.014534339
185	0xbdd7a815	-0.10530106
186	0xbe06c415	-0.13160737
187	0xbbd62f25	-0.006536382
188	0x3d6b3a83	0.057428848
189	0x3b5a7eaf	0.003333967
190	0xbe546acb	-0.20743863
191	0xbe08cff0	-0.13360572
192	0xbd9515d1	-0.07279552
193	0xbded8497	-0.11597555
194	0xbe2de5af	-0.16982149
195	0x3baf36ad	0.005347094
196	0xbc18ed7a	-0.009333963
197	0x3bb244a7	0.005440313
198	0x3ccbe6c6	0.024890315
199	0xbdc6eb5f	-0.09712862
200	0xbc809a0e	-0.015698459
201	0xbce51b69	-0.027967172
202	0x3d089546	0.033345483
203	0xbcd50739	-0.02600442
204	0xbe2b7fc3	-0.16747956
205	0xb8fcbb40	-0.000120511744
206	0x3d7892b4	0.060686782
207	0xbe014210	-0.12622857
208	0xbd5a3f5f	-0.05328309
209	0x3c8cb09c	0.017174058
210	0x3cdb4ce3	0.02677006
211	0xbe094931	-0.13406827
212	0xbc1cb35e	-0.009564249
213	0xbe23549f	-0.15950249
214	0xbe284ed9	-0.16436328
215	0x3d4f10e0	0.050553203
216	0x3d95e6f9	0.07319445
217	0x3da5083c	0.08058211
218	0x3dc4e6f2	0.09614362
219	0x3e4fa6ae	0.20278427
220	0xbb71d4ee	-0.0036900598
221	0x3d27fca7	0.041012432
222	0xbd536b1b	-0.051615816
223	0xbc85fc41	-0.016355636
224	0x3c28ae54	0.010295469
225	0xbccf8b7e	-0.02533507
226	0xbd6cb4ce	-0.057789616
227	0xbdb73383	-0.08945372
228	0x3d2fecc1	0.042950395
229	0x3d596292	0.05307252
230	0xbd80c0d8	-0.06286782
231	0xbd898f27	-0.06716757
232	0x3c709a36	0.014685204
233	0xbe0070b6	-0.12542996
234	0xbd44044b	-0.047855657
235	0x3da2978c	0.079390615
236	0x3d98ab70	0.07454574
237	0x3d1fcdc7	0.039014604
238	0x3d286103	0.041108143
239	0x3daa8224	0.083256036
240	0x3d16c75b	0.036811214
241	0x3d768014	0.06018074
242	0x3c42b6fc	0.011884447
243	0x3d63d30a	0.055621184
244	0x3d877d72	0.06615724
245	0xbde124a7	-0.10993319
246	0xbd782063	-0.06057776
247	0xbe23b686	-0.15987596
248	0xbdc719cc	-0.09721717
249	0xbda175ba	-0.07883783
250	0x3da2503a	0.07925458
251	0x3c4983e5	0.0122995125
252	0x3c1f7cbd	0.00973433
253	0xbe2fbad0	-0.17161107
254	0xbe1f3503	-0.15547566
255	0xbcb40fa2	-0.02198011

bias f4 [32]
0	0x3d41db0a	0.047328033
1	0x3d14be2a	0.036314167
2	0x3d0ebeba	0.03484986
3	0xbda0eb77	-0.07857411
4	0xbcbf7f0e	-0.023376014
5	0xbccce23b	-0.025010219
6	0x3c7cbbff	0.015425681
7	0xbd6f1a2d	-0.058374573
8	0x3d92db2f	0.07170712
9	0xbd96c9eb	-0.073627315
10	0x3d16f189	0.03685144
11	0xbd43ebe1	-0.047832374
12	0x3d7f4f11	0.062331263
13	0x3d300a9d	0.04297887
14	0x3c8538c8	0.016262427
15	0xbd6364dd	-0.055516113
16	0xbd9b727b	-0.07590195
17	0xbda8fc13	-0.08251204
18	0x3d2c85ee	0.042119913
19	0xbd8006d8	-0.06251305
20	0xbcf86541	-0.03032172
21	0xbd6cd97b	-0.057824593
22	0x3ca18e96	0.01972131
23	0xbe0f7a2a	-0.14011446
24	0xbcd820e1	-0.026382865
25	0x3d159297	0.036516752
26	0xbd3f9148	-0.04676941
27	0xbd1f9ca1	-0.038967732
28	0xbda53c40	-0.080681324
29	0xbd87addb	-0.06624957
30	0x38c7b239	9.522256e-05
31	0xbcf4cdd7	-0.029883308

weight f4 [10, 288]
0	0xbddddd5c	-0.108332366
1	0x3adc3905	0.0016801661
2	0x3df0584f	0.117355935
3	0xbd45ef04	-0.048323646
4	0xbd8ca9dd	-0.06868336
5	0x3ce3fa45	0.027829299
6	0x3d095a22	0.033533223
7	0x3caf2c0d	0.02138331
8	0x3c17ce88	0.0092655495
9	0x3d3ef3a2	0.046619065
10	0x3bd47a4c	0.0064843055
11	0x3cef7681	0.029231312
12	0x3ccc65cc	0.024950884
13	0xbe3cd362	-0.18440011
14	0xbdc74698	-0.097302616
15	0xbd879f54	-0.06622186
16	0x3c226a7e	0.009913085
17	0x3dc4bb35	0.096060194
18	0xbd51484e	-0.051094346
19	0x3cbf26ef	0.023333995
20	0x3d306f6c	0.04307501
21	0x3d4e4b67	0.050364878
22	0x3d1e44ce	0.038639836
23	0xbe6e0610	-0.232445
24	0x3d63749c	0.05553113
25	0x3d9dca36	0.07704584
26	0xbd842f71	-0.06454361
27	0xbe969335	-0.29409185
28	0x3e0d97a0	0.13827372
29	0xbd2d059b	-0.042241674
30	0x3c750ba0	0.014956385
31	0xbd9a878c	-0.07545385
32	0xbdde8bb4	-0.1086649
33	0xbc5f74e8	-0.0136387125
34	0xbd0cba44	-0.034357324
35	0xbc962c9d	-0.01833182
36	0xbd8fbc1f	-0.07018303
37	0xbe1f1d00	-0.15538406
38	0x3dc1878a	0.0944968
39	0x3c84d628	0.016215399
40	0xbd4215b4	-0.04738398
41	0x3c0d1183	0.008610132
42	0xbdefe567	-0.11713677
43	0x3df715e3	0.120647214
44	0x3b967fd4	0.004592875
45	0xbda9d75d	-0.082930304
46	0x3d84fdaa	0.06493695
47	0x3b803806	0.0039129285
48	0xbc5d0e0a	-0.013492117
49	0xbdb965d0	-0.09052622
50	0x3dac06d1	0.083997376
51	0xbe1c91da	-0.15290013
52	0xbc01849a	-0.00790515
53	0x3e05d09a	0.13067856
54	0xbda76a02	-0.08174516
55	0x3d9fee56	0.07809131
56	0xbc2b2d97	-0.010447881
57	0x3d84a076	0.06475918
58	0xbda4445a	-0.080208495
59	0xbce428bd	-0.027851457
60	0x3d727287	0.059191253
61	0x3dde2b5f	0.10848116
62	0xbdb8ff24	-0.09033039
63	0x3cd24946	0.025669705
64	0x3d0a8014	0.03381355
65	0x3d1ae258	0.037813514
66	0xbe0c2216	-0.13684878
67	0x3d4929ca	0.04911212
68	0xbc24bbff	-0.010054587
69	0x3e1284f5	0.14308532
70	0x3cdb7073	0.026787018
71	0xbd6a5e67	-0.057218935
72	0xbc55d14e	-0.01305039
73	0xbda8d0a4	-0.0824292
74	0xbcbb7bcf	-0.022886185
75	0xbe6ac69b	-0.22927324
76	0xbd4ba0b3	-0.0497138
77	0xbd29eda2	-0.04148639
78	0x3c107c37	0.008818678
79	0x3da85e67	0.08221131
80	0x3e4ff3b5	0.2030781
81	0xbe375e9d	-0.17907186
82	0xbd1a7bc7	-0.0377157
83	0x3d6ab89d	0.057304967
84	0x3b635ee5	0.0034694013
85	0x3bfdffea	0.0077514546
86	0xbe340599	-0.1758026
87	0x3df7547f	0.12076663
88	0xbdde987f	-0.1086893
89	0xbe1ea3d4	-0.15492183
90	0xbe3e2c6f	-0.18571638
91	0x3da834b1	0.08213175
92	0x3d5bf332	0.053698726
93	0x3cf155bb	0.029459825
94	0xbd2d190e	-0.042260222
95	0xbb14a7af	-0.0022682955
96	0x3e1ea88d	0.15493985
97	0x3d8bab31	0.068197615
98	0xbdb176c9	-0.086652346
99	0xbca59948	-0.020214692
100	0xbce2a63e	-0.027667161
101	0xbd98841f	-0.07447075
102	0xbdbbfb30	-0.091787696
103	0xbd836e1e	-0.064174876
104	0x3dacb233	0.08432426
105	0x3d405bcb	0.04696254
106	0xbd3beda4	-0.04588093
107	0xbdc88c77	-0.097924165
108	0xbd74de5c	-0.05978237
109	0xbc2beee0	-0.010493964
110	0xbc87d96e	-0.01658317
111	0xbd9482ab	-0.072514854
112	0x3c080189	0.008301147
113	0x3dcd8d18	0.10036677
114	0x3c3565c7	0.011071629
115	0xbcc2729c	-0.02373629
116	0xbdb04363	-0.08606603
117	0xbd07c63c	-0.033148035
118	0x3d0b8c03	0.034069072
119	0x3b7bff3f	0.00384517
120	0xbda55f23	-0.080747865
121	0xbcd4a003	-0.025955206
122	0xbdb29bda	-0.087211326
123	0xbe18ccee	-0.14921924
124	0x3e006225	0.12537439
125	0xbd852faa	-0.06503232
126	0xbe10c7ca	-0.14138713
127	0x3ddbdc04	0.10735324
128	0x3d9515e6	0.072795674
129	0xbc80f27c	-0.015740626
130	0xbd5dfcc4	-0.054196134
131	0x3bbe09ea	0.0057995217
132	0xbbc49116	-0.005998741
133	0x3d152d25	0.036420006
134	0xbea0a285	-0.31373993
135	0x3c7871e9	0.015163877
136	0xbc8a15bf	-0.016856072
137	0x3cc1b436	0.023645502
138	0xbe0656cf	-0.13119052
139	0x3bcb3de6	0.006202447
140	0xbd20f5e5	-0.039297003
141	0xbdac810c	-0.08423051
142	0xbcf6d68f	-0.030131606
143	0x3e06798e	0.13132307
144	0x3df5d583	0.12003615
145	0xbda21bb0	-0.07915437
146	0x3c9e237e	0.019304033
147	0x39ad26f7	0.00033026162
148	0x3de277a1	0.11057974
149	0x3c8daa70	0.017293185
150	0xbe70f7fa	-0.23532096
151	0x3df7851c	0.120859355
152	0xbe4b3a5f	-0.19846486
153	0xbe1a1103	-0.15045552
154	0xbd95b707	-0.073103
155	0xbcc1e4d7	-0.02366869
156	0x3d59df01	0.05319119
157	0xbcc72dfb	-0.024313917
158	0x3d95e9b5	0.07319967
159	0xbd3cf164	-0.046128646
160	0xbe076dc3	-0.13225465
161	0x3d8886f2	0.06666364
162	0xbd94d296	-0.072667286
163	0xbdca78a1	-0.098862894
164	0xbd5b4403	-0.053531658
165	0x3d0dc3c6	0.034610532
166	0x3d2b67f7	0.041847195
167	0xbd1086a5	-0.035284657
168	0xbdd3b287	-0.10336786
169	0x3dafe4b5	0.08588544
170	0x3dc40c31	0.09572638
171	0xbdc93d07	-0.09826093
172	0xbc83e8b9	-0.016102182
173	0x3ca47717	0.020076318
174	0x3da2e5e9	0.07954008
175	0xbc2869fd	-0.010279176
176	0xbd7ed6c9	-0.062216554
177	0x3d54bcd3	0.05193789
178	0xbe0d85a1	-0.13820507
179	0xbaadfb1f	-0.0013273692
180	0x3c468515	0.01211669
181	0xbd9541ea	-0.07287963
182	0x3e0925f4	0.13393384
183	0x3d81e038	0.063415945
184	0xbde092c7	-0.109654956
185	0x3d8b27f2	0.06794728
186	0xbe116675	-0.1419924
187	0xbdb22f89	-0.08700473
188	0x3d9e5997	0.07731932
189	0x3cd8be6c	0.026457988
190	0x3d51288f	0.05106407
191	0x3bf17f89	0.0073699397
192	0xbb94765a	-0.00453071
193	0xbd2dded3	-0.04244883
194	0xbd29cee7	-0.041457083
195	0x3cd93215	0.026513139
196	0xbd597b7c	-0.05309628
197	0x3cbc3c58	0.022977993
198	0x3da07cfe	0.0783634
199	0x3e16296a	0.14664236
200	0x3d7b6722	0.061377652
201	0xbaea1ae5	-0.0017860798
202	0xb9431281	-0.00018603542
203	0xbd03329e	-0.032030694
204	0x3daa392d	0.08311687
205	0xbbf2d415	-0.007410536
206	0x3d821af3	0.063527964
207	0x3db976bd	0.09055851
208	0x3c9aa73e	0.018878575
209	0xbda2b4e6	-0.0794466
210	0xbdde6632	-0.10859336
211	0xbca74b5d	-0.020421678
212	0x3dc49b20	0.095999
213	0xbca26db8	-0.019827709
214	0xbd4fb72e	-0.050711803
215	0x3d8527bb	0.065017186
216	0xbd609982	-0.054833896
217	0x3d33fca1	0.043942098
218	0x3d883c88	0.066521704
219	0xbd89345c	-0.0669944
220	0xbd12400c	-0.03570561
221	0x3d800651	0.06251205
222	0xbcc13679	-0.023585545
223	0xbcc0cc37	-0.023534877
224	0x3c76a103	0.015053037
225	0x3dc5e0a8	0.096619904
226	0xbcd100e4	-0.02551312
227	0xbe733f64	-0.2375465
228	0x3d546b48	0.051860124
229	0x3dd36b12	0.103231564
230	0x3d63373d	0.0554726
231	0xbe0690c7	-0.13141166
232	0x3c4d588c	0.012533318
233	0xbe1c6e7b	-0.1527652
234	0xbe31c4b1	-0.17360188
235	0x3c979cae	0.018507328
236	0xbdd0fa08	-0.1020394
237	0x3d23f3cc	0.040027425
238	0xbd0dd3a4	-0.034625664
239	0x3ddf9191	0.109164365
240	0x3d37d325	0.044879097
241	0xbda68ce0	-0.081323385
242	0xbdc51551	-0.096232064
243	0xbde4b4c6	-0.11167292
244	0x3d84e75f	0.06489443
245	0x3dc8d7e7	0.09806805
246	0x3d44cf5b	0.048049312
247	0xbdad2e00	-0.084560394
248	0x3df758cf	0.12077486
249	0x3b50c93f	0.0031858233
250	0xbe1760a7	-0.14782964
251	0x3c8186f0	0.015811414
252	0xbd4fb91a	-0.050713636
253	0x3d93ff3f	0.07226419
254	0xbe24e2af	-0.16102098
255	0xbcd12578	-0.025530562

bias f4 [10]
0	0xbd9d20a7	-0.076722436
1	0xbd116832	-0.03549976
2	0xbd92a623	-0.07160594
3	0x3d18d580	0.037312984
4	0x3a8cabe8	0.0010732384
5	0xbc98a76e	-0.018634524
6	0xbdb32c3f	-0.08748674
7	0x3cf4f616	0.0299025
8	0x3def55d4	0.11686292
9	0x3d48a660	0.048986793
