project_2/part_2/models/magda/mnist/best_model2.ckpt (torch, 37363 bytes, 24 tensors)

conv1.0.weight f4 [16, 1, 3, 3]
000000 ea 27 98 3e a2 65 31 3f 32 66 a6 3e 82 06 40 3f
       0.29717952 0.69295704 0.32499844 0.7500993
000010 de 68 42 3f c4 40 6c 3e 18 9f 14 3f 9e 88 74 3e
       0.75941265 0.23071581 0.5805526 0.2388024
000020 73 63 99 bd 2b ff 1e 3f fe 91 29 3f fc ad 34 3e
       -0.074896716 0.62108105 0.6623839 0.17644495
000030 91 e2 02 3f 28 19 e3 3d 6b 2c 56 3e 3f a9 52 3e
       0.5112696 0.110887825 0.20915382 0.20572375
000040 4b 69 3a 3d 9b 93 23 bf cb 42 60 3d 82 b6 31 3f
       0.04551057 -0.63897103 0.0547512 0.6941911
000050 5a 9d 57 3f 89 77 2b bf 3c 91 fc be d1 f4 dc be
       0.84224474 -0.6697927 -0.49329555 -0.4315553
000060 90 81 5b bf a4 ca 2b bf 86 f1 a5 be 86 2e 41 3f
       -0.8574457 -0.6710608 -0.3241083 0.75461614
000070 95 fc e9 3e 58 81 e7 3e 55 20 f1 3d 82 73 13 3f
       0.45700517 0.4521587 0.11773745 0.57598126
000080 69 4b 15 3f 1b c8 05 3e 7a 51 d9 bd 4d 2d 8f 3d
       0.5831819 0.13064615 -0.106112435 0.06991062
000090 4e d1 a0 be d2 6d 09 bf ed 70 cd be b5 1a 1e 3e
       -0.31409687 -0.536832 -0.40125218 0.15439875
0000a0 3f fb e4 3e 37 b8 20 3f 0e 1d 38 3f f6 62 3c 3f
       0.44722936 0.6278109 0.71919334 0.735885
0000b0 72 e5 3f 3e 74 dd de 3e 42 75 19 3f ee 21 3c 3f
       0.1873987 0.4352833 0.59944546 0.7348927
0000c0 3a 3e 3e be 16 d8 da bd 90 dc de bd 1d e4 70 bf
       -0.18578425 -0.10685746 -0.10881913 -0.94098073
0000d0 3a 03 d7 be e6 b1 36 be 4d ff 51 3f 06 30 2e 3f
       -0.4199465 -0.178413 0.82030183 0.6804203
0000e0 12 63 5f 3e 7b 99 3e 3f a0 d2 2c 3f a4 89 41 3f
       0.21815136 0.7445294 0.6750889 0.7560065
0000f0 e4 ce c6 3e 68 ae 9a 3e fc 5d 08 3f 56 f6 9f 3d
       0.3882972 0.30211186 0.5326841 0.07810657
000100 f4 ff ae 3c d7 4b 4d 3e b1 16 11 3f 22 62 ff 3e
       0.021362282 0.20048462 0.5667525 0.49879557
000110 2d 15 c1 3e 17 aa a1 3f 39 13 c4 3f 0c 22 92 3f
       0.37711468 1.2630032 1.5318366 1.141664
000120 b9 cc 45 3e d7 d6 14 3f e0 5d 39 3f a2 53 2c 3f
       0.19316377 0.5814032 0.72408867 0.67315114
000130 81 a1 51 3e 50 3b a4 3e a7 3e cc be 9d a2 ed be
       0.20471765 0.32076502 -0.3989155 -0.46413127
000140 9b 16 6a be 99 11 b2 3d 93 3e a0 3e df 1e e8 be
       -0.22860186 0.08694763 0.3129774 -0.45336053
000150 d7 fc ad 3e a3 ad 85 3e 03 20 4e bf 7f f7 34 3f
       0.33981964 0.26109037 -0.80517596 0.7069015
000160 fa 30 f4 3d 0b 73 06 bf 02 2b 5c 3f bd b6 2d 3f
       0.11923404 -0.5251929 0.86003125 0.6785696
000170 70 ba 12 3f c8 32 78 3f 85 11 81 3f 4c f5 0e 3f
       0.5731573 0.96952486 1.0083472 0.55843043
000180 c6 41 33 3f 91 3e ce 3e dd fc f0 3e 16 cd e0 3e
       0.7002224 0.4028211 0.4706792 0.43906468
000190 07 31 fa 3e 9f 35 fc 3e 74 c7 ee 3e 09 2a 0b 3f
       0.4886553 0.4925966 0.46636546 0.54361016
0001a0 91 3c b5 3e a0 d4 40 3f 12 cd 7c 3f 4d e3 54 3f
       0.3539777 0.7532444 0.9875041 0.83159333
0001b0 24 eb 7c 3d ca e3 af 3e c2 39 0b 3f 2d a2 bf 3e
       0.061747685 0.34353477 0.54385006 0.37428418
0001c0 37 d5 9d 3e e5 eb ff 3d 1c 71 e1 3e e2 a3 a9 3e
       0.30826733 0.12496165 0.44031608 0.33132845
0001d0 05 63 f8 3e c1 6c b7 3d 74 8d 86 3e 44 4b f6 3e
       0.48513046 0.0895629 0.26279795 0.48104298
0001e0 b8 83 45 bd e4 21 c2 3e d6 70 08 3f ba 72 5b bc
       -0.04822132 0.37916481 0.53297174 -0.013394052
0001f0 3e b8 48 3e 4a 14 02 3f dd 07 0b bf c2 3a 30 bf
       0.19601533 0.5081221 -0.54308873 -0.6883966
000200 5f 0f f2 bd a4 7a 69 bf 59 3e bc be 4c 3b 2c 3f
       -0.11819338 -0.9120276 -0.36766317 0.6727798
000210 f9 5a 35 bf 81 88 4f 3e 76 b5 31 3f d7 dd 2c 3c
       -0.7084194 0.20266916 0.6941751 0.010550938
000220 e2 a3 6d 3b 04 4f 04 bf 0a 07 a1 3e ee 72 cc 3d
       0.0036261012 -0.5168307 0.31450683 0.099828586
000230 9b d6 08 bd 8d ce 95 3f f9 70 85 3f 6c 6c c4 3e
       -0.03340779 1.1703659 1.0425102 0.3836397

conv1.0.bias f4 [16]
000000 4e 1b f3 3c f4 ee 74 3e c6 55 b6 3e 7e 7b 7a 3e
       0.029676106 0.23919278 0.35612315 0.24461171
000010 4d 15 76 3a 29 2e 88 3c 86 7b 9a 3c 22 ef 88 bb
       0.00093873293 0.016623573 0.018857729 -0.0041788975
000020 44 e0 15 3d d3 dd 01 be 0f 6e 02 3b 31 a0 b9 ba
       0.03659083 -0.12682275 0.0019902026 -0.0014162121
000030 ef c6 69 3e 93 39 6d 3e c6 15 9d 3e de db e3 b9
       0.22829793 0.23166494 0.30680674 -0.00043460628

conv2.0.weight f4 [8, 16, 3, 3]
000000 21 a0 c1 be c3 c5 e5 bd 2c 05 94 3e b9 ec 05 be
       -0.3781748 -0.11219361 0.28910196 -0.13078584
000010 e5 32 af 3d c3 31 41 3e 87 af 2e be 8d b4 88 3e
       0.08554629 0.18866639 -0.17059146 0.2670025
000020 98 03 44 3e 04 4f c5 be 80 41 94 3d 75 94 22 3d
       0.19141996 -0.38536847 0.07239056 0.03969236
000030 2b b1 53 3d 53 77 18 be e1 96 45 3d 98 24 29 3b
       0.051682632 -0.14889269 0.048239592 0.0025809165
000040 25 64 96 3d 8d aa 81 3d e4 39 0d be 95 96 d2 bd
       0.0734332 0.06331358 -0.13791615 -0.102826275
000050 dd c8 c6 bc 5e cd 99 be 1c 3b d9 bd 27 20 18 bd
       -0.024265701 -0.30039495 -0.10606977 -0.037140038
000060 28 42 d6 bd 4f b0 c6 bd 8f f2 8e 3a 07 6f 7a be
       -0.10461837 -0.09701597 0.0010906028 -0.24456416
000070 06 52 a0 bd 88 0b 22 3d cb 91 c1 bd 6b c1 e4 bc
       -0.07828145 0.03956178 -0.09451636 -0.02792426
000080 86 15 24 3c a4 c4 36 3c 94 ee 11 3e cd 59 74 3d
       0.010014897 0.011155281 0.14251167 0.059655953
000090 4a 6f e1 3e 9b 88 96 3e 37 f2 30 3e 10 ea 96 3e
       0.4403022 0.29401097 0.17279898 0.2947545
0000a0 15 5f 85 3e 62 5a 99 3e 97 03 69 be 4c ae 00 3e
       0.26049104 0.2995177 -0.22755276 0.12566489
0000b0 45 40 17 3e 6e 62 20 bf b3 cc 99 be bb e3 9d 3e
       0.1477061 -0.6265019 -0.30038986 0.30837807
0000c0 eb 48 45 be 0f 77 89 bd 14 75 52 3e 09 96 3f 3e
       -0.19266097 -0.06712162 0.20552474 0.18709578
0000d0 57 65 44 3e 8f 8b c8 3d 3f cc 70 be 07 c8 ca bd
       0.19179283 0.09792244 -0.23515414 -0.099014334
0000e0 55 48 21 3e 81 eb 97 3c 52 33 2d 3d 66 6f 4b 3e
       0.15750249 0.018544914 0.04228527 0.19866714
0000f0 6e 30 03 3d 35 c5 9e 3e 88 95 69 3e 5b 48 cc bd
       0.032028608 0.31009832 0.22810948 -0.09974738
000100 52 03 86 bd e5 97 49 3e 01 93 10 3e a6 db 40 3e
       -0.06543602 0.1968685 0.14118578 0.18833789
000110 03 e7 24 3e e4 47 e6 bd 11 2c 4b 3e 28 c6 7a 3d
       0.16103749 -0.11244181 0.19841029 0.061224133
000120 ad d3 15 bf 2c b5 01 3e a7 fa 8c 3e ac 78 80 bd
       -0.58526117 0.12666768 0.27534983 -0.06273016
000130 84 05 47 bd 69 5b ab 3d 4b d5 b1 3e 4e cf 2e 3e
       -0.048589244 0.083670445 0.34733042 0.17071268
000140 58 32 74 3e a0 09 e2 be 5e d9 a1 be 31 21 45 3e
       0.2384733 -0.44147968 -0.3161115 0.19250943
000150 1b 27 33 be b1 d1 ec 3e 6b 56 09 3f c6 2f 73 bc
       -0.17495386 0.46253732 0.5364749 -0.014842933
000160 2f dc 77 3e d5 9b bf 3e 27 5c c0 be fe f9 d7 bd
       0.24205087 0.37423578 -0.37570307 -0.10545729
000170 d8 6d 10 3e 9d 6a 05 3b 85 5b b9 3d d1 33 09 3e
       0.14104402 0.0020357736 0.09050659 0.13398673
000180 51 62 1e 3c 5d 8b a2 3e ad 3a 49 3e 10 e2 98 be
       0.009666995 0.3174695 0.1965129 -0.29859972
000190 70 b8 2e be 5c 72 68 3e 01 0f 24 3d 57 da 89 3e
       -0.17062545 0.22699875 0.04005337 0.26924393
0001a0 8a 88 85 3e f7 ae 93 bd 0c b4 56 3e 8f 2f 42 3e
       0.26080734 -0.07211106 0.2096712 0.18963455
0001b0 55 c0 56 be 4c 81 8e bd 25 f5 4d 3e 12 a3 17 3e
       -0.20971806 -0.06958255 0.20113046 0.148083
0001c0 70 70 d9 3d 92 b9 b7 3d a8 f2 bc 38 35 1d f7 3d
       0.10617149 0.089709416 9.009737e-05 0.12066118
0001d0 57 c4 b7 3c 4c 3e 30 be 22 cf 0e bc c4 2f 37 3e
       0.02243249 -0.17211264 -0.0087163765 0.17889315
0001e0 1f 78 2e 3d 34 80 a7 3a 03 1c 21 3e 0e 23 8d bd
       0.042595025 0.0012779296 0.15733342 -0.06891452
0001f0 d4 aa 51 3e 06 9a d9 3d 1c ba ab 3e 96 cb da 3a
       0.20475322 0.10625081 0.33540428 0.0016692753
000200 b6 06 36 3e fc f9 5d be 49 2c d7 3d cb be f8 3e
       0.17775998 -0.21677393 0.105064936 0.48583063
000210 8b 50 bf be ea f5 72 3e d6 21 7b bd df d4 8d bd
       -0.37366137 0.23726621 -0.061311565 -0.069253676
000220 34 32 eb bd 44 62 0b 3e b3 c8 70 3e ba 9c c7 3e
       -0.11484185 0.13611704 0.2351406 0.3898676
000230 ef 39 cc 3e cc b0 1e be 44 25 44 3e db 36 09 3e
       0.3988795 -0.1549713 0.1915484 0.13399832
000240 fc 4c 8d 3d 3b a8 f6 3d a9 83 8c bb aa c3 2f 3e
       0.06899449 0.12043806 -0.004288156 0.17164484
000250 ec f4 57 3e 3d 1e f1 bd e3 3e 70 3e 16 cf 32 3d
       0.21089524 -0.117733456 0.2346149 0.043654524
000260 a9 91 aa be f0 8d 24 3d f7 67 5c 3e bc 32 07 3e
       -0.33314255 0.040174425 0.21524034 0.13202947
000270 71 00 1b 3e 42 bd 4e 3e 37 35 03 3e ff db a5 3e
       0.15136887 0.20189384 0.12813269 0.32394406
000280 7b b3 ff 3d 94 89 24 be 14 a2 dd 3d 8b 5a 9c 3b
       0.12485405 -0.16068107 0.108219296 0.0047715358
000290 b1 25 c4 3d b3 af 30 bd 7e 82 22 3d 5d 10 31 3d
       0.095775016 -0.04313631 0.03967523 0.043228496
0002a0 55 4c 95 bd 8e 73 15 3e 86 42 a8 3d 07 b2 63 3d
       -0.0728995 0.14594862 0.08215813 0.055589702
0002b0 94 9a 32 3e d7 8b f4 3d 76 cc e2 3d 5d 7f 50 3e
       0.1744178 0.11940735 0.11074154 0.20361085
0002c0 aa fd 7b 3c 42 48 f7 3d 50 cf f5 bd 07 92 83 be
       0.015380302 0.12074329 -0.12002432 -0.25697348
0002d0 57 30 8a 3c 1a 1e a8 3d 31 99 03 be 8c c2 2b 3e
       0.016868753 0.082088664 -0.12851407 0.16773432
0002e0 8e 85 2d be 9c 8e 5e be dc d2 be bd f3 ba 87 bd
       -0.16945478 -0.21734089 -0.09317562 -0.066274546
0002f0 31 5b da bd f8 a6 d5 be 2b 80 a0 be 93 ae 34 be
       -0.10661925 -0.4172895 -0.31347784 -0.1764472
000300 2d 51 56 be eb a5 2a be 7f 50 e5 3c e2 18 b8 be
       -0.20929404 -0.16664855 0.027992485 -0.35956484
000310 a1 db d2 bd 17 98 ab 3d b4 dd 7d bc ec a1 18 3e
       -0.10295797 0.08378618 -0.015494753 0.14905518
000320 0b 0a be 3c 8c 9c 2b 3e 75 53 73 3d a3 2b 80 bd
       0.023198148 0.16758937 0.059405763 -0.06258323
000330 b2 a9 93 3d 9d f3 df bd 7c 9e d3 be 80 3a bd 3c
       0.07210101 -0.109351374 -0.4133185 0.023099184
000340 7c 51 e8 3d 6f 08 4a bc 20 0d 82 3e 53 62 de 3d
       0.11343667 -0.012331112 0.2540064 0.108585976
000350 8e 56 b1 be dc 8b 0b 3e 44 ed 10 be c8 68 75 be
       -0.34636348 0.13627571 -0.1415301 -0.23965752
000360 66 66 cc 3c 31 93 6b 3e 5c fc 50 3d ef 90 a0 3c
       0.024951171 0.23005368 0.05102192 0.01960036
000370 5b 01 db 3d ea bc 4e bd b4 e1 9d 3e c9 b5 bd 3d
       0.10693618 -0.05047313 0.3083626 0.092631884
000380 c9 c9 5d be ff 63 ca 3d 03 c8 36 3e 3b b6 2a 3e
       -0.21659006 0.09882354 0.17849736 0.16671078
000390 fd d4 e5 3e 64 23 b6 3e ec e4 40 bd 15 16 dd 3e
       0.4488906 0.35573876 -0.047093317 0.4318091
0003a0 67 0e d2 3d fb 0e 8b be 57 88 78 3c a0 dd ef 3d
       0.10256653 -0.27159867 0.015169225 0.117121935
0003b0 4c ef b3 3d 38 e2 61 3e f3 44 64 3e 8b 3c 96 bd
       0.08785877 0.22058952 0.22291927 -0.073357664
0003c0 56 e4 0d 3e cb 71 85 bd 09 22 df be 62 cf 09 3e
       0.13856634 -0.06515845 -0.43580654 0.13458017
0003d0 91 fb d4 3d a0 1a 05 3e cd 76 f4 3d 6d 19 50 3d
       0.10399545 0.12998438 0.11936722 0.050805498
0003e0 53 e6 71 be 92 fb 01 3e 79 d4 23 be 89 26 bc be
       -0.23623018 0.12693623 -0.1599902 -0.3674815
0003f0 dc 58 83 3d 44 c6 27 3e 97 b2 15 3e ad d8 79 3e
       0.06413433 0.16384226 0.14618908 0.24399062

conv2.0.bias f4 [8]
000000 cf b1 e4 bc 8a 99 d7 bb 1b ba ae 3d 84 59 7f bd
       -0.027916817 -0.0065795826 0.085315906 -0.062341228
000010 cf ec 18 3d 9b 90 21 bd cd c9 71 bd bd cb 9d 3c
       0.037335213 -0.039444547 -0.059030343 0.019262189

fc.0.weight f4 [2, 392]
000000 47 f3 fd 3b 13 ff 69 3d b5 68 23 3b 8b ec 88 bd
       0.007749948 0.057128023 0.0024934236 -0.06685742
000010 2a d0 b5 bc 85 b6 09 bd 49 0f b4 3d 4e 55 ce 3b
       -0.022193987 -0.03362133 0.08791978 0.00629679
000020 4a 23 8f bc 7b cd cd 3c 92 7c 88 bb 22 62 00 3e
       -0.017472882 0.025122395 -0.0041652406 0.12537435
000030 51 c4 72 3d 98 60 cd 3d 5e f6 3c bc 92 76 64 3d
       0.059269253 0.100281894 -0.011533348 0.05577714
000040 be f1 10 3e a2 0f 41 bd 32 01 22 bd 84 27 b2 bd
       0.14154717 -0.04713405 -0.03955192 -0.08698943
000050 6f 3b dd 3d fe db f6 3c d7 9d 95 3d b2 34 4b 3d
       0.10802352 0.030134197 0.07305496 0.0496108
000060 f3 79 11 be c6 b2 44 3d 82 e7 a2 bc 73 6f 87 be
       -0.14206676 0.048022054 -0.019885782 -0.26452217
000070 bd 48 b1 3d 6a bf 27 3c c3 4e 5d bd 97 14 e7 bd
       0.08656452 0.010238508 -0.05403019 -0.11283224
000080 81 8a c3 bd 93 14 4c 3d e8 0c 11 be 2c 48 4f 3d
       -0.09547902 0.04982431 -0.1416508 0.050605938
000090 76 c6 70 3c 1b a9 22 bd 67 54 52 3d a9 b6 08 3e
       0.014695754 -0.039712053 0.051350024 0.1335093
0000a0 30 23 be 3c ff f3 42 bd 3e 0f 5d bc fd 59 d2 bd
       0.023210138 -0.047595974 -0.013492404 -0.1027107
0000b0 e3 fa 08 be 62 4e 46 be d8 53 ba bc c1 c4 45 bd
       -0.13376956 -0.19365838 -0.022745058 -0.048283342
0000c0 18 98 e0 3d d0 ea 1e 3e 0d 2c 99 3d 9a 37 d8 3e
       0.109665096 0.15519261 0.07479105 0.4222992
0000d0 df f0 47 3e 59 56 3a 3e ae 7e a8 3d 37 39 48 bd
       0.19525479 0.18197002 0.08227287 -0.04888269
0000e0 88 da ed 3c 91 fa 16 3c c6 67 96 3e d3 f8 d1 3d
       0.029034868 0.009215013 0.29376048 0.102525376
0000f0 1b 55 c1 3c 73 f7 95 3d b9 34 49 3c f3 aa a2 bd
       0.023600152 0.07322588 0.0122806365 -0.07942762
000100 a1 50 1d 3e 00 f4 88 3d 62 09 ad 3d 78 08 ec 3c
       0.15362789 0.06687164 0.08449055 0.028812632
000110 72 81 a8 bd f4 2b ae 3d 47 c0 66 be 22 d9 d3 bb
       -0.08227815 0.08504477 -0.22534285 -0.006465093
000120 21 ac 99 3c cb 26 d3 bd b4 8e 17 be 06 88 8d 3c
       0.018758835 -0.103101335 -0.1480053 0.017276775
000130 34 28 d8 3d 25 dd 9d bd 7f 7b 6a bd 2d b5 af bd
       0.10554543 -0.077081956 -0.05724668 -0.085794784
000140 e5 1e dd bd 05 e2 2d 3d 0d 7d d0 3d 17 48 40 3e
       -0.10796908 0.042451877 0.101801015 0.187775
000150 60 b8 f4 3d b9 f6 cc bd 70 6b c2 bd 9b 71 54 bc
       0.11949229 -0.10007996 -0.09493148 -0.012966539
000160 d5 73 a8 3d bb c2 4a 3d 3e 96 d8 3d 79 c8 cb 3d
       0.08225218 0.049502116 0.105755314 0.099503465
000170 45 48 c1 3c 05 68 34 3d d6 72 09 bc 20 53 da bd
       0.023594031 0.044044513 -0.008389195 -0.10660386
000180 6b a0 93 3c ed 74 08 3e 6e ca e7 3d d9 b0 f7 3d
       0.01802083 0.13325854 0.11317907 0.12094278
000190 ce 69 0f 3e d0 dd 0a be 3a a0 c7 3d 5f d7 86 3d
       0.14005205 -0.13561177 0.09747358 0.065840475
0001a0 88 8c fb 3d 33 e1 a4 3d 4d 81 62 3d d3 3e 47 be
       0.122826636 0.08050766 0.055299092 -0.1945756
0001b0 54 a4 43 be 14 c1 36 be 7d 9f 92 3e 6b 47 e2 3d
       -0.19105655 -0.17847091 0.28637305 0.11048778
0001c0 05 50 c3 3d c5 85 81 bd 6e 39 86 bd d2 0a bf bd
       0.09536747 -0.06324343 -0.065539226 -0.09328236
0001d0 fd f1 37 bd fd fe 15 3f 8a de 39 3e 67 7e 19 3d
       -0.044908512 0.58592206 0.18151298 0.037474062
0001e0 51 56 ca bc 89 56 4f 3d 5f 82 74 bc 62 42 00 bd
       -0.024699362 0.050619636 -0.014923661 -0.031313308
0001f0 eb 93 d8 3e 05 5b 98 be f2 8d 7c 3d 75 69 d4 3d
       0.42300352 -0.29756942 0.061658807 0.10371677
000200 2a 45 82 3e 4d 01 44 3d 05 2b 8a 3c dc d6 e1 bd
       0.25443393 0.047852803 0.016866216 -0.11027309
000210 89 2f 3d be 84 fd d1 3d 08 82 0b 3e f0 4a 2e 3e
       -0.18475164 0.102534324 0.13623822 0.17020774
000220 5f d6 a7 bc 10 71 10 bd fd 5f 51 be 53 b7 c4 3d
       -0.020487962 -0.035264075 -0.20446773 0.09605279
000230 4c 2c 03 bd c2 0c 95 3d 49 fe 8f 3d b0 33 a2 3c
       -0.032024667 0.07277824 0.07030923 0.019800037
000240 cc 02 23 bb 5b 6a b8 bc 95 1d db 3d c0 75 86 bb
       -0.0024873493 -0.022511652 0.10699002 -0.0041033924
000250 97 d5 d8 3a f4 ec 04 3d 50 df 2f 3d 58 a4 4b 3c
       0.0016543147 0.03245254 0.042937577 0.012429319
000260 70 f9 1e 3c 01 a6 43 bd 7e 4a 1d bd aa 63 02 3d
       0.009703025 -0.047765736 -0.03840112 0.03183333
000270 b6 86 9f 3c f8 64 0e 3c cb 5e d3 bc c4 5f 7e bc
       0.019473415 0.008691065 -0.025802037 -0.015525762
000280 09 2a b0 bc 41 47 69 3c d3 b6 a5 bc f8 c3 66 3c
       -0.021504419 0.01423818 -0.020228779 0.0140848085
000290 30 d3 1f bc b3 bb f2 bc d8 62 37 bc 4a f3 25 3d
       -0.009754941 -0.029630518 -0.011193 0.04051522
0002a0 6c 21 33 3c 76 d5 57 3d 1f 7c 42 3d 66 b0 11 3d
       0.010933261 0.052693807 0.047481652 0.035568617
0002b0 4e f8 32 3d e6 5c c0 bc 3c e2 f0 3c 1f e2 d4 bb
       0.043693833 -0.023481797 0.029404752 -0.0064966823
0002c0 9c ba 0c 3c 52 e7 a0 bc 3c a6 26 bd be 7d 3e 3d
       0.008589413 -0.019641552 -0.040685877 0.046506636
0002d0 38 83 d9 3c 56 4e 05 bd a4 71 00 bc b6 d6 f3 bc
       0.026551828 -0.03254541 -0.007839594 -0.029765468
0002e0 84 2b 4a bd 3f 76 c2 3c 60 3e a5 3b 68 0a a4 bb
       -0.049357906 0.023738025 0.005042836 -0.0050061233
0002f0 54 d3 c5 3c 68 a2 93 bc ed d3 a7 3c fd 78 ff bb
       0.02414862 -0.018021777 0.020486796 -0.0077964053
000300 98 e9 2d bd 42 0f 26 bd 00 9c fb ba a2 46 3b 3d
       -0.0424591 -0.040541895 -0.0019196272 0.045721658
000310 1d 61 b6 3d ac aa f3 3d a7 a2 06 be 30 54 72 be
       0.08905242 0.118977875 -0.13147984 -0.23664927
000320 cf f6 54 3f 94 0d 96 3f a7 ec 10 3f 3e 70 b0 bb
       0.831891 1.1722894 0.566111 -0.005384474
000330 4c e3 2d be cf 2a 8a bc 2d f3 a4 3b 50 a6 7f 3d
       -0.16981238 -0.016866116 0.0050338716 0.062414467
000340 fb 4d 30 3e 9f bd 99 3d 35 4d c0 bc 92 38 31 be
       0.17217247 0.075068705 -0.023474315 -0.17306736
000350 6e 02 aa be f4 54 50 be fd e1 6e bd d2 a7 6a 3e
       -0.3320498 -0.20344907 -0.058320988 0.22915581
000360 97 39 f6 bb 93 16 33 bd d5 6e 3c be e7 cc 8b bc
       -0.0075141895 -0.0437227 -0.18401654 -0.017065478
000370 92 5e 99 3d d0 50 f6 3c cf 3e 2b bc c7 19 95 be
       0.07488741 0.030067831 -0.010451986 -0.2912123
000380 fe 5d f9 3b a0 87 97 3c ec 42 d9 bd 14 a2 5c bb
       0.0076100817 0.018497288 -0.106084675 -0.0033665942
000390 e7 25 6a 3d f3 c4 bf 3a 4a 14 6e bc 26 f1 ac 3d
       0.057165053 0.0014630839 -0.0145312045 0.08444433
0003a0 29 de 05 3e c9 49 96 3d 85 88 49 3d 54 e3 bc 3d
       0.13073029 0.07338292 0.04920246 0.09223047
0003b0 81 5d 0e bc 10 0c 6c 3c 14 20 b1 bd 9e 89 fa bc
       -0.008689285 0.014407173 -0.086486965 -0.0305832
0003c0 85 50 8b 3d 88 3f 32 bd b0 ee 12 3c 77 e8 70 bc
       0.06802467 -0.04351762 0.00896804 -0.014703861
0003d0 ec 0a 73 3d 1b ac f7 bc 3a ec 41 bd b1 10 76 3c
       0.059336588 -0.030233433 -0.047344424 0.015018628
0003e0 d7 20 1e bd c5 66 1e bd d5 cf 63 3d f4 d5 f7 3b
       -0.038605537 -0.038672227 0.055618126 0.007563347
0003f0 14 dc af bc 91 e9 90 bc 63 fd f7 bb bd 48 2a bd
       -0.021467246 -0.017689498 -0.007568048 -0.041573275

fc.0.bias f4 [2]
000000 0f e7 c5 3d ce 3e d4 3c
       0.096632116 0.025908854

fc.2.weight f4 [10, 2]
000000 bd ec 83 3e 82 ec b0 3d df ab 4c bf f9 e8 0a 3f
       0.25766554 0.0863886 -0.79949754 0.5426174
000010 92 49 72 bf 80 ee 39 3f 87 ff 0b bf a6 16 23 3f
       -0.9464351 0.7262955 -0.5468678 0.63706434
000020 b7 29 24 3f b0 fb 3a bf a9 d6 a0 bd ce 79 c4 3e
       0.6412615 -0.73040295 -0.07853443 0.3837418
000030 34 ed fc 3e cf 58 5f be f8 76 9e be 88 a8 0f 3d
       0.49399722 -0.21811222 -0.3095014 0.035072833
000040 83 74 42 be 02 ae c1 3e e3 8a ab 3e 97 1b 79 be
       -0.18989758 0.3782807 0.335044 -0.24326931

fc.2.bias f4 [10]
000000 f9 a3 cf bf 13 ec cf 3f 86 53 ba bf 72 08 e0 bf
       -1.6221915 1.6243919 -1.4556739 -1.7502577
000010 1d fc 38 bf 21 83 08 c0 e2 1b a3 bf 0f fb 3a 40
       -0.72259694 -2.1330035 -1.2742884 2.9215734
000020 b0 4c 15 3f 2a 22 e1 3f
       0.5832014 1.7588551

exp_avg f4 [16, 1, 3, 3]
000000 08 dd cf b8 84 d1 16 b9 a4 0e 38 b8 9e 2c 5c 39
       -9.9116995e-05 -0.00014383165 -4.3882654e-05 0.00020997456
000010 c4 e3 2c ba b1 62 f1 b9 68 0e 71 b8 e6 7c 80 ba
       -0.0006595219 -0.00046040633 -5.7472294e-05 -0.0009802848
000020 71 3f 2d ba a9 9e 17 3a 53 1a 6b 3a 55 dc be 3a
       -0.000660888 0.0005783835 0.0008968461 0.0014561514
000030 98 99 20 38 98 1b 6a 39 ae 24 9a 3a 4e a4 06 ba
       3.8290018e-05 0.00022326258 0.0011760199 -0.00051361776
000040 c6 9e 01 ba 95 2d 52 b9 1c 1e 52 3a 74 1e 65 ba
       -0.00049446186 -0.00020044141 0.0008015351 -0.00087401946
000050 bd 4d 1a bb 52 82 24 3a 63 0c 63 ba 39 94 ca ba
       -0.002354487 0.0006275523 -0.00086612086 -0.0015455551
000060 10 63 dd 39 a0 80 d5 b8 4d 5c 93 ba b5 63 9d 39
       0.00042226212 -0.0001018059 -0.0011242718 0.0003001966
000070 d4 c8 eb b9 c4 1e 12 ba 08 88 e6 b8 b2 0a 9d ba
       -0.00044972321 -0.00055740424 -0.000109925924 -0.0011981337
000080 85 8b 8c ba af fd 77 ba bc 42 e6 ba f6 2e f6 ba
       -0.0010722732 -0.0009460104 -0.0017567496 -0.0018782306
000090 56 d1 5b 3b a6 8d 9a 3a b5 c9 af 3a 9a 2d 2c 3b
       0.0033541522 0.0011791482 0.0013411554 0.0026272298
0000a0 3c 10 ba 3a 60 af 2d 3a 68 8b 8d 3b f2 8a 3b 3b
       0.0014195512 0.0006625559 0.004319597 0.0028616753
0000b0 32 c4 2f 3b 05 28 15 3c a5 3f 2c 3b 64 03 d4 bb
       0.0026819822 0.00910378 0.0026283052 -0.0064701308
0000c0 5a 47 d6 3b ad 84 15 3b 12 fc a2 bb f7 ef 3b 3b
       0.0065392675 0.0022814677 -0.004973897 0.0028676966
0000d0 bc 44 32 ba 08 dd 83 bb 4c ae e8 b9 88 0f 94 ba
       -0.00068004034 -0.0040241517 -0.0004438035 -0.0011296133
0000e0 2c 7e 30 ba 9c 9e 05 ba a2 ad c0 ba 80 ac c5 ba
       -0.0006732668 -0.0005097182 -0.0014700184 -0.0015081316
0000f0 80 e7 b4 36 34 16 aa ba 93 b1 b9 ba 4a e9 8e ba
       5.391368e-06 -0.0012976588 -0.0014167301 -0.0010903266
000100 e5 3b 24 ba 88 2e 92 b9 d0 48 cf 38 6c 80 4f b9
       -0.00062650285 -0.00027881959 9.8840916e-05 -0.00019788899
000110 d2 51 18 ba 64 37 f3 3a 7b b9 e6 39 de 35 d4 39
       -0.0005810532 0.0018555936 0.00044007212 0.00040475925
000120 ee f3 87 3a e8 d5 42 39 64 9f 38 ba 5c d2 56 3a
       0.0010372379 0.00018580968 -0.0007042794 0.0008194798
000130 f8 59 e7 39 f1 0c 10 bb 58 53 52 3a 70 ad 78 ba
       0.00044126785 -0.002198037 0.00080232834 -0.00094862934
000140 ea 56 d5 ba 45 eb 05 bb 7b 7d 28 3b 20 d8 fd b8
       -0.0016276513 -0.002043442 0.0025709558 -0.000121042365
000150 04 65 06 3a 8f 50 3e 3b 73 41 c6 3a fa 38 a6 ba
       0.0005126747 0.0029039716 0.0015125707 -0.0012681775
000160 90 2c 55 b9 32 6a af 3a bc f5 43 b9 d4 0c 4a ba
       -0.00020329864 0.0013383089 -0.00018688192 -0.00077076
000170 47 82 c4 b9 24 cc 99 38 00 a3 60 ba e5 13 00 ba
       -0.00037481097 7.333633e-05 -0.0008569211 -0.0004885777
000180 a0 90 5c b8 08 3f ab ba d6 60 4a ba 43 87 8d ba
       -5.258678e-05 -0.001306505 -0.0007720118 -0.0010797757
000190 cf 27 ec ba 56 60 0d bb fd 8d c4 b9 87 91 02 bb
       -0.0018017235 -0.0021572313 -0.00037489823 -0.0019923167
0001a0 1c 42 0e bb 5f 83 09 3a c7 05 f1 ba 31 f0 a4 ba
       -0.0021706885 0.0005245711 -0.0018388563 -0.001258379
0001b0 ac 48 61 b9 08 0d 2f ba 41 30 0e ba cf da 81 39
       -0.00021484745 -0.0006677662 -0.00054240605 0.00024767822
0001c0 ca 62 12 ba ac df 7c ba 73 be 96 39 d6 17 9c ba
       -0.0005584179 -0.0009646367 0.00028752125 -0.0011908959
0001d0 d6 6c 95 ba 40 75 34 ba 04 c1 ee ba 70 96 f6 ba
       -0.0011400233 -0.00068839267 -0.0018215482 -0.0018813144
0001e0 44 54 f7 b9 5a c6 f5 ba c3 30 12 bb de fc 78 b9
       -0.00047174294 -0.001875113 -0.0022306896 -0.00023745323
0001f0 54 0e cb ba 70 5e d6 ba 30 3b ce 36 dc 85 31 ba
       -0.0015491941 -0.0016355049 6.1461687e-06 -0.0006771961
000200 de ae 85 ba db 44 ab b9 d9 85 c4 ba f9 b6 03 bb
       -0.0010199209 -0.00032666963 -0.0014993503 -0.0020098074
000210 8a 5c 53 ba b2 3f eb ba 2c e7 01 bb c8 83 d6 3a
       -0.00080628006 -0.001794806 -0.0019821627 0.0016366178
000220 68 e9 cf 3a 20 3a a2 3a 54 3c 1f 3b 8f ba 10 3b
       0.0015862407 0.0012376942 0.0024297433 0.0022083854
000230 47 d3 a0 3a b5 37 42 3b e6 36 df 3a 54 b7 00 3b
       0.0012269997 0.0029635255 0.0017029911 0.0019640522

exp_avg_sq f4 [16, 1, 3, 3]
000000 e6 d2 13 38 9f 7d 37 38 99 42 1e 38 ef bc 25 38
       3.5243946e-05 4.3747594e-05 3.773216e-05 3.9515024e-05
000010 0a fc 21 38 03 c7 d7 37 e8 c8 99 38 d4 32 8a 38
       3.862012e-05 2.572267e-05 7.33303e-05 6.58982e-05
000020 dc 49 0b 38 07 7e e9 38 b3 b0 9a 38 f7 72 ea 37
       3.320897e-05 0.0001113378 7.376205e-05 2.7948508e-05
000030 d2 05 1e 39 9b 01 b1 38 ef 15 df 37 50 c7 3f 39
       0.00015070222 8.440317e-05 2.6593885e-05 0.00018289429
000040 41 48 b5 38 15 f9 b1 37 98 62 47 38 6f ff 6e 38
       8.644211e-05 2.1216032e-05 4.753712e-05 5.6981513e-05
000050 3a 57 ad 38 a1 db e7 36 7f 0c b0 36 56 d9 a0 37
       8.26553e-05 6.9099046e-06 5.2466635e-06 1.9174691e-05
000060 82 18 25 35 d1 7d 74 35 b4 19 3b 37 d4 55 9b 38
       6.1502953e-07 9.108017e-07 1.1152053e-05 7.406963e-05
000070 20 88 b3 38 fc d6 c0 38 2d 7a 59 38 d4 56 83 38
       8.5607404e-05 9.1953174e-05 5.1850617e-05 6.26274e-05
000080 70 11 8c 38 e8 4e 9e 37 00 e6 c4 37 b6 88 f7 37
       6.678968e-05 1.8871811e-05 2.3472123e-05 2.9508356e-05
000090 0e d9 2b 39 47 d8 38 39 46 6f 84 39 0e 93 02 3a
       0.0001638869 0.00017628177 0.00025259907 0.00049810193
0000a0 8a eb 28 3a 21 53 3b 3a 81 43 44 3a 93 6d 52 3a
       0.00064437895 0.0007145871 0.00074868655 0.0008027192
0000b0 99 47 4e 3a 4b fd 94 3b 6e 17 a5 3b f1 47 c1 3b
       0.0007868945 0.0045467964 0.0050381934 0.0058984687
0000c0 36 e3 e6 3a 1c 3a e2 3a 71 c6 1f 3b 8c a0 83 39
       0.0017615322 0.001725975 0.0024379755 0.00025105884
0000d0 e6 8b ce 39 57 11 75 3a 30 8e 76 38 6c 7f 5c 38
       0.00039395614 0.0009348592 5.8783393e-05 5.257076e-05
0000e0 b9 df 43 38 d3 01 b8 38 bc 50 99 38 14 e1 7a 38
       4.669998e-05 8.7741435e-05 7.3106465e-05 5.9814265e-05
0000f0 a3 2d 55 38 69 18 18 38 37 4e 0a 38 c1 d9 6a 38
       5.082566e-05 3.6262358e-05 3.2974607e-05 5.5992747e-05
000100 a6 96 aa 38 f6 b6 a5 38 e7 ea 9c 37 12 4d b4 37
       8.134292e-05 7.901892e-05 1.8706034e-05 2.149356e-05
000110 4b 8a a3 37 58 e4 70 37 d4 f1 83 37 19 6a 8e 37
       1.9495512e-05 1.435828e-05 1.5729027e-05 1.6977125e-05
000120 f6 21 f6 39 45 2e 21 3a bd f1 4c 3a 76 77 f2 39
       0.0004694608 0.00061485573 0.0007818004 0.00046246842
000130 20 f7 0d 3a d8 87 26 3a 80 5c 2d 39 b3 0e 3e 39
       0.00054155476 0.000635264 0.00016533025 0.00018125288
000140 f0 31 85 39 4d 45 ef 3b 3b 99 c5 3b d6 82 17 3b
       0.00025404943 0.0073019625 0.0060302294 0.0023118756
000150 ee 18 0e 3c 4e f1 95 3b fa 08 59 3a f3 6a fa 3b
       0.008672936 0.004575885 0.00082792307 0.007642144
000160 fc ef 4c 3b 98 ff 29 3a 84 06 c5 37 80 1f 01 38
       0.0031270972 0.0006484925 2.3487264e-05 3.0785333e-05
000170 72 d2 06 38 78 ce 82 37 0f 30 a6 37 b0 81 b0 37
       3.2144082e-05 1.5593352e-05 1.9811121e-05 2.1041225e-05
000180 66 3e 00 38 e0 b6 22 38 2c c4 10 38 f5 5a b6 37
       3.057569e-05 3.8794125e-05 3.4514975e-05 2.1738446e-05
000190 df 92 03 38 4c f9 27 38 e2 7d 93 37 6f 6a a4 37
       3.136962e-05 4.004808e-05 1.7582384e-05 1.9599885e-05
0001a0 04 09 bf 37 3e 24 9d 37 5d ad cf 37 0d b6 e3 37
       2.2773173e-05 1.8732735e-05 2.4757052e-05 2.7145283e-05
0001b0 bd 76 18 38 05 65 83 38 0e fc 99 38 ba 3d 55 38
       3.6350208e-05 6.265383e-05 7.3425574e-05 5.0840645e-05
0001c0 4e 3d 87 38 cf 86 5d 38 dc 42 9a 38 e7 18 95 38
       6.4487205e-05 5.2816056e-05 7.355746e-05 7.109512e-05
0001d0 14 3a 37 38 aa e6 13 37 cf f3 42 37 fe 76 5e 37
       4.368469e-05 8.815588e-06 1.1620067e-05 1.3259936e-05
0001e0 e9 c1 fd 36 41 4a 45 37 f9 84 60 37 ed fe 27 37
       7.5625617e-06 1.1759404e-05 1.33824005e-05 1.001333e-05
0001f0 a4 37 78 37 16 8d 58 37 ee ad f4 35 0e c0 d4 36
       1.4794907e-05 1.2907452e-05 1.8230037e-06 6.3404505e-06
000200 8d aa 86 38 de 94 9a 35 9e ed c3 37 37 de 26 39
       6.4213855e-05 1.151722e-06 2.335646e-05 0.00015913775
000210 88 97 81 37 d4 64 ad 38 a4 2f 5b 39 a6 3a e2 38
       1.544856e-05 8.2680635e-05 0.00020903215 0.00010787444
000220 3d 04 d1 38 1c ce 4e 38 0e e6 5a 38 ab 71 2c 38
       9.966686e-05 4.930618e-05 5.2189505e-05 4.1113857e-05
000230 74 d2 2b 38 21 dc 47 38 70 dd 3b 38 42 0b 88 38
       4.0965577e-05 4.765031e-05 4.4790504e-05 6.487082e-05

exp_avg f4 [16]
000000 c2 7b 85 3b 04 dc 29 3b 36 2d a5 bb ff d6 f4 ba
       0.004073591 0.0025918493 -0.00504079 -0.0018679796
000010 8c c4 d9 3a 16 31 c3 bc ee 77 c3 3a e8 ab cc 3a
       0.0016614362 -0.023827117 0.0014913061 0.0015615197
000020 6a 25 ca bb f0 2a 8c 3b 9a 96 7d 3b 41 50 11 bb
       -0.006169011 0.0042775795 0.0038694502 -0.002217308
000030 20 7f 4b 3b 02 5d a4 b9 92 1e 89 3b 27 ce fc 3b
       0.0031051114 -0.00031349814 0.0041845525 0.007715005

exp_avg_sq f4 [16]
000000 26 fe e8 3a 14 c7 4a 3b c8 40 f4 3a 8f 22 39 3a
       0.0017775937 0.0030941414 0.0018635029 0.00070623396
000010 52 db 2f 3b ba 0e 8c 3d 83 c5 9b 39 3a 63 b9 39
       0.0026833606 0.06838746 0.00029711062 0.0003535988
000020 00 da 4b 3b 3c 57 77 3c 04 eb a2 3a 87 32 b0 39
       0.003110528 0.015096482 0.0012429659 0.00033606982
000030 17 31 dc 3a ff e6 90 3a 82 ba 88 3b b1 dc 72 3a
       0.0016799298 0.001105517 0.004172624 0.0009264453

exp_avg f4 [8, 16, 3, 3]
000000 ca 05 1d 3b a4 70 dc 3a 19 72 84 3a 6c 24 9b 3b
       0.002395975 0.0016818237 0.0010104805 0.0047345664
000010 9a 9a 0e 3b 8a 06 a7 bb 19 42 73 3b 29 6c 1a ba
       0.002175963 -0.005097215 0.0037118255 -0.0005890751
000020 e4 15 76 bb 14 c1 2d 3a 72 62 96 3a fa a2 0d 3b
       -0.003754967 0.0006628197 0.0011473431 0.0021612034
000030 86 40 29 3b 3c 4c 4e 3b ec 70 05 bb c5 3e 2b 3b
       0.0025825812 0.0031478545 -0.0020361496 0.0026129943
000040 10 f9 ac 3a 0c 93 43 bb 33 80 4b ba 02 0e 50 39
       0.0013196785 -0.0029842285 -0.00077629386 0.00019841644
000050 82 40 4f 39 b0 25 a5 b9 47 a2 08 ba 76 67 bf 38
       0.0001976509 -0.00031499332 -0.00052121695 9.126861e-05
000060 c6 f8 0d 3b b3 7f d6 3a 5e 32 61 ba 79 02 87 3a
       0.0021663173 0.0016364962 -0.0008590574 0.001030042
000070 bd 97 20 3a 72 ea 35 3a 44 93 89 3b 83 f5 c2 39
       0.00061261264 0.0006939537 0.0041984636 0.00037185484
000080 92 6d 84 bb 02 15 5a 3b a4 56 21 b9 66 3d 26 bb
       -0.004041382 0.0033276682 -0.00015386433 -0.0025366186
000090 ac 9b 3e 3b 83 6d ae 3a 05 9c 21 bb ca d2 55 3b
       0.0029084487 0.0013307784 -0.0024659645 0.003262686
0000a0 c9 f2 85 39 2e b1 62 bb 34 aa c8 3a 26 b5 20 ba
       0.00025548626 -0.003459047 0.0015309514 -0.0006130509
0000b0 20 c2 87 38 6f 5f 8a b9 5d 18 d8 b9 9a 19 5d b9
       6.47346e-05 -0.00026392515 -0.00041216883 -0.0002108574
0000c0 86 a8 d9 3a d4 a6 ab 38 ae f6 d5 b9 c6 98 33 3b
       0.001660601 8.1849896e-05 -0.00040810317 0.0027404292
0000d0 d3 06 ca 3a 98 59 96 ba 07 cc 6a 3b cc 04 7c 3a
       0.0015413411 -0.0011470793 0.0035827176 0.0009613752
0000e0 53 13 93 ba 9c a5 cd 3b 63 70 25 3a 39 89 c7 bb
       -0.0011220969 0.0062758457 0.00063109974 -0.0060893563
0000f0 da c0 89 3b 2c a1 57 ba 7c c2 58 bb 16 24 de 3b
       0.004203898 -0.00082256156 -0.0033074906 0.006779204
000100 87 ca e9 3a 22 19 ba bb 06 57 02 3c 64 3a 15 3a
       0.0017836847 -0.0056792656 0.007955318 0.00056926
000110 8e c9 e8 bb 7b 09 53 3b b4 7e 16 bb 98 cd 17 bb
       -0.0071041053 0.0032201696 -0.0022963705 -0.0023163315
000120 10 3e f1 b7 be 72 72 39 25 29 a9 3a 9d c4 56 3b
       -2.8758339e-05 0.00023121663 0.0012905939 0.0032771
000130 0b 64 9f 3a aa b5 1c bb eb eb 45 3b a2 d4 19 3a
       0.0012160552 -0.002391199 0.0030200433 0.00058681716
000140 0c d1 19 bb 82 a2 8d 3a 1d 3d f7 39 7b 17 08 b9
       -0.002347055 0.0010805877 0.00047157044 -0.00012978718
000150 c7 ba 05 39 d4 20 01 3b 72 cb 79 b9 38 f0 e8 39
       0.00012753448 0.0019703405 -0.0002382228 0.00044429465
000160 b2 43 34 3a b9 46 06 bb 61 63 8d 3b 51 40 de 3a
       0.00068765425 -0.0020488931 0.0043148254 0.0016956424
000170 9f 21 2f ba 64 dd f7 3b 1d 65 d1 3a 15 d3 fd bb
       -0.000668073 0.0075642336 0.0015975569 -0.00774611
000180 30 3c ad 3b f1 cd 8b ba cf 06 95 bb e2 c3 a4 3b
       0.005286716 -0.0010666234 -0.004547931 0.005028234
000190 d0 28 ab 3a 5e 9b 4f bb 3f f4 da 3b 78 7f 1e 39
       0.0013058428 -0.00316783 0.0066819484 0.0001511554
0001a0 a1 4e d4 bb 06 4a 5b 3b bc e5 19 bb 08 3e 48 bb
       -0.0064791 0.003346087 -0.002348288 -0.0030554552
0001b0 98 e3 10 3b fe fa 82 3a d4 d5 8c ba fa d7 61 3b
       0.0022108313 0.0009993014 -0.0010744878 0.0034461007
0001c0 d8 60 c3 39 25 2c 6e bb ab 1c 06 3b fe bb 9c ba
       0.00037265453 -0.003634223 0.0020463865 -0.0011957882
0001d0 19 c4 e0 ba 3a 9e b6 3a 68 45 f0 38 a6 4f 8f ba
       -0.0017148285 0.0013932653 0.0001145702 -0.0010933771
0001e0 e3 03 5a 3b 9a 6a aa ba f6 ca 5d bb 8e c2 db 3a
       0.0033266477 -0.001300174 -0.0033842898 0.0016766356
0001f0 a8 76 f9 ba 92 9b 90 ba d4 97 3a 39 1d de 20 3a
       -0.0019032555 -0.0011032692 0.00017794903 0.0006136613
000200 cb 85 ac ba 7b 1b 41 3a 20 b2 2e bb 92 82 ba b9
       -0.0013162432 0.00073664606 -0.0026656464 -0.00035573967
000210 8b b8 ce b9 9f bb b9 ba 11 68 19 3b 0f 50 89 3b
       -0.00039428877 -0.0014170295 0.0023407976 0.004190452
000220 ed 25 db 3a 37 af 5f bb 45 5b 80 3b e7 13 a8 3a
       0.0016719677 -0.0034131536 0.00391713 0.0012823314
000230 44 86 61 bb 5e da d3 3a 78 e8 90 39 ec 71 8c ba
       -0.0034412304 0.0016163101 0.00027639023 -0.0010715104
000240 72 52 17 bb 86 00 51 3b 8e 2f 79 3b f2 dc 22 bb
       -0.0023089913 0.003189118 0.003802273 -0.0024850932
000250 19 3a 4e 3a ea 16 08 3b d6 3d b4 ba a2 8e 4e ba
       0.00078669336 0.002076561 -0.0013751339 -0.00078795303
000260 9c 6f 17 b9 e6 e7 8d ba 99 54 16 3b e4 9e 13 3b
       -0.0001444206 -0.0010826557 0.0022938608 0.0022525126
000270 da 36 65 ba ac 17 d4 3a 6d 33 13 3b cc 0f 09 ba
       -0.000874383 0.0016181371 0.0022461072 -0.0005228489
000280 e4 d3 40 39 04 0e 05 3a 1d 81 f1 3a a2 46 bc 3a
       0.00018389482 0.0005075636 0.001842532 0.0014364312
000290 8e 75 77 3a 22 e8 f7 3a f0 28 35 3b 40 14 1a 3b
       0.0009439819 0.0018913785 0.002764281 0.0023510605
0002a0 80 80 88 3a a2 8c 8f 3a c1 f0 bf 3a 28 82 aa b9
       0.0010414273 0.0010951946 0.0014643894 -0.000325219
0002b0 46 66 4c 3b 22 7b 70 3b 8a 53 8d ba 22 f8 fe 3a
       0.003118889 0.0036694487 -0.0010782343 0.0019452611
0002c0 0e 1a 64 3b 08 7a ba ba 72 71 ae b9 56 f6 b9 39
       0.003480557 -0.0014227042 -0.0003327239 0.00035469484
0002d0 98 da 46 b7 58 12 b9 3a 0a 06 ec 3a ba de 9a ba
       -1.1852615e-05 0.0014119847 0.0018007171 -0.0011815645
0002e0 bc e4 e3 b9 a7 ca 7c 39 f2 9c 8d 3a c0 15 8c 37
       -0.00043467234 0.00024108087 0.001080422 1.6699429e-05
0002f0 c0 88 23 36 58 c9 74 3a e7 cf 7c 3a cb 5f 0d 3a
       2.4368492e-06 0.0009337864 0.0009644017 0.00053929974
000300 34 d0 47 3a a8 85 c8 3a 7a 8f ec 3a 58 fd 42 39
       0.0007622272 0.0015298622 0.001804813 0.0001859566
000310 7c 9b 67 b9 69 28 0e 3a 62 55 0f bb 43 04 82 3b
       -0.00022087799 0.00054228917 -0.002187096 0.003967793
000320 f1 14 b9 3b 7c d5 73 bb b5 58 89 3a 62 0f 56 3b
       0.0056482484 -0.0037206104 0.0010478707 0.0032662977
000330 6e 6f 2e bb ee 01 98 ba 20 b5 56 ba a8 fd f9 ba
       -0.002661671 -0.0011597255 -0.0008190442 -0.0019072788
000340 50 c2 6d 3b 20 bc ac 3b 3e 44 7b bb 73 09 3e ba
       0.003627915 0.0052714497 -0.0038340236 -0.0007249333
000350 3e a5 c4 3a b8 07 0a ba db 83 06 ba 72 94 7a ba
       0.0015002859 -0.00052654324 -0.00051313423 -0.0009558863
000360 00 33 bb b7 87 78 10 3b 65 bb da 3a a7 1d a6 39
       -2.2315886e-05 0.0022044496 0.0016687928 0.0003168408
000370 5e e6 f8 3a 94 ed 3a 3b 8e 1d 40 ba e8 4d f7 b9
       0.0018989553 0.0028522955 -0.0007328623 -0.00047169556
000380 f8 cc f2 39 f2 c1 30 ba 88 60 0c 3a 66 a2 e4 39
       0.0004631055 -0.00067427673 0.00053549604 0.00043608545
000390 e6 05 8d ba 7f 00 30 ba 4a 34 12 ba fc cb 27 ba
       -0.0010759204 -0.0006713941 -0.00055772497 -0.00064009405
0003a0 b0 a9 1e 38 a4 19 86 b9 26 49 4d bb 4e c9 9c 3b
       3.782817e-05 -0.00025577575 -0.0031324117 0.0047847396
0003b0 32 7e d6 3b e7 06 92 bb 29 53 6b 3a bf 44 66 3b
       0.0065458054 -0.004456389 0.00089769304 0.003513619
0003c0 f6 40 3b bb 5a e3 aa ba 01 00 5b ba e8 49 03 bb
       -0.0028572655 -0.0013037727 -0.00083541876 -0.0020033065
0003d0 0c 05 69 3b 0e 48 a7 3b e3 d9 68 bb 46 fd 4f 39
       0.0035555987 0.005105025 -0.0035530261 0.0001983541
0003e0 49 e9 01 3b ab fc b3 ba be d0 55 ba 22 bf 3b ba
       0.0019822887 -0.0013731917 -0.000815641 -0.0007161965
0003f0 d2 5f 0c ba 1c fa 3f 3b 34 08 66 3b 91 97 a6 ba
       -0.00053548545 0.0029293364 0.0035100104 -0.0012709965

exp_avg_sq f4 [8, 16, 3, 3]
000000 e7 9d b0 38 d7 df 12 39 ad 80 dc 39 ac ea ec 38
       8.4217456e-05 0.00014007032 0.0004205754 0.00011297068
000010 65 c9 7c 39 84 54 fa 39 22 ce 28 39 6c d8 88 39
       0.00024107618 0.00047746685 0.00016098519 0.00026101188
000020 79 da 9c 39 8a 88 0f 38 79 96 51 38 4a df 28 39
       0.00029917413 3.422102e-05 4.996962e-05 0.0001610491
000030 84 f0 42 38 52 da e6 38 de 1d 88 39 f0 e1 99 38
       4.6477202e-05 0.0001100792 0.00025962194 7.337693e-05
000040 cc ed 15 39 e4 ca 42 39 2d 44 4b 37 d9 06 d4 37
       0.00014298334 0.00018576864 1.2115616e-05 2.5275558e-05
000050 44 84 e5 37 db 22 85 37 28 e9 0e 38 01 98 66 38
       2.7360518e-05 1.5871066e-05 3.4072582e-05 5.4977838e-05
000060 a4 e6 d8 37 fb c5 34 38 9a f7 2f 38 33 94 83 38
       2.5856607e-05 4.3099728e-05 4.195385e-05 6.274171e-05
000070 a0 af f7 38 cd e9 a8 39 56 06 b1 38 71 65 61 39
       0.000118105905 0.00032217652 8.441198e-05 0.00021495462
000080 b8 ee cc 39 6e dd 06 39 c5 4c 72 39 9b 2c 89 39
       0.0003908777 0.00012861725 0.00023107517 0.0002616391
000090 73 1d 24 38 a3 3f a1 38 1f 6e 3b 39 d3 94 a4 38
       3.9128074e-05 7.6889315e-05 0.00017874733 7.84785e-05
0000a0 f7 e7 ed 38 1b 86 ff 38 4c 06 8e 38 4f d4 9a 38
       0.000113442475 0.000121843266 6.7722605e-05 7.382838e-05
0000b0 19 0a 87 38 3c 2f f4 36 3f e9 1a 37 f0 9b b1 37
       6.4391825e-05 7.2772655e-06 9.233422e-06 2.1172658e-05
0000c0 58 9d 3f 37 bd b8 9b 37 36 56 34 38 73 c1 c1 37
       1.1421122e-05 1.8563465e-05 4.2995634e-05 2.3097475e-05
0000d0 93 ab d6 37 85 3a de 37 24 1e 0f 39 8d 1e 7f 39
       2.5590683e-05 2.6491713e-05 0.00013648771 0.00024330076
0000e0 9c 1d 33 3a ea 36 3f 39 36 19 c4 39 84 56 32 3a
       0.000683272 0.00018235637 0.00037402817 0.0006803053
0000f0 71 ff 86 39 52 16 ce 39 0a 84 ea 39 f4 37 53 39
       0.0002574879 0.00039308012 0.00044730335 0.00020143372
000100 04 95 d8 39 65 86 87 3a 49 57 a9 39 7d 52 16 3a
       0.00041309756 0.0010339735 0.00032299224 0.00057343376
000110 54 2b 55 3a 44 17 bd 39 67 ef 04 3a d0 3a 02 3a
       0.00081317616 0.00036066223 0.0005071074 0.000496787
000120 36 21 d3 37 a9 e4 26 38 53 6d ed 38 62 fe 19 38
       2.5168625e-05 3.979044e-05 0.00011321404 3.6714955e-05
000130 5d 5f 9f 38 3b d4 2d 39 82 48 86 38 89 91 b7 38
       7.5994736e-05 0.00016577628 6.4031236e-05 8.753228e-05
000140 d1 ab c1 38 55 86 b0 36 60 46 e0 36 96 a0 90 37
       9.2349605e-05 5.260847e-06 6.683913e-06 1.7240916e-05
000150 66 9d d9 36 ee 55 54 37 29 56 ec 37 5b cc 0f 37
       6.4854275e-06 1.2656192e-05 2.8173514e-05 8.571044e-06
000160 69 73 9e 37 f8 b1 05 38 bd ac 52 39 c7 ef b7 39
       1.888881e-05 3.1875417e-05 0.0002009151 0.00035083128
000170 ed 19 85 3a 91 8e 8c 39 46 21 13 3a 09 2a 89 3a
       0.0010154821 0.000268091 0.0005612563 0.0010464798
000180 81 33 c7 39 ca b3 19 3a ff e6 2e 3a 7c 02 1c 39
       0.0003799461 0.00058632775 0.00066719943 0.00014878245
000190 c8 90 9e 39 cd dd 53 3a 60 59 61 39 2c c0 e7 39
       0.0003024398 0.0008082062 0.00021490967 0.00044202933
0001a0 96 ce 3c 3a bc d0 90 39 f9 a6 de 39 ab 08 ea 39
       0.00072024146 0.0002762134 0.00042467544 0.00044638416
0001b0 4a f9 7b 38 52 01 11 39 43 32 b8 39 0a 53 be 38
       6.0075232e-05 0.0001382877 0.00035132663 9.075373e-05
0001c0 c6 8a 76 39 02 05 c1 39 4c b5 f5 38 ed e9 67 39
       0.00023512085 0.0003681556 0.000117162796 0.00022117021
0001d0 d5 06 71 39 02 1b 47 38 86 ce 08 39 d0 29 96 39
       0.00022986096 4.747045e-05 0.00013046907 0.00028641382
0001e0 63 47 9a 38 df e8 50 39 58 64 90 39 fd fd ca 38
       7.356589e-05 0.00019923177 0.00027540582 9.6794196e-05
0001f0 57 10 3c 39 ec 3c 29 39 e4 8a ac 37 d5 a2 9a 38
       0.00017935164 0.00016139791 2.0568674e-05 7.373622e-05
000200 86 07 a6 38 fb 50 20 38 8c 6f b7 38 ec 0d 5d 38
       7.916898e-05 3.822239e-05 8.746897e-05 5.270347e-05
000210 8a a0 11 38 e7 81 57 38 02 6b 17 38 68 7f 86 38
       3.4720208e-05 5.1380975e-05 3.6100864e-05 6.413349e-05
000220 44 7b d0 38 4d e4 82 39 5c 27 db 38 f2 b6 13 39
       9.941173e-05 0.0002496563 0.00010450065 0.00014087165
000230 fc 62 4a 39 e9 b5 cb 38 64 f7 06 39 74 e5 10 39
       0.00019301096 9.713678e-05 0.00012871396 0.00013818388
000240 af a3 fc 3a b5 22 0a 3b 41 15 ba 3a e8 61 65 3b
       0.0019274856 0.0021077816 0.0014197008 0.0035000984
000250 a1 26 22 3b 22 27 5b 3a ac 96 9b 3b 4d a5 f9 3a
       0.0024742263 0.0008360018 0.004748186 0.0019046456
000260 70 a4 c6 39 59 59 8c 3a d8 71 a6 3a 79 eb 89 3a
       0.00037888018 0.001070778 0.0012698723 0.0010522447
000270 c8 50 04 3b dc f5 f5 3a df de 85 3a 7d ad 2f 3b
       0.002018975 0.0018765288 0.0010213515 0.0026806288
000280 2b f1 ce 3a 64 3f 0f 3a fd c2 94 39 86 16 90 39
       0.0015788426 0.0005464463 0.00028374037 0.00027482602
000290 ed 5a af 39 29 da b4 39 d2 93 ec 39 b3 ae 10 3a
       0.00033446346 0.00034494817 0.00045123562 0.0005519196
0002a0 6f b0 a0 39 d7 ee b9 39 58 b6 d6 39 7d 40 ef 3a
       0.0003064903 0.000354639 0.00040953117 0.0018253472
0002b0 f7 40 eb 3a 47 28 b6 3a 6a 60 42 3b e7 24 0e 3b
       0.0017948438 0.0013897502 0.0029659518 0.0021689476
0002c0 b2 28 9d 3a 9e 66 70 3b a7 ca da 3a c7 42 28 3a
       0.0011990278 0.0036682258 0.0016692475 0.0006418642
0002d0 71 87 64 3a a2 c9 4b 3a 1b 01 d6 39 b9 b7 9e 3a
       0.0008717692 0.0007773881 0.00040818084 0.0012109197
0002e0 6f d5 fc 39 b2 2b dd 38 7c 7b b1 3a 0c 4a e8 39
       0.00048224206 0.0001054624 0.001354083 0.00044305658
0002f0 40 9a 01 39 dc ed 4b 38 5b 22 5a 38 f2 b8 b2 38
       0.00012359861 4.8620495e-05 5.2007246e-05 8.52215e-05
000300 3b d1 a3 38 1b 19 fa 38 29 c3 04 39 79 a4 ed 38
       7.811418e-05 0.00011925605 0.00012661204 0.00011331676
000310 14 aa 8a 38 c0 95 fc 37 6d 78 55 3b aa 1a 4b 3b
       6.612032e-05 3.0110474e-05 0.0032573 0.0030991235
000320 65 36 08 3b e8 2e a9 3b bb 37 53 3b 70 e2 a0 3a
       0.0020784375 0.0051630624 0.0032229263 0.0012274515
000330 bf d1 e1 3b 69 3f 2c 3b 6a bb 19 3a 0e 34 aa 3b
       0.0068914588 0.0026282913 0.00058644137 0.0051941937
000340 97 93 95 3b 9f 56 28 3b 45 6e f6 3b f6 e6 6a 3b
       0.004564713 0.0025686396 0.0075204694 0.003584323
000350 cc 53 71 3a 9c f6 19 3c 21 e0 53 3b 0a 61 50 3a
       0.0009205907 0.009397175 0.0032329636 0.000794903
000360 6a f8 c9 39 68 2f f5 39 eb 02 df 39 e4 2b 49 3a
       0.0003852279 0.00046765362 0.0004253605 0.0007674082
000370 1a b6 30 3a fd 1d bf 39 92 00 86 3a 74 99 ce 39
       0.00067410024 0.00036452702 0.0010223559 0.00039405713
000380 72 fe da 38 1c 1f 86 38 cb 65 c3 38 d2 74 63 38
       0.00010442444 6.3954125e-05 9.317285e-05 5.4229815e-05
000390 da cf 2e 39 c8 11 39 39 35 9b f1 37 42 8f a4 39
       0.00016671364 0.00017649599 2.8801713e-05 0.00031387253
0003a0 6b 37 5f 39 87 49 ad 37 a2 d9 9a 3b 38 c8 99 3b
       0.00021287582 2.0657446e-05 0.004725651 0.0046930574
0003b0 01 de 4b 3b 3f 5b 00 3c a1 76 a5 3b ba e4 e9 3a
       0.0031107666 0.007834255 0.005049542 0.0017844655
0003c0 f3 8f 2b 3c 91 a1 83 3b 6f 60 5c 3a 2f 3b 7b 3b
       0.010471332 0.004017063 0.0008406704 0.0038334837
0003d0 cf dc 61 3b e5 2d 07 3b dc 97 bf 3b 75 44 4f 3b
       0.0034463888 0.002062672 0.0058469605 0.0031626497
0003e0 9a 59 81 3a 26 a4 f5 3b 64 e6 29 3b 5a 4a 1c 3a
       0.0009868622 0.0074963747 0.0025924677 0.0005962007
0003f0 39 cd 0f 3b 20 0c 04 3b b7 86 b6 3a 8c 37 5b 3b
       0.002194239 0.0020148829 0.0013925646 0.0033449857

exp_avg f4 [8]
000000 5b 89 64 3a f8 ce 2b 3b 7c 9e 33 bb 04 00 00 00
       0.00087179773 0.0026215892 -0.0027407696 6e-45
000010 18 96 a5 bb 04 00 00 00 04 00 00 00 93 e7 87 ba
       -0.005053293 6e-45 6e-45 -0.0010368697

exp_avg_sq f4 [8]
000000 e9 6c 64 39 9b 0e 53 3b 0d bc 07 3a e0 53 92 2d
       0.00021784347 0.003220475 0.0005177863 1.6635526e-11
000010 28 58 8b 3a f3 a0 b5 32 d9 0f 91 2f 49 e3 b8 3a
       0.0010631131 2.1144364e-08 2.6386607e-10 0.0014105822
