project_2/part_2/models/magda/mnist/best_model.ckpt (torch, 414192 bytes, 24 tensors)

conv1.0.weight f4 [6, 1, 5, 5]
0	0x3d8f95ca	0.07010992
1	0xbd2effe6	-0.042724513
2	0x3e67e212	0.22644833
3	0x3ec9bdb8	0.39402556
4	0x3e98d830	0.29852438
5	0x3e188031	0.14892651
6	0x3e6eadc9	0.23308481
7	0x3dc9c845	0.098526515
8	0x3c4b2756	0.012399515
9	0x3e1634ec	0.14668626
10	0x3e40e6d8	0.1883806
11	0x3db4aeed	0.08822427
12	0x3daef3d6	0.08542602
13	0xbe41476d	-0.18874903
14	0xbdb52e53	-0.08846726
15	0xbdad3791	-0.08457864
16	0xbd2918a5	-0.04128327
17	0xbe814fd4	-0.25256217
18	0xbe4a52e9	-0.1975819
19	0xbc40a107	-0.011757142
20	0xbe3c5e76	-0.18395409
21	0xbe84ff58	-0.25976062
22	0xbdbbd93e	-0.09172295
23	0x3d930e72	0.071804896
24	0xbcfd3aba	-0.030911792
25	0xbe03a4fd	-0.12855907
26	0x3e494fa1	0.19659282
27	0xbe310873	-0.1728838
28	0xbdc58fc0	-0.09646559
29	0xbe7c3ce9	-0.2463261
30	0x3e83cb6f	0.25741145
31	0x3ea197f5	0.31561247
32	0xbdf0c09a	-0.11755486
33	0xbe922cf0	-0.2854991
34	0xbed05148	-0.40687013
35	0xbe5487c1	-0.20754911
36	0x3e98c44c	0.29837263
37	0x3ec57ad9	0.38570288
38	0xbdab57b7	-0.0836634
39	0x3c9f029f	0.01941043
40	0x3d4d35cc	0.050100133
41	0xbdacd8c5	-0.08439783
42	0x3e99625b	0.29957852
43	0x3e7aad1d	0.244801
44	0x3e89acdd	0.26889697
45	0xbe469026	-0.19390926
46	0x3cc84a73	0.024449563
47	0x3e2ef581	0.1708584
48	0x3dd68d81	0.104762085
49	0x3e263a90	0.16233277
50	0xbe2f896c	-0.17142266
51	0x3e3e5b96	0.18589625
52	0x3eae4bd9	0.34042242
53	0x3e31ef07	0.17376338
54	0x3d1fcbec	0.039012834
55	0x3d84b5e9	0.06480009
56	0x3b2481eb	0.0025101851
57	0x3d963b02	0.073354736
58	0x3ea84d89	0.32871655
59	0xbda2e3da	-0.079536155
60	0xbe18691c	-0.14883846
61	0xbe1d8746	-0.15383634
62	0x3d980b73	0.07424059
63	0x3ec3edd9	0.382674
64	0x3ea17702	0.31536108
65	0xbe750f33	-0.2393158
66	0xbe11d73a	-0.14242259
67	0x3af72655	0.0018856028
68	0x3c0022ce	0.007820798
69	0x3e9ce368	0.30642247
70	0xbea86e9d	-0.3289689
71	0xbcdcf162	-0.026970569
72	0xbe0244d0	-0.12721562
73	0x3e387396	0.18012843
74	0x3d919c50	0.07109892
75	0x3dcc0b58	0.09963101
76	0x3db69377	0.089148454
77	0xbe14ea99	-0.14542617
78	0x3d9ad67f	0.07560443
79	0x3d2dac7d	0.042400826
80	0xbb617bde	-0.0034406106
81	0x3e4096eb	0.1880757
82	0x3e3445f0	0.17604804
83	0xbcb1b6bc	-0.02169358
84	0x3e875a21	0.2643595
85	0xbe436084	-0.19079787
86	0x3dc3d761	0.09562565
87	0x3e4f6efc	0.20257181
88	0x3eb24d33	0.34824523
89	0x3e377477	0.17915522
90	0xbeea615d	-0.45777407
91	0xbdddd583	-0.1083174
92	0xbeb46e3d	-0.35240355
93	0xbe320670	-0.17385268
94	0xbd2e237d	-0.042514313
95	0xbec7a340	-0.38991737
96	0xbefbc7ba	-0.49175817
97	0xbeca30b4	-0.39490283
98	0xbf06112c	-0.5236995
99	0xbe95c0ee	-0.29248756
100	0x3bcdc498	0.0062795393
101	0x3e840647	0.2578604
102	0x3e911131	0.28333429
103	0x3e7c1037	0.2461556
104	0x3e7b1c04	0.24522406
105	0xbc20c9b4	-0.009813715
106	0x3de86c99	0.11348838
107	0x3dcf7bca	0.10131033
108	0x3dfc30db	0.12314006
109	0x3d5626df	0.052283164
110	0x3e59ecaa	0.21281686
111	0x3e38e44c	0.18055838
112	0x3d4fb449	0.050709043
113	0x3db5693d	0.08857963
114	0xbd59900b	-0.053115886
115	0xbdd4a28c	-0.10382566
116	0xbeb6caad	-0.35701504
117	0xbebf622d	-0.3737959
118	0xbdc02f81	-0.09384061
119	0x3e02e770	0.12783599
120	0xbe71f5bd	-0.23628898
121	0xbe0910e0	-0.13385344
122	0xbdd2e4b1	-0.10297526
123	0xbdb6e1a7	-0.089297585
124	0xbd1e541f	-0.038654443
125	0x3d923ccd	0.07140503
126	0x3d7c8d19	0.061658
127	0x3decde04	0.115657836
128	0x3e829ffa	0.25512677
129	0xbd46b8e4	-0.04851617
130	0x3d9d41ac	0.076785415
131	0x3d793a1d	0.060846437
132	0x3d8fc6f1	0.07020367
133	0x3e8a5990	0.27021456
134	0x3e3c96b9	0.18416871
135	0x3c29aed0	0.01035662
136	0x3e7d6893	0.24746923
137	0x3d1105ca	0.03540591
138	0xbe033d14	-0.12816268
139	0x3ce2afad	0.02767166
140	0x3d67b590	0.056569636
141	0x3d9bd849	0.076096125
142	0x3e64bed1	0.22338416
143	0x3d4911e4	0.049089327
144	0xbd89e3d8	-0.06732911
145	0x3e7f579f	0.24935769
146	0x3e1f5b08	0.1556207
147	0xbe051cd6	-0.12999281
148	0xbe28858b	-0.16457193
149	0xbe9595bf	-0.2921581

conv1.0.bias f4 [6]
0	0x3c444191	0.011978523
1	0xbb098275	-0.00209823
2	0xbb9e8056	-0.004837076
3	0x3deab4dd	0.11460278
4	0xba5c30b0	-0.0008399589
5	0x3d621a28	0.055200726

conv2.0.weight f4 [32, 6, 5, 5]
0	0x3aaee82e	0.0013344341
1	0xbe0c98f5	-0.13730223
2	0xbd5f60f5	-0.054535825
3	0x3d8efa78	0.06981367
4	0x3df39f49	0.118956156
5	0xbd51ece5	-0.05125131
6	0xbd6ba050	-0.057525933
7	0x3cb21efa	0.021743286
8	0x3e292992	0.16519764
9	0x3d69ffa0	0.05712855
10	0xbce1eede	-0.027579721
11	0x3e1846ca	0.14870754
12	0x3dc748f0	0.097307086
13	0x3d75c5e1	0.060003165
14	0x3cf5db8f	0.03001192
15	0xbd792b87	-0.060832527
16	0xbe2f8e61	-0.17144157
17	0xbe2ff8c0	-0.17184734
18	0xbdd4b312	-0.103857175
19	0xbd802b0e	-0.06258212
20	0xbcd65f47	-0.026168479
21	0xbbc4f20f	-0.006010301
22	0xbd28144b	-0.041034978
23	0xbc9e6c6b	-0.019338807
24	0x3d97a144	0.07403806
25	0x3c2cc4f4	0.010545004
26	0x3e1f7d16	0.1557506
27	0xbbc9dc3c	-0.006160287
28	0x3d60ceb4	0.054884627
29	0x3dc6aefb	0.097013436
30	0x3c183f9e	0.009292511
31	0xbcd5e7e9	-0.02611156
32	0x3d434a39	0.047678206
33	0x3caf787f	0.021419762
34	0x3da5b572	0.080912486
35	0xbda4c2e6	-0.080449864
36	0xbd898906	-0.06715588
37	0xbd2c81e4	-0.04211606
38	0xbd2591c0	-0.0404222
39	0xbd5e32bb	-0.0542476
40	0x3de54733	0.11195221
41	0x3d98e6af	0.074658744
42	0x3dad4305	0.084600486
43	0xbdc34ecf	-0.09536516
44	0xbd6be2be	-0.057589285
45	0x3dd4528b	0.10367306
46	0x3e115dbc	0.14195913
47	0x3e1e652b	0.1546828
48	0x3d89150b	0.06693467
49	0xbde76370	-0.11298263
50	0xbd77f9c0	-0.060540915
51	0x3d2cba5e	0.04216992
52	0xbdb03e73	-0.08605661
53	0x3cab1bd6	0.020887297
54	0x3d8c9c06	0.068656966
55	0x3e089c0b	0.13340776
56	0x3d73d6e3	0.059531104
57	0x3dc0ba71	0.09410561
58	0x3c48adb0	0.012248442
59	0x3e019712	0.12655285
60	0xbdb4fd7d	-0.088374116
61	0xbd2bc133	-0.041932296
62	0x3dbb29a2	0.091388
63	0x3df7e103	0.121034645
64	0xbd29cd07	-0.041455295
65	0x3d3198e4	0.0433587
66	0xbde3edc9	-0.11129338
67	0xbe3a8fcc	-0.18218917
68	0xbdaa1ef5	-0.08306686
69	0xbcee772f	-0.029109566
70	0x3d33d076	0.043899976
71	0x3c6c3abb	0.014418299
72	0xbd4c7605	-0.04991724
73	0xbdbd3343	-0.09238293
74	0xbe15fea6	-0.14647922
75	0xbc33bcff	-0.010970353
76	0xbda8d095	-0.08242909
77	0xbda5a3fa	-0.08087917
78	0xbc624e00	-0.013812542
79	0xbd465281	-0.048418526
80	0x3db207df	0.086929075
81	0x3df34edf	0.11880278
82	0x3e3fb368	0.18720782
83	0x3e07232d	0.13197012
84	0x3e13fc55	0.14451726
85	0x3dac9e9a	0.08428688
86	0x3e4d818c	0.2006895
87	0x3e3334a3	0.17500548
88	0x3e40c027	0.188233
89	0x3d0eebda	0.034892894
90	0x3e2e055b	0.1699423
91	0xbd3ac29a	-0.045595743
92	0xbd041b8a	-0.032252826
93	0xbd4f4536	-0.050603114
94	0x3bafde59	0.005367082
95	0x3dbdca80	0.092671394
96	0x3d9f4078	0.07775968
97	0xbbdb56b8	-0.0066936873
98	0xbd551f27	-0.052031662
99	0xbbe26027	-0.006908435
100	0x3d2a3754	0.04155667
101	0x3cade7fb	0.021228781
102	0xbd197480	-0.03746462
103	0x3d05b8a0	0.032646775
104	0x3cff0f34	0.03113518
105	0x3c88b179	0.016686188
106	0x3d735677	0.05940863
107	0x3c641ecf	0.013923361
108	0x3dc31128	0.09524757
109	0x3e056ed8	0.13030565
110	0x3cfcad92	0.030844484
111	0x3da08aa7	0.07838946
112	0x3e0e0adf	0.13871334
113	0x3d71381c	0.0588914
114	0x3d03ca59	0.032175396
115	0xbc02dadc	-0.00798675
116	0xbe151d6a	-0.14562002
117	0xbe68d459	-0.22737254
118	0x3bd92761	0.006627009
119	0x3d80ee7f	0.062954895
120	0x3d9559ea	0.0729254
121	0xbb8b97e9	-0.0042600525
122	0x3e06bdf7	0.13158403
123	0x3d132f7d	0.03593396
124	0x3d30a3fd	0.04312514
125	0xbd4f2629	-0.0505735
126	0xbc306b3d	-0.010767755
127	0x3c9db0a5	0.01924927
128	0x3d8c2363	0.06842687
129	0xbd5d3ebd	-0.05401491
130	0x3ccf8d94	0.025336064
131	0x3db135d3	0.08652844
132	0x3d4dcc34	0.05024357
133	0xbcffcb6a	-0.031224925
134	0x3c89a8a6	0.01680405
135	0x3d12b577	0.03581759
136	0xbccdc3bf	-0.025117753
137	0xbdc86cf9	-0.0978641
138	0xbd186e23	-0.03721441
139	0x3d0a324e	0.03373938
140	0xbdb949b0	-0.09047258
141	0xbe08259c	-0.13295597
142	0xbd4be373	-0.04977746
143	0x3d0f42bb	0.03497575
144	0xbd657f42	-0.056029566
145	0xbd23db31	-0.04000396
146	0xbd900999	-0.070330806
147	0xbd9bc708	-0.076063216
148	0xbcdedaa7	-0.027203871
149	0xbd849e48	-0.06475502
150	0x3d81b909	0.06334121
151	0xbdf98099	-0.12182731
152	0xbd2a7c52	-0.041622467
153	0x3e28cfe3	0.16485552
154	0x3d8cef11	0.06881536
155	0xbe2a3f19	-0.16625632
156	0xbd6a3526	-0.057179593
157	0x3dcef258	0.10104817
158	0x3d648e1c	0.05579959
159	0xbd6970e3	-0.056992423
160	0xbe645d22	-0.22301152
161	0xbddffdc3	-0.10937073
162	0x3d6c69ed	0.057718206
163	0xbdcfe241	-0.101505764
164	0xbdb86a22	-0.09004618
165	0xbe123e25	-0.14281519
166	0x3c754c67	0.014971829
167	0xbdc0e36f	-0.094183795
168	0xbdea6420	-0.114448786
169	0x3da2d99a	0.079516605
170	0xbda30a86	-0.079609916
171	0x3db5b84d	0.08873043
172	0x3e03199f	0.12802742
173	0x3ce500bc	0.027954452
174	0xbbdb7b51	-0.00669805
175	0x3c4d99f3	0.012548911
176	0x3e0658fb	0.13119881
177	0x3be61a40	0.007022172
178	0xbd53b86c	-0.05168955
179	0xbdbe254f	-0.0928446
180	0x3cf631fa	0.030053128
181	0x3ce0652e	0.027391996
182	0xbe04ceb3	-0.12969474
183	0x3a9fdd14	0.0012196624
184	0x3d73ac98	0.05949077
185	0xbd5c54b1	-0.053791706
186	0x3dec0f9f	0.11526417
187	0x3daeb7a4	0.085311204
188	0xbd3acfde	-0.045608394
189	0x3befbbf6	0.007316108
190	0xbc02aafe	-0.007975338
191	0x3e45ebb4	0.19328195
192	0x3e138b6c	0.14408654
193	0x3d331928	0.043725163
194	0xbce94764	-0.028476425
195	0x3cd437c9	0.025905507
196	0x3deb2c63	0.114830755
197	0x3d1ce866	0.03830757
198	0x3cb915a2	0.022593323
199	0x3d970e4c	0.07375774
200	0x3e328a6c	0.17435616
201	0x3d1ee661	0.038793925
202	0xbc801a4d	-0.015637541
203	0xbb7d7c51	-0.0038678835
204	0x3cdf62c9	0.027268784
205	0x3e4898d5	0.19589551
206	0x3c834a31	0.016026588
207	0xbd560838	-0.05225393
208	0xbd9c0e55	-0.07619921
209	0xbda6564b	-0.08121928
210	0x3dd1eb64	0.10249975
211	0x3ce75c52	0.028242264
212	0xbe3b49c3	-0.18289857
213	0xbd617bd0	-0.055049717
214	0x3d2d80cb	0.042359155
215	0x3d856832	0.06514014
216	0x3d49b210	0.04924208
217	0xbdd9ef3d	-0.10641334
218	0xbe18fb13	-0.14939527
219	0xbe1314d1	-0.1436341
220	0x3de0cab1	0.1097616
221	0x3cef2120	0.0291906
222	0x3d72e168	0.059296995
223	0x3d63f221	0.055650834
224	0x3c3edec3	0.01164979
225	0xbd8cd0cf	-0.068757646
226	0xbec434f6	-0.38321656
227	0xbe27e13e	-0.16394517
228	0xbc57964b	-0.013158391
229	0x3cf056db	0.02933829
230	0xbeb1ccfd	-0.34726706
231	0xbef2b76e	-0.4740557
232	0xbe9281c4	-0.28614628
233	0x3d74f94c	0.05980806
234	0x3e39c8f8	0.1814307
235	0xbe9f072c	-0.3106016
236	0xbea9f8e0	-0.3319769
237	0xbe0dcbf2	-0.1384733
238	0xbc9e0341	-0.019288661
239	0x3e08afa0	0.13348246
240	0xbe393065	-0.18084867
241	0xbdbb016a	-0.09131129
242	0x3ca4201e	0.020034846
243	0x3e047ba2	0.12937787
244	0x3e0e54b5	0.138995
245	0xbc71ad1d	-0.014750746
246	0xbd1b9c81	-0.03799105
247	0x3d843652	0.06455673
248	0x3e0bd301	0.1365471
249	0xbd3cbf67	-0.046080973
250	0x3d70b034	0.05876179
251	0xbe37229f	-0.178843
252	0xbd0d5267	-0.034502413
253	0x3e2b66ee	0.16738483
254	0x3ddc6aa2	0.10762526
255	0xbdaeda13	-0.08537688

conv2.0.bias f4 [32]
0	0xbd88597f	-0.06657695
1	0xbc68bdce	-0.014205409
2	0xbdce89df	-0.100848906
3	0xbda4865d	-0.0803344
4	0xbc836abe	-0.01604211
5	0xbd86bb10	-0.06578648
6	0x3d940a65	0.07228545
7	0xbdf490ce	-0.11941682
8	0xbd9e81f1	-0.07739628
9	0xbe02ee56	-0.1278623
10	0xbb0e9ffd	-0.002176284
11	0xbcf98f24	-0.030463763
12	0x3db8f6e2	0.09031464
13	0x3dd236ae	0.102643356
14	0xbde4be91	-0.1116916
15	0xbdc6e433	-0.09711494
16	0xbe405e52	-0.1878598
17	0xbd7e7ddc	-0.062131748
18	0xbd815064	-0.063141614
19	0x3e129547	0.14314757
20	0xbc094858	-0.0083790645
21	0x3daf6d80	0.08565807
22	0x3d3bc629	0.045843277
23	0xbd423db9	-0.047422145
24	0xbc438ea9	-0.011935868
25	0x3d1438b0	0.036186874
26	0xbd2db10b	-0.04240517
27	0x3ced7925	0.02898843
28	0x3c9558fe	0.018230911
29	0x3dd0b9c9	0.10191686
30	0x3dd3028d	0.10303221
31	0xbd843cbf	-0.06456899

conv3.0.weight f4 [32, 32, 5, 5]
0	0xba31c83c	-0.00067818514
1	0xbd0b202f	-0.03396624
2	0x3d4a21b3	0.049348544
3	0xbcdd7984	-0.027035482
4	0xbd86fc7f	-0.065911286
5	0xbcdeffbe	-0.027221557
6	0x3b9fead5	0.004880289
7	0x3d7d5b0d	0.06185441
8	0xbd721858	-0.059105247
9	0x3ae30b31	0.0017322061
10	0xbb8acce6	-0.0042358516
11	0xbc11f4a4	-0.0089084245
12	0xbd88d07c	-0.0668039
13	0xbd4c04f8	-0.049809426
14	0x3dba569a	0.09098549
15	0xbd5c2186	-0.053742908
16	0x3cf56319	0.02995448
17	0x3cf65917	0.030071778
18	0x3d26190b	0.040551227
19	0x3da98449	0.082771845
20	0x3dc136aa	0.094342545
21	0x3cdadc78	0.026716456
22	0x3c6b483b	0.014360483
23	0x3c7fc49f	0.015610843
24	0x3af1db9c	0.001845229
25	0x3c5fedc5	0.0136675285
26	0x3cf03823	0.029323643
27	0x3d0ddfca	0.03463725
28	0xbc457b17	-0.012053273
29	0x3bb6fc1e	0.005584254
30	0xbc2dde96	-0.010612151
31	0x3d0b99b4	0.03408213
32	0xbbb5a815	-0.0055437186
33	0xbc5d15aa	-0.013493935
34	0xbcc0022c	-0.023438536
35	0x3d4f73c5	0.050647516
36	0x3db8f8a8	0.090318024
37	0xbbaa90bc	-0.005205242
38	0x3c364a00	0.011126041
39	0x3dd9246c	0.1060265
40	0xbb097ec6	-0.0020980104
41	0xbc2ff420	-0.010739356
42	0xbd1c8977	-0.038217034
43	0xbd9883bf	-0.074470036
44	0xbd5e95c6	-0.054342054
45	0x3cf6de3f	0.030135272
46	0x3c1d9f6f	0.009620531
47	0xbdbd9472	-0.09256829
48	0xbcd69121	-0.02619225
49	0xbc3a4a9b	-0.011370326
50	0x3d3b65d6	0.045751415
51	0x3d69f243	0.057115804
52	0x3cb90722	0.022586409
53	0x3d57d50c	0.05269341
54	0x3cb27373	0.021783566
55	0x3d63e907	0.055642154
56	0x3cba212a	0.022720892
57	0xbe067f40	-0.1313448
58	0xbdc44c22	-0.09584834
59	0x3c1ae185	0.009453182
60	0xbc73c4e9	-0.01487849
61	0xbd1d4cb0	-0.038403213
62	0x3c8c50e0	0.017128408
63	0xbc59bc6d	-0.013289553
64	0x3cb4a09c	0.02204924
65	0x3d8e9236	0.06961481
66	0x3d04aec3	0.03239323
67	0x3c211ada	0.009833062
68	0x3da7d6ef	0.08195292
69	0x3e6e07c2	0.23245147
70	0xbd612c1a	-0.0549737
71	0xbd0b8b13	-0.03406818
72	0x3c76d6ef	0.015065893
73	0xbda1012d	-0.078615524
74	0xbdb85374	-0.090002924
75	0xbd218168	-0.039430052
76	0x3d2bcbe1	0.04194248
77	0x3dc40178	0.09570593
78	0xbb64c5a0	-0.0034907833
79	0xbc8b33f5	-0.016992548
80	0xbcf02b8b	-0.029317638
81	0xbd8a443b	-0.06751295
82	0x3cd8c11a	0.026459266
83	0x3cba3b75	0.02273343
84	0xbdda8442	-0.106697574
85	0x3d024f72	0.031814046
86	0x3d34b745	0.044120092
87	0xbcd9b023	-0.026573246
88	0xbcfe3619	-0.031031655
89	0x3d910ff1	0.07083119
90	0xbe01d35d	-0.12678285
91	0xbcb23874	-0.021755435
92	0xbaa6f994	-0.0012739175
93	0xbc6a65c3	-0.014306488
94	0x3cfda9ab	0.030964693
95	0xbc78f648	-0.015195437
96	0x3dbb61a7	0.09149485
97	0x3c57a234	0.013161231
98	0xbb185f92	-0.0023250324
99	0x3bb2f97e	0.0054618707
100	0xbc44d90e	-0.0120146405
101	0x3d324399	0.043521497
102	0x3d801c5b	0.062554084
103	0x3cdcb741	0.026942851
104	0xbada770d	-0.001666756
105	0xbcce4510	-0.025179416
106	0x3c0305a4	0.00799695
107	0x3d5e3b79	0.054255936
108	0x3c1e6c3c	0.00966936
109	0xbd3c5f79	-0.045989487
110	0x3ce14f2c	0.027503572
111	0x3bae5987	0.005320731
112	0x3cd340d2	0.025787745
113	0x3d18576d	0.03719275
114	0xbaed9b74	-0.0018127994
115	0x3d382eb1	0.044966403
116	0x3d73260a	0.05936245
117	0x3d539115	0.051652033
118	0x3bbf8b6d	0.0058454783
119	0x3dc5efe3	0.096648954
120	0x3d597d16	0.053097807
121	0x3bd5b955	0.0065223374
122	0x3c618281	0.013764025
123	0xbd4c4d03	-0.04987813
124	0xbd87f188	-0.06637865
125	0x3d7b0099	0.061279867
126	0xbc3ff988	-0.011717208
127	0x3d99b2e4	0.07504824
128	0x3d8a86bf	0.06763982
129	0xbd7e2391	-0.062045638
130	0xbdadc078	-0.08483976
131	0xbd54486e	-0.051826887
132	0xbda06797	-0.07832258
133	0xbe29901b	-0.16558878
134	0xbdc9fd28	-0.09862739
135	0xbe06eb5f	-0.13175724
136	0xbe15a246	-0.14612684
137	0xbcdd17ba	-0.026988853
138	0x3d0504af	0.03247517
139	0xbdcbeac1	-0.09956885
140	0x3d3f3306	0.04667952
141	0x3dafe975	0.0858945
142	0x3cab75f0	0.02093026
143	0x3d371b62	0.04470385
144	0x3ca70d42	0.020392064
145	0x3db8502c	0.089996666
146	0x3d6a4341	0.057193045
147	0x3c70d4ef	0.014699205
148	0xbce58d2e	-0.028021421
149	0x3d280f4c	0.041030213
150	0xbd6c2681	-0.057653908
151	0x3ce2edd4	0.027701296
152	0x3da4d6a8	0.08048755
153	0x3b1d408b	0.002399477
154	0xbd84a750	-0.06477225
155	0xbcaad7d7	-0.020854874
156	0x3e0fac20	0.14030504
157	0x3c52f21c	0.012875106
158	0xbbc2f438	-0.0059495233
159	0xbdb5134d	-0.08841572
160	0x3cf987da	0.030460287
161	0x3bdd6d13	0.0067573874
162	0xbc167170	-0.009182319
163	0x3c8a67ce	0.016895201
164	0x3ce3f7ba	0.027828086
165	0xbd81f903	-0.06346323
166	0xbca8ce9d	-0.020606333
167	0x3bfee3a5	0.007778602
168	0x3c6f72ec	0.014614802
169	0xbcc7f419	-0.024408387
170	0x3d3c7695	0.046011526
171	0xbd544b87	-0.05182984
172	0xbdda89b7	-0.10670798
173	0xbbcf2d83	-0.006322564
174	0x3a709c6c	0.0009178582
175	0xbd1ed6f5	-0.038779218
176	0x3ccbd7a4	0.024883099
177	0xbcb240fe	-0.021759506
178	0x3c8695c2	0.016428832
179	0x3b0e186c	0.0021682037
180	0xbd6eae1a	-0.058271505
181	0x3cdd4b78	0.027013525
182	0xbd920854	-0.07130495
183	0xbbdb50fd	-0.006693004
184	0xbd3091b2	-0.043107696
185	0x3caf66fa	0.021411408
186	0x3d138cc0	0.0360229
187	0x3c445d07	0.01198507
188	0x3db39592	0.08768763
189	0x3df0cd9f	0.11757969
190	0x3d49f8ef	0.049309667
191	0x3d5c5b57	0.053798046
192	0x3d5400c2	0.051758535
193	0x3c52748f	0.012845173
194	0x3cc0ec2f	0.023550121
195	0x3daf1307	0.08548551
196	0xbcfa62d1	-0.030564697
197	0xba91ee51	-0.0011133646
198	0xbd032369	-0.03201619
199	0xbd920e79	-0.07131667
200	0xbaeb7bda	-0.0017965988
201	0x3c79f1a0	0.015255362
202	0x3d5d4e40	0.054029703
203	0xbd2d9ea3	-0.042387616
204	0xbd1ba682	-0.03800059
205	0xbd2eed99	-0.04270706
206	0x3d3d0cc7	0.046154764
207	0x3c9d4392	0.01919726
208	0x3d0e127d	0.0346856
209	0xbc44ba65	-0.012007331
210	0xbd777663	-0.060415637
211	0xbd454cab	-0.04816882
212	0xbdc25bb2	-0.09490146
213	0xbe15a388	-0.14613163
214	0xbcf4d281	-0.029885532
215	0xbd8f97cd	-0.070113756
216	0xbdb9e433	-0.09076729
217	0x3d295866	0.04134407
218	0x3d00cbfb	0.03144453
219	0x3d2115f5	0.03932758
220	0x3d75de72	0.060026594
221	0x3d788be7	0.060680296
222	0x3cfffb83	0.03124786
223	0x3c7e131f	0.0155074885
224	0x3d98d3bc	0.0746226
225	0x3de9229a	0.11383553
226	0x3b8c3898	0.0042792074
227	0xbd8758c8	-0.066087306
228	0xbdc241b3	-0.094851874
229	0xbdbf7ccc	-0.09349975
230	0x3c55c4e7	0.013047433
231	0xbc54e48a	-0.012993941
232	0x3d50073e	0.050788157
233	0xbccdecd9	-0.025137352
234	0x3c96b497	0.018396659
235	0x3dcc5111	0.099764
236	0x3d68a87e	0.05680131
237	0xbdf1334a	-0.11777361
238	0xbd2b88f3	-0.04187865
239	0x3d8e49ae	0.06947647
240	0xbe362b4d	-0.17789955
241	0xbd0f3e7d	-0.034971703
242	0xbd1656f9	-0.036704037
243	0xbd287d30	-0.041135013
244	0x3cd77705	0.02630187
245	0x3cba7207	0.02275945
246	0x3d67bea6	0.0565783
247	0x3d23e7e8	0.040016085
248	0xbc1ca843	-0.009561601
249	0xb98813c0	-0.00025954656
250	0xbbb8ded6	-0.0056417985
251	0xbc1fdd9e	-0.0097574275
252	0x3ca6ac95	0.020345965
253	0x3d92c3f7	0.071662836
254	0x3b6f0914	0.0036473917
255	0xbc9bc1db	-0.019013336

conv3.0.bias f4 [32]
0	0xbd0d4962	-0.03449381
1	0x3d2eec0b	0.042705577
2	0x3d840f6b	0.06448253
3	0xbce24d1e	-0.027624663
4	0x3cbf76c4	0.023372062
5	0xbcc9e396	-0.024644654
6	0x3dc1ae38	0.09457058
7	0xbcd1a350	-0.025590569
8	0x3be9342e	0.007116816
9	0xbdc0f3a9	-0.094214745
10	0xbbb70105	-0.0055848383
11	0xbc8c9165	-0.017159173
12	0x3d47e8d2	0.04880602
13	0xbd385f58	-0.045012802
14	0x3da24236	0.07922785
15	0xbd621919	-0.055199716
16	0xbd6d2003	-0.057891857
17	0x3da38c96	0.07985799
18	0x3ce3a8bb	0.027790418
19	0xbd2b913c	-0.041886553
20	0xbbf6d686	-0.0075328974
21	0x3c167dbc	0.009185251
22	0x3c1125ef	0.008859142
23	0x3d3ccc0f	0.046093043
24	0x3d4413df	0.047870513
25	0xbd3f8080	-0.046753407
26	0xbd143c31	-0.036190215
27	0xbca09b63	-0.019605344
28	0x3cc314bc	0.023813598
29	0x3d2adaa9	0.041712437
30	0xbd2aff18	-0.041747183
31	0xbc8daae3	-0.0172934

fc.weight f4 [10, 288]
0	0x3d7b635f	0.061374065
1	0xbd037839	-0.032097075
2	0x3d726721	0.059180383
3	0xbdacb358	-0.084326446
4	0xbdb0d8ef	-0.08635127
5	0xbc511b8c	-0.012762915
6	0x3d7ff57d	0.062489975
7	0xbc9c72e5	-0.019097755
8	0x3d7a9704	0.061179176
9	0xbccf762d	-0.025324905
10	0x3d88d1d0	0.066806436
11	0x3da8e0b9	0.082459874
12	0x3c724c64	0.014788721
13	0xbd9f983c	-0.07792708
14	0xbdb67522	-0.0890906
15	0x3e25f7e6	0.16207847
16	0x3d9982fa	0.07495685
17	0xbda2cd96	-0.07949369
18	0xbcd641af	-0.026154367
19	0xbdd9a13d	-0.10626457
20	0x3d2bdf81	0.041961197
21	0xbe093f62	-0.13403085
22	0x3d471220	0.04860127
23	0x3ce525eb	0.027972182
24	0x3d881ad9	0.06645746
25	0xbe1076d9	-0.14107837
26	0x3e156283	0.1458836
27	0x3d39099c	0.04517518
28	0x3c299790	0.010351077
29	0xbce0217b	-0.027359715
30	0xbda8955a	-0.082316115
31	0x3d6b54d4	0.057453945
32	0x3dea4526	0.1143897
33	0xbd06c318	-0.0329009
34	0xbc1d2ea8	-0.009593643
35	0xbe07c9f7	-0.13260637
36	0x3d4ede69	0.050505076
37	0xbc23f9e5	-0.01000831
38	0xbd03e551	-0.032201115
39	0xbca908e2	-0.020634118
40	0x3cb9a1a0	0.022660077
41	0xbce703bc	-0.028200023
42	0xbd7c97e2	-0.061668284
43	0x3c3d0065	0.011535739
44	0x3d29b632	0.04143352
45	0xbd6d85cb	-0.057988923
46	0xbd853527	-0.06504279
47	0x3d1f53af	0.038898166
48	0xbde20db3	-0.11037769
49	0x3dcffa54	0.10155168
50	0xbdc6fadc	-0.097158164
51	0xbd3f52ac	-0.0467097
52	0x3d97d091	0.07412828
53	0xbdb92467	-0.09040146
54	0xbd783633	-0.060598563
55	0x3d82fae9	0.063955136
56	0xbdce1ac9	-0.100637026
57	0xbe5898ec	-0.21152085
58	0xbdbccc6c	-0.09218678
59	0x3b151e63	0.0022753708
60	0x3c910e71	0.017707082
61	0x3c9b0ad0	0.018926054
62	0x3cf0f5f2	0.02941415
63	0xbda53cb1	-0.080682166
64	0xbdcefb83	-0.10106566
65	0xbccd207e	-0.025039908
66	0x3d643d54	0.05572255
67	0x3ccf9a64	0.025342174
68	0x3d03070f	0.031989153
69	0xbd012ab4	-0.031534865
70	0xbd814f6a	-0.06313975
71	0xbe10d331	-0.14143063
72	0xbd2ee6e9	-0.04270068
73	0x3db7e33f	0.08978891
74	0x3de7a34f	0.113104455
75	0xbd796a78	-0.060892552
76	0xbd9db038	-0.07699627
77	0x3be3fa04	0.0069572944
78	0x3d426ac3	0.047465097
79	0xbcd0b3ee	-0.025476422
80	0x3cfe27db	0.031024864
81	0x3d51978b	0.051169913
82	0xbc0252d0	-0.007954314
83	0x3c80001a	0.015625048
84	0xbcb74f6c	-0.022376738
85	0xbb4d2e77	-0.0031308213
86	0xbd9570f2	-0.07296933
87	0xbbcd5059	-0.0062656817
88	0xbc5a3da8	-0.013320364
89	0xbcd735bb	-0.026270738
90	0xbca7c91d	-0.02048164
91	0x3c70f1eb	0.014706115
92	0xbd7c40e9	-0.06158534
93	0x3d87b57f	0.066264145
94	0x3d93a56c	0.07209286
95	0xbb9854ed	-0.004648796
96	0x3cef19ca	0.029187102
97	0xbcd7deef	-0.02635142
98	0xbdd03bba	-0.10167642
99	0xbcd09331	-0.025460811
100	0xbddd2b1f	-0.1079924
101	0x3cf60c6c	0.03003522
102	0xbcfdcf41	-0.030982615
103	0xbe576bca	-0.21037212
104	0x3d8f39bb	0.06993433
105	0xbd5edd35	-0.05441018
106	0x3d171a11	0.036890093
107	0x3c1264fa	0.0089352075
108	0xbd179d30	-0.03701514
109	0xbbb846fd	-0.005623697
110	0xbd454dbc	-0.048169836
111	0xbdfeb0a7	-0.124360375
112	0xbda93c60	-0.08263469
113	0x3cb10bb0	0.021612018
114	0x3d9f67b5	0.077834524
115	0x3def9974	0.11699191
116	0xbc422919	-0.011850619
117	0xbd2884d3	-0.041142296
118	0xbdcda583	-0.100413345
119	0xbd0acad7	-0.03388485
120	0x3d8121de	0.06305288
121	0x3dd666a5	0.10468797
122	0xbc290841	-0.010316909
123	0xbdda9126	-0.10672216
124	0xbd8754d4	-0.066079766
125	0xbcf7665b	-0.030200174
126	0x3ccae2fd	0.02476644
127	0x3ce3f890	0.027828485
128	0xbd182472	-0.037144132
129	0xbd2b0207	-0.04174998
130	0x3cac6689	0.021044986
131	0xbd916c97	-0.0710079
132	0xbd4d835c	-0.050174102
133	0x3c972e3a	0.01845466
134	0xbcc67b94	-0.024228849
135	0x3c615cfc	0.013755079
136	0xbd74f89a	-0.059807397
137	0x3e279b21	0.1636777
138	0xbd225ff8	-0.039642304
139	0xbd46db7c	-0.04854916
140	0xbd940c18	-0.07228869
141	0x3d05d8b9	0.032677386
142	0xbd3e5b76	-0.046473943
143	0xbbfb45ca	-0.0076682316
144	0xbd085563	-0.033284556
145	0x3d8dbc93	0.06920733
146	0xbd1922e6	-0.037386797
147	0x3c8c2930	0.017109483
148	0xbc0b40bc	-0.008499321
149	0xbd4858a0	-0.048912644
150	0x3d2d1d7b	0.042264443
151	0x3dc3d59b	0.095622264
152	0xbd66924c	-0.056291863
153	0x3d2ca5f0	0.042150438
154	0x3d3b2ad9	0.04569516
155	0xbd92f617	-0.07175844
156	0xbcb8a918	-0.022541568
157	0xbe27df2c	-0.16393727
158	0xbcaf4b07	-0.02139808
159	0x3c8c2d9d	0.017111594
160	0x3d53dabc	0.051722273
161	0xbd923bb1	-0.071402915
162	0x3d66b57a	0.056325413
163	0xbd3488c3	-0.04407574
164	0x3d3c667a	0.045996167
165	0xbdb37d11	-0.08764089
166	0x3d341efe	0.04397487
167	0xbddbdf57	-0.10735958
168	0xbd0e6f12	-0.034773894
169	0x3da97409	0.08274085
170	0xbe2bf3b8	-0.1679219
171	0x3d8efc72	0.06981744
172	0x3d63a762	0.05557955
173	0x3cd20cdb	0.025640896
174	0xbd3ab518	-0.04558286
175	0x3d32905d	0.043594707
176	0xbc59499c	-0.013262179
177	0xbd057a1a	-0.03258715
178	0x3cb7abc4	0.022420771
179	0xbe0b7dd6	-0.13622221
180	0xbdb12e9e	-0.0865147
181	0xbbb94d23	-0.0056549474
182	0x3d9e75ca	0.0773731
183	0xbda53efe	-0.080686554
184	0xbd42db2f	-0.04757231
185	0x3d8cfd9d	0.068843104
186	0x3da00d7c	0.07815072
187	0x3d8b7a86	0.06810479
188	0xbd835452	-0.06412567
189	0xbccfa688	-0.025347963
190	0xbd13a305	-0.03604414
191	0x3ca39307	0.019967569
192	0x3d83a1c3	0.06427338
193	0xbe067520	-0.13130617
194	0x3dec1f21	0.11529375
195	0xbd877ffc	-0.06616208
196	0x3d902cec	0.07039818
197	0xbd447c6d	-0.047970224
198	0xbdac4f5a	-0.084135726
199	0x3cfa3618	0.030543372
200	0xbbc15816	-0.0059003932
201	0x3d4f1666	0.05055847
202	0x3da37e8e	0.07983123
203	0xbdc6a361	-0.09699131
204	0xbd54f01b	-0.051986795
205	0x3c6b4f3d	0.014362154
206	0x3c81c55e	0.015841182
207	0x3dcb2d63	0.09920766
208	0xbe090de4	-0.13384205
209	0x3d8277ec	0.063705295
210	0xbd8ab3c0	-0.06772566
211	0x3d17056d	0.03687041
212	0x3d5a4d54	0.053296402
213	0xbd71039b	-0.05884133
214	0xbe009af9	-0.12559117
215	0xbba436e6	-0.005011427
216	0xbdec7cef	-0.11547267
217	0xbdb1d766	-0.08683662
218	0x3d42ca3e	0.047556154
219	0xbcaf7d0c	-0.021421932
220	0xbd4c8979	-0.04993579
221	0x3d3d0f08	0.046156913
222	0x3d7beff5	0.061508138
223	0x3d762850	0.06009704
224	0xbdc4f048	-0.096161425
225	0x3dcb72dc	0.09934017
226	0xbc1d8407	-0.009613997
227	0xbcc17ef3	-0.023620104
228	0x3d44085a	0.047859527
229	0xbd10bb01	-0.03533459
230	0xbd72a3be	-0.059238188
231	0xbd0142e6	-0.03155794
232	0x3da9a557	0.08283489
233	0x3ccc12b1	0.024911257
234	0x3cdc5e31	0.026900383
235	0xbd113ebd	-0.035460223
236	0x3d1bf572	0.03807587
237	0x3cce87fe	0.02521133
238	0x3d379acb	0.044825356
239	0xbcfee5b2	-0.031115387
240	0x3d4e205d	0.050323833
241	0xbd4fbea5	-0.050718922
242	0x3c9ed7bd	0.019389981
243	0x3ca18d46	0.019720685
244	0xbd99174c	-0.07475147
245	0x3a7ffad3	0.0009764854
246	0xbd8112ef	-0.063024394
247	0x3db1d7f4	0.08683768
248	0xbdfc99eb	-0.12334045
249	0x3ca0e631	0.019641014
250	0x3deceddc	0.115688056
251	0xbd0b84c6	-0.03406217
252	0xbdb7fac7	-0.08983379
253	0x3d8b2744	0.06794599
254	0x3d4e7530	0.050404727
255	0xbcfb5189	-0.030678527

fc.bias f4 [10]
0	0xbc78b269	-0.015179255
1	0x3db893a4	0.09012535
2	0xbbe673ca	-0.007032846
3	0xbd65b054	-0.056076363
4	0x3d996b14	0.07491127
5	0xbc58e86d	-0.013239008
6	0x3b9ac23a	0.0047228606
7	0x3ce585e6	0.02801795
8	0xbd500509	-0.050786052
9	0xbd4fdf2c	-0.050749943

exp_avg f4 [6, 1, 5, 5]
0	0x3a88ff9c	0.0010452154
1	0x3a57293a	0.00082077424
2	0x3a420b90	0.00074022356
3	0xba7eb8d0	-0.000971687
4	0xbb70b39d	-0.0036728152
5	0x39d10016	0.0003986365
6	0xba52b23a	-0.0008037422
7	0xba4d5ac6	-0.00078336557
8	0xbb2d4d9a	-0.002644396
9	0xbb2c23f8	-0.0026266556
10	0x3afb2d64	0.0019163308
11	0x3a4a1358	0.0007708571
12	0xba27c4d6	-0.0006399875
13	0xba65ed7c	-0.00087710447
14	0x39a38846	0.00031191314
15	0x3b4355af	0.002980571
16	0x3ab22825	0.0013592286
17	0x395dd650	0.0002115604
18	0x3a2215a4	0.0006183034
19	0x3b00bcfe	0.0019643898
20	0x39f99cee	0.00047609903
21	0xb92fd140	-0.00016767252
22	0xb9efd09c	-0.00045741058
23	0xb8796120	-5.945668e-05
24	0xb8bfca40	-9.145262e-05
25	0x3b8310da	0.0039998116
26	0x3b6c67ba	0.0036072568
27	0x3b349038	0.0027551781
28	0x3a71e024	0.000922682
29	0x3a9e4b9a	0.0012076974
30	0x3b9fcf9c	0.004877044
31	0x3b4d8a42	0.0031362926
32	0x3aa64dc8	0.0012687976
33	0x39a971da	0.00032319018
34	0x3a9c3356	0.0011917155
35	0x3b205193	0.0024462685
36	0x3a6ec676	0.00091085525
37	0x3a9a58f4	0.0011775778
38	0x3ac70adb	0.001518573
39	0x3b0fbc01	0.0021932127
40	0x3a79674c	0.00095139886
41	0xba151b27	-0.0005687945
42	0x3acfd30c	0.0015855744
43	0x3b872833	0.004124665
44	0x3b8bbc90	0.0042644218
45	0x3a86e13d	0.0010290515
46	0x3a8e1fe3	0.0010843243
47	0x3b81680a	0.00394917
48	0x3b99090e	0.004670269
49	0x3bc2bc55	0.005942861
50	0x3ab09f88	0.0013475278
51	0x3b7c2364	0.0038473243
52	0x3b5e2b2c	0.0033900244
53	0xb98a35c0	-0.00026361458
54	0xbad03704	-0.0015885537
55	0x3a339fe1	0.0006852132
56	0x3b05ed14	0.00204355
57	0x3aa3c2e0	0.001249399
58	0xba181f5c	-0.0005803013
59	0xbad51814	-0.0016257786
60	0x3b087274	0.0020820173
61	0x3b04d22e	0.0020266878
62	0x39491168	0.00019175338
63	0xbab67bb8	-0.0013922369
64	0xb9cdddac	-0.00039265805
65	0x3b7bc474	0.0038416656
66	0x3b3fd779	0.0029272719
67	0xb987a964	-0.00025875412
68	0xbb0e9a8b	-0.0021759595
69	0xb98b02e8	-0.0002651431
70	0x3b6cf151	0.0036154578
71	0x3b03241c	0.0020010537
72	0x39fef418	0.0004862852
73	0xbafd1f15	-0.0019311631
74	0x3a7b5b44	0.000958849
75	0xbbe79795	-0.0070676305
76	0xbb9cfc95	-0.0047908523
77	0xbb83ac4b	-0.0040183417
78	0xbb736ce1	-0.0037143754
79	0xbb9e8642	-0.004837782
80	0xbb223fb0	-0.00247572
81	0xbb34338f	-0.0027496552
82	0xbb97f312	-0.0046371305
83	0xbb83939c	-0.004015399
84	0xbbc48473	-0.0059972345
85	0xba15d1ff	-0.0005715191
86	0xbaa7b579	-0.0012795172
87	0xbb2b0a00	-0.002609849
88	0xbb5de97d	-0.0033861094
89	0xbb732621	-0.0037101584
90	0x37542158	1.2643948e-05
91	0xb89be546	-7.4336815e-05
92	0xb991fe54	-0.00027846044
93	0xbb2d390d	-0.002643171
94	0xbb7d098c	-0.0038610427
95	0x39635f22	0.00021683847
96	0xb93283ae	-0.00017024457
97	0xb9e93bb7	-0.00044485714
98	0xbad78c4c	-0.001644501
99	0xbb593a6b	-0.0033146392
100	0xb9749b08	-0.00023327407
101	0x3aba6e50	0.001422355
102	0xb9b44bc0	-0.00034388714
103	0xbafbddd0	-0.0019215886
104	0xbb715d79	-0.0036829396
105	0x3a6287ec	0.000864147
106	0x3a4b8684	0.000776388
107	0xba8765e0	-0.0010330044
108	0xbb282afe	-0.002566039
109	0xbaaef29b	-0.0013347449
110	0x3ae5c9d2	0.0017531461
111	0x3b091daf	0.0020922234
112	0x3a0ad9b0	0.000529672
113	0xb98ccf88	-0.00026857504
114	0x3ac0177a	0.0014655434
115	0x3b369132	0.002785754
116	0x3b052069	0.0020313507
117	0x3a90ce55	0.001104782
118	0x3b0cbf95	0.0021476496
119	0x3b52502a	0.0032091239
120	0x3a88cfa4	0.0010437858
121	0xba1db900	-0.0006016642
122	0x3a6fa92e	0.0009142336
123	0x3b29417a	0.002582638
124	0x3b1f50cc	0.0024309633
125	0x3b3b9c62	0.0028627147
126	0x3b22dab0	0.0024849586
127	0x38b211a0	8.490984e-05
128	0xba93125c	-0.0011220681
129	0xbb014358	-0.0019723978
130	0x3b08e3fe	0.0020887847
131	0x39fc4680	0.00048117712
132	0xb9f03610	-0.00045816647
133	0xb912ad90	-0.00013988302
134	0x3a88b3d2	0.0010429567
135	0x3aa16020	0.0012311973
136	0xba8ad604	-0.0010592346
137	0xbaab6e80	-0.0013079196
138	0x39aedd00	0.00033352524
139	0x3ad70f02	0.0016407671
140	0x39464b90	0.000189109
141	0xbabce5c4	-0.0014411737
142	0xba2a56ee	-0.0006497939
143	0x3abc7c10	0.0014380235
144	0x3ab2b83a	0.0013635226
145	0xbadd975a	-0.0016906068
146	0xbb3865b2	-0.0028136787
147	0xba2fae28	-0.00067016715
148	0x3ae16f29	0.0017199266
149	0x3a89d6db	0.0010516302

exp_avg_sq f4 [6, 1, 5, 5]
0	0x393a95a6	0.0001779409
1	0x39619248	0.00021512166
2	0x39932d79	0.00028071905
3	0x39a55e89	0.00031541687
4	0x399ccb56	0.00029906136
5	0x398356c3	0.0002505091
6	0x399c76c6	0.00029843132
7	0x399e4b49	0.000301922
8	0x398d5bd7	0.00026962042
9	0x39816377	0.00024678904
10	0x39852843	0.00025397734
11	0x397d79d6	0.00024173348
12	0x394eda78	0.00019727077
13	0x392d3a40	0.00016520265
14	0x3937a94a	0.00017515305
15	0x393b02a9	0.000178347
16	0x39103ef3	0.0001375636
17	0x38f9e3a6	0.00011915648
18	0x3910a12e	0.00013792954
19	0x39370526	0.00017454158
20	0x38f5c7a3	0.000117196956
21	0x38cf4bd0	9.88465e-05
22	0x38f7563e	0.00011793942
23	0x39377a8b	0.00017497891
24	0x39578c13	0.0002055618
25	0x395ca3fd	0.00021041925
26	0x398bd20c	0.00026668643
27	0x3966bc35	0.00022004622
28	0x392461f3	0.00015676748
29	0x390180a1	0.00012350317
30	0x3969c290	0.00022293092
31	0x397ea4fa	0.00024284786
32	0x393dd598	0.00018104014
33	0x39041969	0.00012597967
34	0x38ff62b2	0.00012177731
35	0x393849e1	0.0001757513
36	0x3960c6d3	0.00021436372
37	0x3963430f	0.00021673388
38	0x393904f9	0.00017644827
39	0x395d1bc2	0.00021086543
40	0x39133ada	0.00014040936
41	0x3939302b	0.00017660919
42	0x39745067	0.00023299606
43	0x398d88d4	0.0002699556
44	0x39a3f5ff	0.00031273064
45	0x38ff47ae	0.00012172699
46	0x392f3266	0.00016708075
47	0x3972a7c5	0.00023141417
48	0x3994b87b	0.00028366208
49	0x39a6ec3d	0.00031837999
50	0x38d6cf2e	0.000102429054
51	0x38f68770	0.00011755421
52	0x392a2669	0.00016226772
53	0x395e3048	0.00021189556
54	0x395026da	0.00019850899
55	0x3903ebb5	0.00012580941
56	0x38e98158	0.00011134398
57	0x392bc2ca	0.00016380395
58	0x397ee18a	0.00024307347
59	0x39548768	0.00020268338
60	0x38d1539c	9.98147e-05
61	0x38c0d522	9.1949725e-05
62	0x393896e3	0.00017603817
63	0x39982825	0.0002902161
64	0x397ed95c	0.000243043
65	0x38aa69d2	8.125942e-05
66	0x38d68659	0.000102293394
67	0x3964812b	0.00021791893
68	0x39b056b0	0.00033633923
69	0x399923b1	0.00029209026
70	0x38b9aea1	8.8540146e-05
71	0x391ba78a	0.00014844365
72	0x3993ddfc	0.00028203416
73	0x39ce2ada	0.0003932331
74	0x399a0943	0.0002938007
75	0x3a1924fb	0.00058419973
76	0x3a044bbd	0.0005046686
77	0x39ebcaa2	0.00044973666
78	0x3a0cab3c	0.0005366092
79	0x3a2770f9	0.00063873787
80	0x39fe7ff5	0.0004854199
81	0x39fd0228	0.00048257527
82	0x3a02102e	0.00049615174
83	0x3a0e70f6	0.00054337026
84	0x3a3292b0	0.0006812019
85	0x39883476	0.00025979028
86	0x398752d4	0.00025810918
87	0x398b0f29	0.0002652344
88	0x39afedee	0.00033555873
89	0x39f3d560	0.00046507549
90	0x38964611	7.165608e-05
91	0x3868031d	5.531601e-05
92	0x38460a06	4.7216214e-05
93	0x38b56791	8.650043e-05
94	0x3978c27d	0.00023723576
95	0x37b0eacc	2.109017e-05
96	0x377ec430	1.5185258e-05
97	0x37956222	1.780788e-05
98	0x37fd8104	3.0220028e-05
99	0x3911c95c	0.0001390329
100	0x3a0cd778	0.00053726835
101	0x3a6a92a9	0.00089482457
102	0x3a8fa367	0.0010958732
103	0x3a8fc56c	0.001096887
104	0x3a80420d	0.000978531
105	0x3a4b0f85	0.0007746148
106	0x3a885fee	0.0010404566
107	0x3a8488ff	0.0010111629
108	0x3a7d6c96	0.00096673646
109	0x3a57f816	0.0008238567
110	0x3a59f7fa	0.00083148445
111	0x3a47a79d	0.0007616224
112	0x3a16221e	0.000572713
113	0x3a2ab56a	0.0006512018
114	0x3a2281eb	0.0006199169
115	0x3a0bf1fe	0.0005338489
116	0x39b00c30	0.00033578416
117	0x399e6be9	0.00030216508
118	0x39fa176e	0.00047701172
119	0x3a18ef01	0.0005833954
120	0x39a41b41	0.00031300823
121	0x398044b0	0.0002446524
122	0x399c5436	0.0002981738
123	0x39f00588	0.00045780488
124	0x3a0ce68f	0.0005374932
125	0x3979fe2f	0.00023841181
126	0x39c45066	0.00037443935
127	0x3a031033	0.0004999667
128	0x3a09495d	0.0005237067
129	0x39c2f65c	0.00037186116
130	0x399a9c25	0.00029489506
131	0x39f62db3	0.00046954825
132	0x3a10f97c	0.000553034
133	0x39fd6343	0.00048329876
134	0x39a98aa9	0.00032337502
135	0x39bf28ed	0.0003646085
136	0x3a1f065e	0.00060663174
137	0x3a14e9db	0.0005680599
138	0x39bb781b	0.00035756905
139	0x397759da	0.00023589228
140	0x3a01a445	0.00049454375
141	0x3a3777e1	0.00069987593
142	0x3a16d3c8	0.0005753604
143	0x3998a198	0.00029112096
144	0x3939fb35	0.00017736557
145	0x3a26188e	0.00063360564
146	0x3a3a925e	0.00071171473
147	0x39e50a27	0.00043685848
148	0x396305a7	0.00021650513
149	0x391277c4	0.00013968261

exp_avg f4 [6]
0	0xb93c3bb0	-0.00017951312
1	0x3ba7bad8	0.005118709
2	0x3897dfe0	7.241941e-05
3	0xbcb74d39	-0.02237569
4	0x39af3820	0.00033420417
5	0x3bef4734	0.0073021892

exp_avg_sq f4 [6]
0	0x3a623738	0.0008629444
1	0x3a6c6af6	0.0009018624
2	0x39eb382f	0.00044864553
3	0x3b76e0db	0.0037670645
4	0x3b64d734	0.003491831
5	0x3adb1471	0.0016714466

exp_avg f4 [32, 6, 5, 5]
0	0xb9b2f5aa	-0.0003413384
1	0xb98e347a	-0.0002712345
2	0x39e7dc30	0.00044223806
3	0x3a8f9069	0.0010953072
4	0x3a4ba79a	0.000776881
5	0xb7b9d244	-2.2151631e-05
6	0x39fe95fa	0.00048558397
7	0x3a753dce	0.0009355218
8	0x3a6c6549	0.0009017778
9	0x3a0cbc72	0.0005368657
10	0x371eb310	9.459225e-06
11	0x397e8664	0.00024273392
12	0x39b107bf	0.00033765842
13	0x3a5be7ec	0.0008388746
14	0x3a341072	0.00068689056
15	0x39a16417	0.00030782886
16	0x37f8de20	2.9667339e-05
17	0xb822b41c	-3.879155e-05
18	0x3924b523	0.00015707737
19	0x39acb8fe	0.00032944226
20	0x39ba4eab	0.00035535297
21	0x39282c63	0.00016038264
22	0x3927f460	0.00016017398
23	0x39952a11	0.00028450837
24	0x39921e74	0.0002786998
25	0xb90ae42a	-0.00013245703
26	0xb8e37194	-0.00010845359
27	0xb94a98ad	-0.00019321097
28	0x39c28911	0.00037104686
29	0x3a2d3e95	0.0006608752
30	0x3882d1c5	6.237956e-05
31	0xb9357b9a	-0.0001730755
32	0xb9120887	-0.00013926822
33	0x397e80f4	0.00024271366
34	0x3a57f8d0	0.0008238675
35	0x384e72e2	4.922122e-05
36	0xb7ae5cf0	-2.0785694e-05
37	0xb8064154	-3.200893e-05
38	0xb9a974e4	-0.00032321282
39	0xb8768a44	-5.877974e-05
40	0x39bf1d2f	0.00036452102
41	0x39ddb0ed	0.00042284225
42	0x3a196d17	0.00058527425
43	0x39972c1c	0.00028833828
44	0xb90dd3b4	-0.00013525673
45	0x399ab2bb	0.00029506334
46	0x3a190776	0.00058375986
47	0x3a2c1d0b	0.0006565607
48	0x38f0554a	0.00011459978
49	0xb981eac1	-0.00024779703
50	0xba1242dd	-0.00055794214
51	0xb841eb78	-4.6234083e-05
52	0x3a619790	0.00086056534
53	0x3abe5675	0.0014521616
54	0x3a836f10	0.0010027606
55	0xb9f31eb0	-0.00046371436
56	0xb8af4ed4	-8.359333e-05
57	0x3a3e661d	0.0007263141
58	0x3a8d7bb7	0.0010794316
59	0x3a834426	0.0010014817
60	0xb9f649bc	-0.00046975713
61	0x38787a30	5.9241604e-05
62	0x393d624c	0.00018061063
63	0x39bdfb47	0.00036236105
64	0x3a452321	0.0007520188
65	0xb8d1f6b4	-0.00010011849
66	0x39c88f78	0.00038253865
67	0x394e1859	0.00019654761
68	0xb908ccbc	-0.0001304624
69	0x390ae136	0.00013244603
70	0x39ebcaa8	0.00044973684
71	0x3a119584	0.00055535906
72	0x39cc4057	0.0003895785
73	0xb82661cc	-3.9668565e-05
74	0xb8c99b16	-9.613314e-05
75	0x38ebea20	0.000112492824
76	0x39bdb1f9	0.0003618149
77	0x39e3b364	0.0004343047
78	0x3943d299	0.00018675103
79	0x378994d0	1.6400969e-05
80	0x3814d6c4	3.5485966e-05
81	0x39b4d1aa	0.00034488487
82	0x39ce83c4	0.00039389555
83	0x39ee340c	0.00045433675
84	0x39d090b6	0.0003978067
85	0x393ee866	0.00018206387
86	0x394ee31f	0.000197303
87	0x38e0c078	0.000107170024
88	0x398e3fc5	0.00027131863
89	0x3a126bf7	0.0005585546
90	0x38cefb57	9.869661e-05
91	0x390c5816	0.00013384255
92	0xb7a193de	-1.9261552e-05
93	0xb7a5429c	-1.970055e-05
94	0x381ed9e8	3.7873077e-05
95	0x3987d58e	0.00025908317
96	0x3944e93f	0.00018778908
97	0x391aae25	0.00014751458
98	0x3990e941	0.00027639608
99	0x3953cfc9	0.00020199934
100	0xb9bb96f8	-0.000357799
101	0xb972dc9c	-0.00023161102
102	0x39e609ce	0.00043876324
103	0x3a8d9434	0.0010801614
104	0x3a515cda	0.0007986553
105	0xb9178e4a	-0.00014453489
106	0x3945916c	0.00018841558
107	0x3a4417d8	0.00074803596
108	0x3a876664	0.0010330197
109	0x3a2b9683	0.00065455603
110	0xb81b8d86	-3.7086684e-05
111	0x39387383	0.00017590639
112	0x39a0b796	0.0003065436
113	0x3a2094af	0.0006125671
114	0x3a5b83db	0.0008373835
115	0x39351373	0.0001726875
116	0xb6e52440	-6.828952e-06
117	0xb84b64cb	-4.8492842e-05
118	0x38b5365e	8.640879e-05
119	0x396979cd	0.00022265986
120	0x39dea738	0.00042467727
121	0x39300023	0.00016784719
122	0x39398912	0.00017694038
123	0x390bb51b	0.0001332354
124	0x399202e6	0.0002784945
125	0xb9e70252	-0.00044061482
126	0xb98b6696	-0.00026588578
127	0x3a0bfcd6	0.00053401047
128	0x3a8b6fdd	0.0010638196
129	0x3ab3f03c	0.0013728212
130	0x38cb9a40	9.7085256e-05
131	0x3990853d	0.0002756509
132	0x3a28e0d1	0.00064421917
133	0x3a8219ea	0.0009925936
134	0x3a5f950c	0.00085289846
135	0x38cee16c	9.8648336e-05
136	0x381c4e60	3.726629e-05
137	0x3996e3ce	0.00028779957
138	0x3a519f9c	0.0007996501
139	0x3a4e7830	0.00078761857
140	0x397a9f36	0.00023901169
141	0xb6a8c700	-5.029957e-06
142	0x39de2ad6	0.00042375055
143	0x3a12c1b5	0.00055983226
144	0x3999392d	0.00029225033
145	0x3986e8ee	0.00025732018
146	0x39ca6d20	0.00038609747
147	0x3a55178c	0.0008128814
148	0x3a2f60fe	0.0006690173
149	0x37ac0190	2.0504725e-05
150	0x39a74463	0.00031903674
151	0x3a171321	0.00057630433
152	0x39f67a60	0.00047011953
153	0x39bd3ec3	0.0003609565
154	0x39edaec4	0.00045334373
155	0x39792596	0.00023760492
156	0x39e94d3a	0.0004449876
157	0x39eddc4c	0.00045368297
158	0x39f4922c	0.00046648213
159	0x39a7eda0	0.00032029767
160	0x39b7ac6e	0.0003503295
161	0x3955f03e	0.0002040276
162	0xb77865c0	-1.4805642e-05
163	0xb83eaafc	-4.545877e-05
164	0x368d70d6	4.2152633e-06
165	0x39c32ae9	0.0003722527
166	0x3798c210	1.821018e-05
167	0xb9c99494	-0.00038448407
168	0xb90e9ffc	-0.00013601774
169	0x3a021259	0.00049618405
170	0xb8c58f5a	-9.420393e-05
171	0xb9bce710	-0.0003603031
172	0xb8418614	-4.6139656e-05
173	0x394e5ab3	0.00019679479
174	0x397f1264	0.00024325546
175	0x39615992	0.0002149104
176	0xb9330c70	-0.00017075404
177	0x3941b88c	0.00018474663
178	0x39660d42	0.00021939448
179	0x39e2d157	0.0004326205
180	0x3975071c	0.00023367669
181	0x395d8a8c	0.00021127815
182	0xb9b2a48d	-0.00034073406
183	0xb8ef1818	-0.00011400896
184	0x3a2c0396	0.00065618136
185	0x3980b62e	0.00024549797
186	0x39c763da	0.00038030633
187	0x3a2fcc37	0.00067061506
188	0x39f71717	0.00047128715
189	0xb5e96200	-1.7388375e-06
190	0x38ac872e	8.226778e-05
191	0x39e96127	0.00044513607
192	0x3a4099f1	0.0007347158
193	0x3a3137d2	0.0006760332
194	0x39875786	0.00025814417
195	0x3a56eef0	0.00081990566
196	0x3a141d65	0.0005650132
197	0x3a28004a	0.00064087345
198	0x3a87fde4	0.0010375348
199	0x3aa88085	0.0012855685
200	0x3a391979	0.00070609857
201	0x39859bc5	0.00025483794
202	0x39b6dec6	0.00034879724
203	0x39da2c2f	0.0004161312
204	0x3a5e73f4	0.00084859063
205	0x39a74566	0.00031904428
206	0xb9a0f110	-0.00030697184
207	0xb8503f50	-4.965003e-05
208	0x3a4546e0	0.0007525515
209	0x3aa5131e	0.0012594198
210	0xb8d477f4	-0.00010131291
211	0xb654c980	-3.170775e-06
212	0x38cbb203	9.7129516e-05
213	0x39c111ec	0.0003682518
214	0x3a80f7ae	0.0009839439
215	0xb8ffeadc	-0.000122030935
216	0x398cad71	0.00026832105
217	0x3a2d526f	0.000661171
218	0x39d1d3b4	0.00040021318
219	0x3a195f96	0.000585073
220	0xb96359de	-0.00021681885
221	0x3a1bb100	0.0005939156
222	0x3a6488d8	0.0008717901
223	0x3a93b2c0	0.0011268482
224	0x3a10b332	0.0005519866
225	0x38ad2d68	8.2577404e-05
226	0x393446b0	0.00017192471
227	0x39d653fa	0.00040879828
228	0x39c29680	0.00037114695
229	0x3890d558	6.9061934e-05
230	0x395e84aa	0.00021220991
231	0x38e6562a	0.00010983304
232	0x393a8b38	0.00017790205
233	0x3991e010	0.00027823495
234	0x38615172	5.3720032e-05
235	0x392055f4	0.00015290809
236	0x3810c11c	3.4512123e-05
237	0xb937654d	-0.00017489977
238	0xb937508a	-0.00017482243
239	0xb82c5c09	-4.109371e-05
240	0xb92e39d3	-0.00016615474
241	0x3980b586	0.00024549308
242	0xb7f9834e	-2.9744257e-05
243	0xb8dfaa4a	-0.000106651874
244	0xb9279955	-0.00015983482
245	0x38ab8ef2	8.180541e-05
246	0x3982941e	0.00024905888
247	0x3802b664	3.116428e-05
248	0xb89a4f84	-7.358103e-05
249	0xb9a1fb64	-0.00030895614
250	0x398337e8	0.0002502792
251	0x3a13b6e9	0.0005634861
252	0x3a178f58	0.0005781553
253	0x39dc6c3c	0.0004204231
254	0x39e95445	0.0004450401
255	0x39a24974	0.00030953775

exp_avg_sq f4 [32, 6, 5, 5]
0	0x366b64de	3.5076441e-06
1	0x3675b0c4	3.6610736e-06
2	0x36b9081d	5.514374e-06
3	0x370b7684	8.31264e-06
4	0x3715ce93	8.929189e-06
5	0x36d0b701	6.2201875e-06
6	0x3720efe0	9.592593e-06
7	0x376bb4e1	1.4049206e-05
8	0x3784117a	1.5743764e-05
9	0x37533d0b	1.2590793e-05
10	0x37035d8f	7.829992e-06
11	0x37343d47	1.0743103e-05
12	0x374590de	1.17758445e-05
13	0x373769a2	1.0932245e-05
14	0x373521c4	1.0796302e-05
15	0x36aa72cf	5.0797603e-06
16	0x3688008b	4.053179e-06
17	0x366ef4fa	3.5607359e-06
18	0x36bac240	5.5658456e-06
19	0x3706aef2	8.027755e-06
20	0x36d80fca	6.4391397e-06
21	0x36bb19fa	5.5760584e-06
22	0x36d3c89a	6.311643e-06
23	0x3710f949	8.64111e-06
24	0x3722adb1	9.696393e-06
25	0x373787f6	1.0939306e-05
26	0x376ac3af	1.3993048e-05
27	0x3781abdc	1.5458027e-05
28	0x378ea415	1.7004126e-05
29	0x37a44995	1.9584588e-05
30	0x3702b743	7.791273e-06
31	0x3714106a	8.825309e-06
32	0x37387893	1.0995328e-05
33	0x376ecae2	1.4233143e-05
34	0x3791c4b9	1.7376953e-05
35	0x36eb1968	7.0065034e-06
36	0x36e82b15	6.919154e-06
37	0x37075aed	8.067797e-06
38	0x371f9a72	9.513098e-06
39	0x374d0754	1.2220658e-05
40	0x37875101	1.6130974e-05
41	0x379e6dfd	1.8886285e-05
42	0x376781b8	1.3798875e-05
43	0x371ee779	9.471428e-06
44	0x3730dd86	1.0541995e-05
45	0x37994a3e	1.8273593e-05
46	0x37de2822	2.648315e-05
47	0x37c8a3c7	2.3918123e-05
48	0x3782e348	1.5603044e-05
49	0x37382d0e	1.0977745e-05
50	0x374842a2	1.1936443e-05
51	0x37804e0e	1.5295136e-05
52	0x37892041	1.6346692e-05
53	0x379c1ead	1.8610934e-05
54	0x379882c4	1.8180705e-05
55	0x37766140	1.4685385e-05
56	0x37940de3	1.7649441e-05
57	0x37a9322f	2.0169738e-05
58	0x37d1b278	2.4997848e-05
59	0x37cf37c5	2.4702293e-05
60	0x375bce49	1.3101447e-05
61	0x3764ca0f	1.3636904e-05
62	0x378e7d79	1.6986147e-05
63	0x37bae063	2.2277416e-05
64	0x37b77a27	2.1872182e-05
65	0x378c6ffd	1.674145e-05
66	0x376296cd	1.3505761e-05
67	0x374d0935	1.2221096e-05
68	0x376eb882	1.42288645e-05
69	0x37887f12	1.6271635e-05
70	0x37d96255	2.5914205e-05
71	0x37d6b198	2.5593486e-05
72	0x3793e7d7	1.7631724e-05
73	0x375b905b	1.3087028e-05
74	0x376289db	1.3502747e-05
75	0x35d587d9	1.5909274e-06
76	0x35e59e5e	1.710792e-06
77	0x35dc6058	1.6419317e-06
78	0x35c5ee6c	1.4747034e-06
79	0x35a3d6ea	1.2206995e-06
80	0x3627505f	2.4931721e-06
81	0x3671c8f8	3.6028778e-06
82	0x367ba560	3.7498176e-06
83	0x3658022a	3.2187768e-06
84	0x36348be6	2.6903522e-06
85	0x36049b8e	1.9760078e-06
86	0x362039de	2.387554e-06
87	0x362fcf11	2.619756e-06
88	0x3640858e	2.8687969e-06
89	0x362ca7cd	2.572767e-06
90	0x35914524	1.0823464e-06
91	0x3530b4da	6.5828283e-07
92	0x3533ead0	6.7024394e-07
93	0x35945653	1.1051983e-06
94	0x35d1e918	1.5639553e-06
95	0x364a5362	3.014888e-06
96	0x361a450c	2.2987979e-06
97	0x35cf661d	1.5452421e-06
98	0x35c2cdad	1.4513986e-06
99	0x35f038a3	1.7897877e-06
100	0x3662ab99	3.3776507e-06
101	0x36686363	3.4628545e-06
102	0x36959ede	4.4590406e-06
103	0x36e0c295	6.6983725e-06
104	0x36f13883	7.1889385e-06
105	0x36b45f07	5.3754807e-06
106	0x3705c8b9	7.974152e-06
107	0x37430e04	1.1626169e-05
108	0x375cf83f	1.3170821e-05
109	0x37327690	1.0637232e-05
110	0x36cdfbe2	6.138799e-06
111	0x370eac8a	8.504032e-06
112	0x37254074	9.849773e-06
113	0x371f6cde	9.502486e-06
114	0x371483ae	8.8521465e-06
115	0x36940fbf	4.412577e-06
116	0x364e3ad1	3.0730628e-06
117	0x3621db4f	2.4118524e-06
118	0x368ad318	4.137295e-06
119	0x36e1c6d7	6.7286705e-06
120	0x36eaefbb	7.0016517e-06
121	0x36ba035f	5.5436244e-06
122	0x36a46422	4.899238e-06
123	0x36d1237b	6.232816e-06
124	0x37039ce2	7.844736e-06
125	0x371e88fb	9.449427e-06
126	0x37725c1c	1.444577e-05
127	0x37b4d2ba	2.15558e-05
128	0x37d0be8f	2.4884268e-05
129	0x37d14d3a	2.4950703e-05
130	0x378050eb	1.529647e-05
131	0x37bccd59	2.2506969e-05
132	0x37dcfa33	2.6342552e-05
133	0x37d8ccdc	2.5844602e-05
134	0x37e81672	2.7667007e-05
135	0x378b9288	1.6638325e-05
136	0x37b0c29a	2.1071453e-05
137	0x37ad9fa2	2.0697542e-05
138	0x37bd7230	2.2583728e-05
139	0x37d86949	2.5798234e-05
140	0x376c64b0	1.4090139e-05
141	0x3788d087	1.6309566e-05
142	0x37a269b3	1.9361125e-05
143	0x37c6bce1	2.3691393e-05
144	0x37cc3b75	2.4346382e-05
145	0x378f1782	1.7057875e-05
146	0x37bd9ad7	2.2602659e-05
147	0x37e5bd5a	2.7387101e-05
148	0x37e46d33	2.7230568e-05
149	0x37bf8d36	2.283473e-05
150	0x3651498f	3.1186244e-06
151	0x3654ca67	3.1708275e-06
152	0x36cbd3ca	6.074527e-06
153	0x371c901a	9.331876e-06
154	0x3704fb77	7.926362e-06
155	0x3645ed79	2.9493515e-06
156	0x369e80d5	4.723765e-06
157	0x371bf1b6	9.294998e-06
158	0x372036ac	9.549472e-06
159	0x36afffce	5.245186e-06
160	0x3680bd2f	3.836721e-06
161	0x36cb90d8	6.0667335e-06
162	0x36d0d063	6.2231425e-06
163	0x366bfd3a	3.5165126e-06
164	0x3628478b	2.5075594e-06
165	0x370230ee	7.759996e-06
166	0x3710f8b6	8.640976e-06
167	0x36d48ffe	6.3348552e-06
168	0x36b55566	5.404162e-06
169	0x36c49566	5.8586475e-06
170	0x374047ec	1.1460837e-05
171	0x37629fcd	1.3507856e-05
172	0x37655c52	1.3670959e-05
173	0x3756bcc4	1.2799344e-05
174	0x37198442	9.150304e-06
175	0x371b56cc	9.258929e-06
176	0x375208d2	1.2519029e-05
177	0x37217367	9.623217e-06
178	0x37104e1e	8.601257e-06
179	0x371c80ee	9.328343e-06
180	0x37335541	1.0689081e-05
181	0x3750e9f7	1.245224e-05
182	0x37117d6f	8.671878e-06
183	0x36f97a8f	7.435046e-06
184	0x36fe5b82	7.580443e-06
185	0x3754f1b3	1.269246e-05
186	0x3798999b	1.819134e-05
187	0x3779a655	1.4880284e-05
188	0x37253935	9.848086e-06
189	0x36fb7c86	7.4948794e-06
190	0x375c3f07	1.3127697e-05
191	0x37b2c51d	2.1311042e-05
192	0x37a3bc3c	1.9518768e-05
193	0x375a33af	1.3005846e-05
194	0x37163839	8.953787e-06
195	0x37166e6f	8.966409e-06
196	0x375d55d9	1.31926145e-05
197	0x37566f78	1.2781347e-05
198	0x373ec368	1.1370379e-05
199	0x37252b49	9.8448445e-06
200	0x377af183	1.49573925e-05
201	0x37855b30	1.5897298e-05
202	0x373f7c8e	1.1413487e-05
203	0x372929e5	1.0082939e-05
204	0x372ee741	1.0425051e-05
205	0x37b272c5	2.1272697e-05
206	0x37904e55	1.7202614e-05
207	0x3713f94d	8.819928e-06
208	0x371b564f	9.258815e-06
209	0x372e6cc9	1.0396537e-05
210	0x37dd630f	2.639138e-05
211	0x37959f7c	1.783645e-05
212	0x36ff0731	7.6004294e-06
213	0x36f31ac5	7.2450807e-06
214	0x37062cc7	7.997448e-06
215	0x37fa748f	2.98566e-05
216	0x37ba897e	2.2236953e-05
217	0x374fd7be	1.2388393e-05
218	0x371aadec	9.21961e-06
219	0x370e63c9	8.487093e-06
220	0x37d49e90	2.5346206e-05
221	0x37baac5b	2.2253187e-05
222	0x37927ce4	1.7462713e-05
223	0x376feaab	1.4300148e-05
224	0x3740ba8b	1.1487525e-05
225	0x352ba9d0	6.3949574e-07
226	0x34f0153c	4.4718934e-07
227	0x356ac038	8.745151e-07
228	0x35e11962	1.6771194e-06
229	0x35e26627	1.6868042e-06
230	0x34ef6e91	4.4597667e-07
231	0x34adb186	3.2352926e-07
232	0x350f9969	5.349489e-07
233	0x35910205	1.080393e-06
234	0x35806b99	9.568058e-07
235	0x3545d2e0	7.369508e-07
236	0x34a1b4bf	3.0120097e-07
237	0x3453f145	1.973868e-07
238	0x34bb42f7	3.4880188e-07
239	0x34f9e13b	4.654374e-07
240	0x361c5d88	2.3300254e-06
241	0x35e28677	1.6877447e-06
242	0x359bc605	1.1606031e-06
243	0x357bf953	9.38676e-07
244	0x35692042	8.6846205e-07
245	0x367e240e	3.7869936e-06
246	0x36a08de7	4.784891e-06
247	0x3693ce7d	4.40498e-06
248	0x364b7db5	3.0322528e-06
249	0x35cd1a60	1.5281366e-06
250	0x364b3bd4	3.0284182e-06
251	0x3634d3a8	2.694529e-06
252	0x369ae09a	4.6157047e-06
253	0x3704e053	7.920043e-06
254	0x36f6aef7	7.35174e-06
255	0x364b34fc	3.0280198e-06
