project_3/models/CNN_mnist.pt (torch, 265634 bytes, 10 tensors)

weight f4 [6, 1, 5, 5]
00000000: 2132 d9be 2dca b73d d6d3 073d f19c 893e
00000010: fa86 3dbe 28be 093e 3785 643f 4ad0 9f3f
00000020: b91a 963f e906 d33e 956e 013f 1ccc 7f3f
00000030: 7ede 923f b7c3 1f3f b6a7 dd3e 0a5e a43d
00000040: f510 e93e f220 803d e5e5 15bf e189 60bf
00000050: f640 e5be 838a 2dbf ecff 3ebf 62a8 6cbf
00000060: 5f87 d6bf 187d 4abf bd50 18bf c181 2abf
00000070: caaa babe dd1d edbe a2f9 323e 1d18 5d3e
00000080: 1b0d b83e af2b 9c3e f6dd 013e 186f 893f
00000090: a3c7 963f d46a b33f e07d 863f 5580 223f
000000a0: 6d92 493f 4902 983f 960f bb3f 9044 913f
000000b0: dcdc 403f d7fa 1ebf 8c20 96be 90d4 b7be
000000c0: 5b44 e43c b9d9 cdbe e1d3 fe3e 6984 353f
000000d0: 1b9d 3a3e fe36 cc3d 8c2d 863d 75ae e73e
000000e0: e990 dc3e b32c f4bd 10d6 3cbf 00c4 2bbf
000000f0: 8881 2a3f ac24 b53e b4d3 cdbe e112 b7bf
00000100: 1f15 10bf ce53 203f 5bb1 b53e 205c 64bf
00000110: 36bf c0bf 3c21 fbbe 9083 4e3f e3ab 1b3f
00000120: 73de 0dbe 4d45 5bbf 9f70 b9be e455 8ebf
00000130: 28e4 44bf 99ea c7be bd94 0fbe bf20 92bd
00000140: adff 46bf fa0b f03d 88fd 303f 413a 4d3f
00000150: bd01 303f 8b1c ab3e 9051 783f 59b7 743f
00000160: f96b ad3f e286 963f a31f 8b3e e0b7 b43e
00000170: 164b fe3e fe09 353f 5ae3 bb3e 45c9 5bbf
00000180: dff9 c4be 1a77 65bf 092d f2be a681 4ebf
00000190: 210e 233f bd93 523f c4f1 2a3f f741 3fbd
000001a0: 0f83 f5be 0dfd 0c3e 5228 883e 7e74 b3be
000001b0: 04e0 f2bf 67ff 9dbf 6a75 a93d 6d8a dd3d
000001c0: 0e33 9abf e755 e9bf 446b c3bc 59f8 94bc
000001d0: 8125 27bf ff86 00c0 be69 07bf 1b98 093f
000001e0: 7ed7 993e 77c8 6abf 087d 97bf 1500 52bd
000001f0: 3b64 0a3f 7421 a6bf ea19 97bf ad6b 90bf
00000200: 9606 04bf a966 8dbf 9906 06bf f8a2 52be
00000210: 4fb3 6cbe 9f35 6e3d 4ded 2cbf 327d 09be
00000220: 3b69 b63e 7392 d23e f342 113f f91a 5d3d
00000230: 9469 9f3f 54df aa3f 6b5b bb3f fa1b 5f3f
00000240: ae63 643f e6fe 693f 8f2e 823f 9863 3a3f
00000250: d0af 8b3f 83a0 203e
-0.42421058 0.08974109 0.033161007 0.2687755 -0.1850852 0.13451445 0.8926577 1.248544
1.1726905 0.4121621 0.5055936 0.9992082 1.1474149 0.6240801 0.43292016 0.08025749
0.4552075 0.06256284 -0.58553916 -0.87710387 -0.44776124 -0.6778948 -0.74609256 -0.9244443
-1.6760062 -0.7909713 -0.59498197 -0.6660424 -0.36458427 -0.46311846 0.1747804 0.2159123
0.359475 0.30502078 0.12682328 1.0737028 1.1779674 1.4016976 1.0507164 0.6347707
0.78739053 1.1875697 1.4614131 1.1349049 0.75337005 -0.621015 -0.29321706 -0.3590436
0.027864626 -0.40205172 0.49771026 0.70905167 0.18223993 0.099714264 0.06551656 0.45250288
0.43079308 -0.11922588 -0.73764133 -0.6709595 0.666039 0.3537954 -0.4020058 -1.4302636
-0.5628223 0.62627876 0.35486874 -0.8920307 -1.5058353 -0.49048793 0.806695 0.60809153
-0.13854389 -0.8565262 -0.36218736 -1.1119962 -0.7691064 -0.3904617 -0.14021583 -0.07135152
-0.7773388 0.11721034 0.6913686 0.80167013 0.6875265 0.33420214 0.96999454 0.95592266
1.3548576 1.1759913 0.27172574 0.35296535 0.4966666 0.7071837 0.36696893 -0.8585399
-0.38471887 -0.8963486 -0.47299984 -0.8066658 0.63693434 0.8225668 0.66775155 -0.04669377
-0.47951552 0.13768406 0.26593262 -0.35049814 -1.8974614 -1.2343568 0.08274348 0.10817418
-1.2046831 -1.822934 -0.02385486 -0.018184828 -0.652916 -2.0082395 -0.52895725 0.5374772
0.3004722 -0.91712135 -1.1835032 -0.05126961 0.5405919 -1.2978959 -1.1804783 -1.128286
-0.5157255 -1.1046954 -0.5235382 -0.2056998 -0.23115276 0.058156606 -0.6754959 -0.13426664
0.3562716 0.41127357 0.5674278 0.0539808 1.2454095 1.3349404 1.4637274 0.87152064
0.892146 0.9140457 1.0170459 0.7280822 1.0913029 0.1568623

bias f4 [6]
00000000: 6eb8 74bf d7f1 9abf e20c aabd 3acf b3bf
00000010: ab47 d73e 8d20 bdbf
-0.9559392 -1.2105054 -0.083032385 -1.4047616 0.42046866 -1.4775559

weight f4 [16, 6, 5, 5]
00000000: f1da 833d cca3 edbd a958 bcbd c7ef 15be
00000010: fe5e a6bd 0c90 05be 8888 96be 3c3a 96be
00000020: 660c 01be 8c08 85be 7f9c 17be c398 363e
00000030: f316 03be 19ab ffbe 48c3 afbe a88f c3bd
00000040: 9483 e63d 3b39 7fbe 8b2f 74be d1ef 14bd
00000050: 667f 66be f3f7 0bbe 1b5e 69be 582d 1dbe
00000060: ab3f eabd 4543 2ebe 41a1 2abe e235 8ebe
00000070: 9316 ccbd 8cd0 053e c2b1 aabd 760d 2abd
00000080: b684 00be 24c7 cabe 45be 2bbe 70e8 703d
00000090: 4d9b fd3d bb5f a7bc 1384 86be 06f5 81be
000000a0: f52c 9cbd 7108 adbc d520 86bd c32a 1c3d
000000b0: 2ac9 89bd 1e9c 73bd 3f4e 2dbe 835e 1bbd
000000c0: 5b01 013c 1e0c ca3d 04eb b53e 53e8 c73e
000000d0: 9581 3d3e be70 203e 5d94 8ebe 6492 383f
000000e0: ab7b a03e 3ccb af3e 2fe9 b83e 3006 ab3d
000000f0: 1cbf c23e 7277 37be 23be b93e efed 863e
00000100: ca0d 17be 3a0e 5e3e 796b 573e a189 d53e
00000110: 1c32 7abd e062 3cbd 72bc b53d 085e b93e
00000120: cbdf 303e aa1a 843b 60b7 5abe 435e 46be
00000130: 6835 53be 3537 91bd d1c6 df3a bcdb cf3a
00000140: 8c68 5abe cb90 01bf 25b5 73be e4a5 afbe
00000150: 83af b9bc 42cc b3bc ac66 43ba c14b e0bd
00000160: ac77 6ebe a075 23be 3e89 7cbd d820 033d
00000170: 1cce 42be b368 323c 7e98 1b3d 2379 69be
00000180: 5338 a3be 9d89 163d 5e21 d6bd a8dd f3bd
00000190: 8479 533d c0e3 f73e 45e6 ed3e 25f4 dc3e
000001a0: 4059 5b3e e21d f33e 04fe 123f 4f3b 013e
000001b0: 27f0 003f e7cf ce3e d8cb f53e 7f17 a3bd
000001c0: 5231 183e c59a c33e 455d 2f3e aa53 943d
000001d0: 27b7 e03d 5258 193f 1ebd 023e fc1e 183e
000001e0: 622b 823d 1af3 853e c854 f03e 7804 c5bd
000001f0: 2b70 cdbd 4af0 6cbe 0438 90be 6b51 a4be
00000200: fe59 75be d755 82bd 3024 5dbc 60ae 243e
00000210: 8bd7 c13d f58b 6ebe 11f0 6abe e24b b8bd
00000220: e292 7bbd 88ef c7bd ae7b a9bd 14e9 523d
00000230: 1e39 33be c555 3ebe 9da9 61be fef8 0c3e
00000240: 1adc 083e 9d1f a23d 4b90 8bbd 4079 f6bd
00000250: 82d8 a43c 91c5 9c3e 7a4b b9be 14df b6be
00000260: 0890 21bc 3f33 1a3d 7823 373e debb d0be
00000270: 7708 06bd 2f2d c53e 8ab2 f63e 12f9 2e3e
00000280: 7297 8c3e e496 223f c2cf 0c3f a14a d23e
00000290: 8ed1 67bc ff90 c63e 2e44 023f f22e 103d
000002a0: 9574 a8be 86fd 86be d54d 57be 9311 2bbf
000002b0: 022e 4fbf 94aa d3be dfb9 493d 259b 47be
000002c0: 523b 91bd 418d 193d c50e 7e3e 00ad 30ba
000002d0: 5765 da3d a4c1 af3e 284f 883e 6776 9f3e
000002e0: 812c 9f3b c60b a03e fcad 503e cb02 383d
000002f0: 7faa 6cbd 9c2c 95be e3f1 a53e 12af 78be
00000300: 812e 52bf 9e47 1dbf 894a 50be 4aad 9dbe
00000310: 32a2 a7be dfaf 03be 9fb9 43ba adb0 863d
00000320: ab8b 3cbe 5f97 50bf 1625 1bbf bf1c fa3c
00000330: ad04 00be c690 32bf ac50 69bf 6085 acbe
00000340: b54d f9be b793 c0be e4f9 4fbf 1891 46be
00000350: 219d bebd 452b 9fbe f014 5b3d e47e 123e
00000360: 21b8 0b3f 1edb 283f 0413 413e 3421 8b3e
00000370: 4bd3 e33d dae6 073e c536 dc3e 6c61 043e
00000380: 7ab8 a83d 7aa2 9dbe d1d4 ba3d c8ed ab3e
00000390: 14e8 6d3e 470a 1e3d a2f7 f0bc 477a c33e
000003a0: b41f d63e 49c3 ab3d 8701 5fbb 5f41 de3e
000003b0: 1c49 103f 3885 a33e c08d 263e 867c 77bd
000003c0: f946 af3e 2122 8cbd 3c97 08bf f4ff f2be
000003d0: c3e8 3fbe 47bd 6abe 5c45 11bf 6ca3 fbbe
000003e0: 8ac4 0bbd 05ec 9abd b070 55be 92c8 04bf
000003f0: 3c37 2dbf 55d1 83be 000e d6bd 1134 9bbe
0.06438244 -0.116035074 -0.09196598 -0.14642249 -0.08123587 -0.13043231 -0.2940104 -0.29341304
-0.12602386 -0.25983083 -0.14805792 0.17831711 -0.12801723 -0.49935225 -0.34328675 -0.09548885
0.11255565 -0.24924175 -0.23846261 -0.03636152 -0.22509536 -0.13668804 -0.22789805 -0.15349329
-0.11437925 -0.17017849 -0.16663076 -0.27775484 -0.09965243 0.13067836 -0.08334686 -0.041516744
-0.12550625 -0.39605057 -0.16771801 0.05881542 0.12383137 -0.02043139 -0.2627264 -0.2538225
-0.076257624 -0.02112219 -0.06549231 0.03812672 -0.06727822 -0.059475057 -0.1692438 -0.03793193
0.007873858 0.098655924 0.35530865 0.39044437 0.18506463 0.15668008 -0.27847567 0.72098374
0.3134435 0.34334743 0.36115405 0.083507895 0.3803643 -0.17916659 0.36277875 0.26353404
-0.14751354 0.21685115 0.21037091 0.41706565 -0.061082944 -0.045992732 0.08873834 0.36204553
0.1727287 0.004031499 -0.21359015 -0.19371895 -0.20625842 -0.07090608 0.0017072802 0.0015858333
-0.21328944 -0.5061156 -0.2379957 -0.34306252 -0.022666698 -0.021947984 -0.0007453959 -0.10951949
-0.23287839 -0.15962839 -0.06165432 0.032013744 -0.19023937 0.01088922 0.037987225 -0.22800116
-0.3187891 0.036752332 -0.10455583 -0.11907512 0.05162956 0.48415947 0.46464744 0.43155017
0.21420765 0.47483736 0.5741885 0.1262028 0.50366443 0.40392992 0.48007083 -0.07963466
0.14862564 0.38204017 0.17125423 0.0724252 0.109724335 0.5990039 0.12767455 0.1485557
0.06355931 0.26162034 0.46939683 -0.09619993 -0.1003116 -0.23138538 -0.28167737 -0.32093367
-0.2396011 -0.06364029 -0.013497397 0.16082144 0.0946494 -0.23295577 -0.2294314 -0.089988485
-0.061419375 -0.09762484 -0.08275543 0.051491812 -0.17502257 -0.18587406 -0.22037359 0.13766858
0.13365212 0.07916186 -0.06814631 -0.12034845 0.02012277 0.3061948 -0.36190397 -0.3571707
-0.009861 0.03764653 0.17884624 -0.4076833 -0.032722916 0.38511035 0.4818309 0.170872
0.27459294 0.6351149 0.55004513 0.41072562 -0.014149083 0.38782498 0.50885284 0.03520102
-0.32901445 -0.26365298 -0.21025784 -0.6682369 -0.8092958 -0.41341078 0.049249526 -0.19492777
-0.070913926 0.037488226 0.24810322 -0.0006739646 0.1066386 0.34327424 0.2662289 0.3114502
0.0048576 0.31258982 0.2037887 0.04492454 -0.057779785 -0.29135597 0.32411107 -0.24285534
-0.8210221 -0.61437404 -0.20340933 -0.30796272 -0.32740933 -0.12860058 -0.00074663194 0.06576667
-0.18412654 -0.81480974 -0.60603464 0.030531285 -0.12501784 -0.69752157 -0.9113872 -0.33695507
-0.48692098 -0.37612697 -0.8124068 -0.19391286 -0.09307314 -0.310877 0.053486764 0.14306217
0.54577833 0.65959346 0.1885491 0.2717377 0.11124285 0.13271657 0.43010536 0.12927788
0.08238311 -0.30788022 0.09122623 0.3357985 0.23233062 0.03858402 -0.029414956 0.38179228
0.41821063 0.08386857 -0.003402801 0.4340925 0.56361556 0.31937575 0.16265011 -0.06042149
0.34233835 -0.06842447 -0.53355765 -0.47460902 -0.18741135 -0.22923766 -0.5674646 -0.49148118
-0.03412298 -0.075645484 -0.20843768 -0.51868546 -0.67662406 -0.25745645 -0.10451889 -0.3031316

bias f4 [16]
00000000: b81b c9bc b913 33bd 06d7 69b8 4b3b e6bd
00000010: 2e85 ddbd db90 99bb f813 9e3c d60f 3bbd
00000020: d236 f1bd 6262 5b3c 1648 80bd 8262 133e
00000030: 94d5 b13d fc43 9a3d 5e82 b8bb 5114 d93c
-0.02454935 -0.04371998 -5.5751785e-05 -0.11241778 -0.10816418 -0.0046864576 0.019296631 -0.0456694
-0.11778034 0.0133901555 -0.06263749 0.14393046 0.08683315 0.07532498 -0.0056307754 0.026498945

weight f4 [120, 400]
00000000: aba2 80bd 844b 08bd 2fd6 a8bd 860b 31bd
00000010: fb0e a8bd aed2 38be 4fe4 a4be 86d2 24be
00000020: 3988 a4bd 9325 29bc dd67 6d3d db32 03be
00000030: d928 8bbe 630e a83d 9a1a 403d 962b 893e
00000040: 9ca3 143f 268d b33e 008a 583e fd1f 943d
00000050: 7fe1 223d f82d 723e a284 cf3d 4aad ae3b
00000060: 37ad 403d 6bf6 efbd cee2 9c3d 4447 39be
00000070: 3363 54be c576 413c 2e09 66bd a9e5 aabd
00000080: b2ec eebd 28e7 713e 1ea7 ac3e 018a 233e
00000090: ab58 8d3e e957 713d 5dc8 0f3f fc86 573e
000000a0: 57b4 573e 899e 46bd e8a9 27bc ab95 09be
000000b0: ee14 3b3e c741 d0bd a877 9cbe 57fa 28be
000000c0: 3478 69be 0f9f 92be 5a93 853e 1fa9 643e
000000d0: c8c5 34bd bd01 4dbd 077f 80bd 7243 513e
000000e0: 9914 533e 2d3e b43d cbf2 903c 5e41 be3e
000000f0: 12ff 30bd fe16 2b3e ed32 b93e c342 273f
00000100: faf3 063f d96d 1abe a173 72be 501d a3be
00000110: adbb b8bd 22bb b8be 6fca c9bd dfe8 8fbe
00000120: 25e6 85be ca6d 92bd 3ed6 87be 6e16 cf3d
00000130: 3362 8cbb d7cf 06bd fee2 053e 3140 453e
00000140: 053f ebbb 81ca 45bd 3b9e 28bd 34b2 8abd
00000150: 495c 563e ca81 0ebe ab48 b0bc af7f f1bb
00000160: 6b47 2ebe 29f1 313e dfd0 27be d801 0dbe
00000170: 2139 9fbb ab27 84be 3ad7 8ebe 8b46 9abd
00000180: 165f 0a3d 9859 233e c7d3 be3d 3df9 d9bd
00000190: b0d7 aabc 6069 04be 6b89 bdbd 9c9c 0e3e
000001a0: 71c8 9d3c ef83 2ebe ca35 87be 7558 97be
000001b0: f4b6 be3e 17ce b6bd c44d 22be e2d9 40be
000001c0: 05ae 34bd 0bdd 263d ed36 b1bd 6211 a53c
000001d0: a625 463e 22b0 283a 5c7e f03e a21b 7d3e
000001e0: 272a cc3d 36f4 933e 101f f03d 9c8c 603d
000001f0: 73b8 213e 3147 64bd 0d00 08be e27c 483e
00000200: 1868 31bd c0e1 d8bd d5bd 0abe 6065 69be
00000210: 0237 3ebe b4e2 12be bea9 3dbd 49e7 a3bd
00000220: fbf3 e3be 291e a0be 190d 07bd 25c8 80bc
00000230: 0689 de3e ad1a 873d 9fce 1d3e 45b8 163e
00000240: 3db2 703d 6bda 7c3e 48dc a3bc 718c 6bbd
00000250: 9765 033e 982e 3c3d 69bd 18be 6ed5 a5be
00000260: f21c 49be 5b76 b7bd 4ca5 1bbe c309 a2be
00000270: c2b4 f0bd 5036 423e a35e d63d 4f30 73be
00000280: e710 9cbe 4b17 5abd 7d2b f8bd e2f1 3fbe
00000290: 2638 0cbe 6b88 42be 0391 c83e 559f 293f
000002a0: 078b 323e bd67 9c3c 7daf 28be 1686 3d3f
000002b0: 0538 113f e8b2 993e f1c3 4f3d 8850 dcbd
000002c0: 9e53 bdbe b3d7 3b3d 2bec 25bd 868f c33e
000002d0: fe80 fdbb 6180 27bd b3e2 6f3d da99 173e
000002e0: 4e3e 4c3e 66e4 6c3d 31d0 2ebe 16db 463c
000002f0: c270 153e dc6f 7a3c a1de 2c3f ce48 eb3e
00000300: b8ff 743e 75d1 0a3d 8f6e 28be 2406 083e
00000310: a3fc 8e3d f0ff f1bd 05d2 54be 3e82 35be
00000320: 2c5a 8f3b dce0 bebd b607 d1bd 9862 24bc
00000330: 612c 583f c2e1 013d e182 9ebe b0cf 64be
00000340: ce9f 58be 4101 6f3d 1351 a5bd c68b 803c
00000350: 5f15 10be 5955 78be ed3f 31be acc0 21be
00000360: 24fd 773d 7a3f 393e 27b1 0dbd 31c1 643e
00000370: e2ef 26be 704b 09bd 7725 1d3f 6347 5c3e
00000380: 29f6 433e 2ee0 903e b426 9a3e 81f6 adbc
00000390: a4ed 54bd 691e 3f3c b7e6 7d3d 9c24 6a3c
000003a0: 1f6b e5bd 3155 c7bc db8f a13e b403 133f
000003b0: c9b6 0f3f ee04 b93e 99af ca3e 5df6 3b3c
000003c0: 066d 873e 6598 c0bd 3db9 60be e465 3cbe
000003d0: ccd3 a3be b87d b83e 0783 99be 4275 36be
000003e0: 21c4 c9bc 1b10 acbe 188f ad3d 3dc8 26bc
000003f0: 679b 47bd 7698 47ba 89e4 5a3d 1587 21be
-0.062810265 -0.033275142 -0.08243977 -0.04322388 -0.08205982 -0.18049118 -0.32205436 -0.16095933
-0.08033795 -0.0103239 0.05796038 -0.12812369 -0.27179602 0.08205869 0.04690037 0.26791066
0.5806215 0.35068625 0.21146393 0.07232664 0.03976583 0.23650348 0.101327196 0.0053307163
0.04704019 -0.117169224 0.07660447 -0.18093592 -0.20740966 0.011808102 -0.0561611 -0.083445854
-0.1166624 0.23623335 0.3372125 0.15970613 0.2760671 0.05892173 0.56165105 0.21047586
0.21064888 -0.048491035 -0.01023338 -0.13436 0.18269703 -0.10168796 -0.3056004 -0.16501747
-0.2279976 -0.28636977 0.26088983 0.2233014 -0.04413393 -0.050050486 -0.062742285 0.20435885
0.20613326 0.088009216 0.017693898 0.37159246 -0.043212004 0.1670799 0.36171666 0.65336245
0.5271603 -0.15080966 -0.23676921 -0.318583 -0.09020171 -0.3608027 -0.09853064 -0.28107354
-0.2615215 -0.07149847 -0.2653064 0.101117 -0.004284167 -0.032913055 0.13074872 0.19262768
-0.0071791434 -0.048288826 -0.041166525 -0.06772271 0.20933641 -0.13916698 -0.021519026 -0.0073699574
-0.17019431 0.17377152 -0.16388272 -0.13770235 -0.004859105 -0.25811514 -0.2789858 -0.07532986
0.033782087 0.15952146 0.09317737 -0.106432416 -0.020854801 -0.12930822 -0.09254726 0.13926929
0.019260617 -0.17042516 -0.26408225 -0.29559675 0.37248957 -0.08926027 -0.15849978 -0.18833116
-0.04411127 0.040738147 -0.086530544 0.02014989 0.19350299 0.0006434937 0.46971405 0.24717572
0.099689774 0.28897256 0.11724675 0.054821596 0.15793018 -0.055731956 -0.1328127 0.19578889
-0.043312162 -0.105899334 -0.13548978 -0.22792578 -0.18575671 -0.14344293 -0.046304457 -0.080030985
-0.4452208 -0.3127301 -0.032971475 -0.015720436 0.43463916 0.06596885 0.15410851 0.14718731
0.05876373 0.24692695 -0.0200025 -0.057506982 0.12831722 0.045942873 -0.14916004 -0.32389396
-0.19639948 -0.089581214 -0.15199775 -0.31648073 -0.11753227 0.18966031 0.10467269 -0.23748897
-0.30481645 -0.05324487 -0.1211767 -0.18744615 -0.13693294 -0.18997352 0.39173135 0.66258746
0.17435847 0.019092435 -0.16473193 0.74032724 0.56726104 0.30019307 0.050723974 -0.107575476
-0.36977857 0.045860004 -0.04050843 0.38195437 -0.0077363243 -0.040893916 0.058565807 0.14804783
0.19945642 0.057835005 -0.17071606 0.012137195 0.14593795 0.015285458 0.67527205 0.45953983
0.23925674 0.03389116 -0.16448425 0.13283592 0.069817804 -0.11816394 -0.20783241 -0.17725465
0.004374763 -0.09320232 -0.10206549 -0.010033272 0.84442717 0.03170944 -0.30959228 -0.22344851
-0.2115471 0.058350805 -0.08072104 0.01569165 -0.14070652 -0.24251308 -0.17309542 -0.15796155
0.060544148 0.1809062 -0.034592774 0.22339322 -0.16302446 -0.03351921 0.6138529 0.21511607
0.19136871 0.28296036 0.30107653 -0.021235706 -0.051984444 0.011664965 0.061987605 0.014290955
-0.11202072 -0.024332615 0.31555066 0.57427526 0.56138283 0.36136574 0.39587095 0.011472312
0.26450366 -0.09404067 -0.21945663 -0.18398243 -0.31997526 0.36033416 -0.29982778 -0.17818168
-0.024629654 -0.33606037 0.084745586 -0.010179576 -0.048732188 -0.0007613966 0.053440604 -0.15774186

bias f4 [120]
00000000: 916c 59bd e48d 91bd 47f7 5cbb 2bbd 1c3d
00000010: b5c1 853d cc84 cd3d c76f b6bd a6c1 85bc
00000020: 6c37 f43c 33cb 75bd 657e b73c 79b9 31bc
00000030: 2e33 46bc 5ff6 9c3c 3d73 2cbd 8691 b03d
00000040: c48b 893c e560 08be d187 963d f2aa ccbd
00000050: 7e4e 343c 24b0 933d b05e 8e3b 0b32 b5bc
00000060: 2bbb cdbc e6a3 ae3d 5b67 b03b fbe0 a43c
00000070: ce53 77bb 4e24 d53c afb1 7f3d dd1c 2fbc
00000080: 375d 4abd d313 76bd 125f fbbc a75f 973d
00000090: fd91 b8bc 458e f73d 176c 8a3d 8f19 023d
000000a0: 09a1 c8bc eb9a c9bc a121 66bd faa2 ccbc
000000b0: ba7d 2fbd b4d6 a7bc 87a3 333c 5d1d c73c
000000c0: b9f8 4abd 82d6 74bd 8ddf 05bc 0bed e43d
000000d0: 618d 303d ecc8 db3b eba6 99bd 626e 243d
000000e0: 58ec 4e3d 9d0b 1cbc 3932 82bc e71d 2fbc
000000f0: e59f df3c bf2a 8dbc d695 b03b 126e 8abd
00000100: e61b ab3d a7b3 023d 9a35 efbc 3dce a4bc
00000110: 29dd e63d 701c bdbc 0209 ebbd 656b aabc
00000120: d6ea 0ebc eda4 26bd fd80 043d a9ec 8c3c
00000130: 1043 ac3d 9a3b d4bc af9f b83c 6d36 083e
00000140: 83e3 7ebd 766f eebc cc58 1f3b c13d a63d
00000150: 36a9 8f3c 519c 0f3c deb7 0d3d 86a5 b53c
00000160: e64d 0ebd 1a81 153d e364 8d3d 5d98 663d
00000170: 2c82 08be da66 84bd 93f1 c2bd 8967 843c
00000180: faea 443d 953b 0fbb fc9d 61bd b748 f13d
00000190: edf5 1d3c f315 90bd 1e1a 26bd 711b d03d
000001a0: 2a39 4c3d 54e6 6ebc 388a 803c d04f 703c
000001b0: 81dc aebc f13e b63c 5a50 863d f4da 923d
000001c0: dd2c 15bc 32ee d7bc 8714 0dbd e44d cc3c
000001d0: 41f2 bcbb 8b86 9bbd 2164 00be c8dd 5439
-0.053082053 -0.071071416 -0.0033716725 0.038266342 0.06531087 0.100350946 -0.089080386 -0.01632769
0.029811583 -0.06000824 0.022399137 -0.010847443 -0.012097163 0.019160448 -0.042102087 0.086215064
0.016790278 -0.13318212 0.07350124 -0.09993543 0.011005042 0.072113305 0.0043447837 -0.022118589
-0.025113663 0.08527355 0.0053834147 0.02012681 -0.003773916 0.026018288 0.06242531 -0.010688034
-0.049405303 -0.0600775 -0.030684981 0.07391291 -0.02253055 0.12087683 0.06758898 0.031762656
-0.02449085 -0.024610003 -0.056184415 -0.024980057 -0.04284451 -0.02048812 0.010964281 0.024305994
-0.049553607 -0.059774883 -0.008170974 0.11178025 0.04310358 0.0067073014 -0.0750254 0.04014433
0.050518364 -0.009524253 -0.015893089 -0.010688282 0.027297923 -0.017232297 0.0053889556 -0.067592755
0.083549306 0.03190961 -0.029200364 -0.020117873 0.11272652 -0.02308485 -0.114763275 -0.020803163
-0.008722981 -0.04068463 0.032349575 0.017202692 0.08411229 -0.025907326 0.02253708 0.13302012
-0.06222869 -0.029105883 0.0024314402 0.081172474 0.01753674 0.008765296 0.034599178 0.022173654
-0.03474226 0.036500074 0.06904008 0.05629765 -0.13330907 -0.0646493 -0.09518733 0.01616265
0.048075654 -0.0021855582 -0.055082306 0.117814474 0.009641153 -0.070354365 -0.04055225 0.10161484
0.049859203 -0.014581282 0.015690908 0.014667466 -0.021345379 0.02224681 0.065582946 0.07170668
-0.0091049345 -0.026358698 -0.034443405 0.024939485 -0.0057661836 -0.075940214 -0.12538196 0.00020300515

weight f4 [84, 120]
00000000: 6db2 a73e b406 5dbc 6658 1f3f b221 c33d
00000010: 7d85 0e3e ac6c 19bf ccd9 a6be d366 203f
00000020: e02e 5dbe 849e a6be fb8b 00bf bed7 fa3e
00000030: 9588 c0be 4e65 12be 24c5 143e 8212 623e
00000040: 6e5e 5fbe 8859 04bf 621e 9b3e becd 913e
00000050: a80b 93be 5f99 d4bc 487c b33d 64e9 d3bd
00000060: cda7 03be 2a17 87be b458 ad3d a405 c93d
00000070: 9d08 e23d a4a1 8fbd 0785 b7be 4094 00bf
00000080: 1123 8fbe b83d 393e 0578 1a3f c0f3 89be
00000090: 9efd 423e 0a2f 493e 053d 82bd 2a5d f03e
000000a0: 06e3 803e ff48 d3bc 3c54 313b e3c9 6b3e
000000b0: 0e05 5d3c b77c c6be dca6 c93d 9763 33be
000000c0: 8338 cb3d f723 433b 60dc cdbe ec5c 95be
000000d0: 777d 08bf 705a 1dbe 852b 88be c66f 6b3e
000000e0: 0341 623d 70e2 e33d aeda 0a3e a0c3 32be
000000f0: 421b d8be 5553 64bd 1134 d33e a4f4 f83c
00000100: 146c 14be 4bef 3b3e 5b0c fe3e 459f b63d
00000110: 42cf 3ebf 90ab d7be 187d 84be d6ac c33e
00000120: 929a 573f 861a 253f bb8c 933e 68f2 3c3e
00000130: a386 b63d 283e f0be 5d75 e83d bf7e 9a3c
00000140: 8003 31be c8cb e6bd 98ed f33e 189f 58bd
00000150: bf75 b0be d320 39bd 2ff3 483e ab41 7ebe
00000160: 4001 c53e f770 a43e f3b3 0b3f 578f 48bf
00000170: 8e79 db3e 7fb5 963e a6f7 1dbf 41c9 563f
00000180: 25e6 e3bd d1c3 56be e364 ec3e c4a4 3cbe
00000190: 70e7 3bbd 95c6 a4bd 8f4e 0e3e 7115 a23e
000001a0: 6ecb f7be be68 89be 6579 543e acf7 2f3d
000001b0: c978 983c 57c7 c9be 140e c8be 0f4b a53d
000001c0: f14f ce3e a3b8 86be f7e5 09bf 1906 be3d
000001d0: d6f4 a9be a9ea c4be a868 8c3f c19e 5f3e
000001e0: e66f d9bd f251 3dbf 5c13 96be 48fa e8bd
000001f0: f614 033c e3a9 04bf 6603 a13e 5bdc f63e
00000200: ce93 1cbe d59e 8cbe 36c5 93be be5b 0e3f
00000210: 17b3 62be c7b9 e4be 472e c73d e7be 0e3e
00000220: ed60 eabd 8d2c 1bbf 963b f13e 3ade 363e
00000230: 485c 293e 5250 853e 4f06 dabe 4ca9 803d
00000240: 5187 15be 7bc2 533e 2c21 373f b47d df3d
00000250: 9486 023f 744d 74be c1be 3abe 9dbc 1bbe
00000260: e509 25bf 9ae3 bcbe ecbb 4f3f 7451 e13e
00000270: a22a c9be ec23 fa3e 48e6 54bd 1f85 c1bc
00000280: d289 e2be 9f1e 5ebe 1d57 90be 2620 313f
00000290: ab22 4f3f 4e48 31be c51e e73e c76d cd3d
000002a0: dbc2 323e be09 e2bd d7b9 3fbe 7896 5b3e
000002b0: 464f 0cbe 0e29 dcbe 3903 06bf 3df8 cc3e
000002c0: a6fa 883d a70e 57bd dd3b a93e d489 0fbf
000002d0: 87e5 8e3d e410 9ebe 6031 213e 1523 923b
000002e0: cf32 683e 3a78 a93e 0128 333e 22a7 f0be
000002f0: 836b e03e f0c0 a43c 0565 ddbe 6401 f9bd
00000300: 2669 623e f1b2 e13d bb35 013e 6f22 5ebe
00000310: a491 ae3e f70e c0bd 194c 15be 9f41 043f
00000320: 6abd bebe 6d3c 1e3f dbb3 ebbd d4ba c53e
00000330: b2af 16be 27e6 0c3d 5936 94bc d81e 3e3d
00000340: 4bc7 99bc 8d6e d33e 39f3 333e 7934 7a3d
00000350: 2821 a7bd 4a2b 773e 36d4 35bf eadc c83d
00000360: 0b3c 643e 0631 5c3e 2dba 593d fb6f dc3e
00000370: 776d 49bf 3e4d 71bd 490b 8bbe 2cfe a93e
00000380: eb20 943e 1e4a 48be 040b 6e3e f7c5 37be
00000390: 3bae 9e3e aedb 983e d647 b7bd f22a 083f
000003a0: 0617 f43e c466 ad3e 3967 d8be a8f8 bf3e
000003b0: 6e71 4abe e88f fbbe d543 97bc ef64 8c3e
000003c0: da7c 2abe aed7 d03e 8f9c bcbe 8cc5 90bd
000003d0: fa40 debe 5eb0 ecba 184a 47be cac2 f2bc
000003e0: 633c 633e 467d 753e 7ffa 653e 37c9 843e
000003f0: d8e2 c7bd 24c5 8e3e 3035 cf3e bed8 bbbd
0.32753316 -0.013490368 0.6224426 0.09527911 0.13918109 -0.59931445 -0.3258804 0.626569
-0.21599913 -0.32542813 -0.50213593 0.48992723 -0.37604204 -0.14296457 0.14528328 0.22077373
-0.21813366 -0.51699114 0.30296618 0.2847728 -0.2871983 -0.02595204 0.08763939 -0.1034725
-0.1285698 -0.2638486 0.084641844 0.09815529 0.11036799 -0.070132524 -0.3584368 -0.5022621
-0.2795644 0.1808995 0.60339385 -0.2694378 0.1904206 0.1964685 -0.06359295 0.4694608
0.25173205 -0.025791643 0.0027058264 0.23026232 0.013489975 -0.38767025 0.09846279 -0.1751846
0.09922888 0.0029776075 -0.40207195 -0.29172456 -0.53316444 -0.1536653 -0.26595703 0.22991857
0.05523778 0.11127174 0.13559982 -0.17457438 -0.42208296 -0.055743534 0.4125066 0.030390091
-0.14494354 0.18353002 0.496188 0.08917097 -0.74535 -0.4212308 -0.2587669 0.382178
0.8422023 0.64493597 0.28818306 0.18451846 0.08912399 -0.4692242 0.1135051 0.018859265
-0.17286491 -0.11269337 0.47642207 -0.0528861 -0.34464833 -0.04519732 0.19624017 -0.24829738
0.38477516 0.32117435 0.54571456 -0.7834372 0.42866176 0.29435346 -0.61706007 0.8390084
-0.11127881 -0.20973136 0.4617072 -0.18422228 -0.045875013 -0.08045689 0.13897155 0.31656983
-0.48397392 -0.26837724 0.20749433 0.042960808 0.018612282 -0.39409897 -0.3907324 0.08070957
0.40295365 -0.26312742 -0.53866524 0.09278507 -0.33194607 -0.38460281 1.0969439 0.21837904
-0.10617046 -0.73953164 -0.29311645 -0.11375862 0.008000603 -0.51821727 0.31447905 0.48214993
-0.15290758 -0.2746493 -0.28861398 0.5560874 -0.2213863 -0.44672987 0.097256236 0.13940011
-0.114442684 -0.60614854 0.47115773 0.1785821 0.16539109 0.26037842 -0.42582938 0.06282291
-0.146024 0.20679657 0.7153499 0.10912648 0.509866 -0.23857671 -0.1823683 -0.15208669
-0.6446822 -0.36892396 0.8114612 0.44007456 -0.3929034 0.4885553 -0.051977426 -0.023623047
-0.44245774 -0.21691369 -0.28191462 0.6918968 0.80912274 -0.17312738 0.45140663 0.10030704
0.17457144 -0.110370144 -0.18723236 0.21444118 -0.13702115 -0.43000072 -0.5234867 0.4003314
0.066884324 -0.052504208 0.33053485 -0.56069684 0.069773726 -0.30872262 0.15741491 0.0044597485
0.22675632 0.33099538 0.17495729 -0.47002512 0.43832025 0.020111531 -0.43241134 -0.12158468
0.22110423 0.110204585 0.12618153 -0.21692823 0.3409549 -0.09377854 -0.1457981 0.5166263
-0.37253886 0.6181095 -0.11508914 0.386191 -0.1471546 0.034399178 -0.018092321 0.046416134
-0.018771788 0.4129528 0.17573251 0.061085198 -0.08160621 0.24137607 -0.71026933 0.09807761
0.2228853 0.21503076 0.053156067 0.43054184 -0.78682655 -0.058911555 -0.27157047 0.3320173
0.28931364 -0.19559523 0.2324639 -0.17946611 0.30992302 0.29855102 -0.089492485 0.5319053
0.47673815 0.33867466 -0.42266253 0.37494397 -0.19769832 -0.4913323 -0.018464962 0.27420756
-0.1664919 0.4078955 -0.36838195 -0.07068929 -0.43408948 -0.0018057933 -0.19461858 -0.029633898
0.22191004 0.2397357 0.22458838 0.25934765 -0.09760064 0.2788478 0.40470266 -0.091722

bias f4 [84]
00000000: 8dc0 0dbd 9f4d 823d cb6a b23d c173 903d
00000010: ff7c f63c e545 a03a d282 8d3c a007 a43d
00000020: 6a53 24bb be35 d3bd 8fe9 693d fe5a 19bc
00000030: 1110 743d 138e 3abc 14a7 813d 1a63 3d3d
00000040: 4e82 493d 2088 0e3d 22cf 8c3d a895 ae3d
00000050: 62b0 cd3d 0f34 a63c d469 863d c1ae 923d
00000060: 3b83 d33d 85ae 503d 00ca b4bd 1224 d0bd
00000070: 4044 55bd fbc8 1ebd d170 45bd 8a63 0f38
00000080: 74ff 903d 1671 85bb c92f b53c b05b 783c
00000090: b56e 8fba 28b5 f8bb 29d4 193d 7d2d e4bc
000000a0: d116 5a3d bc28 0d3d 2f03 39bd 359d aebd
000000b0: 60a8 183d a78e 8ebd 3ebe c43c 2ddd 003d
000000c0: 751f a3bd f609 593d 07d9 41bd 9764 6bbd
000000d0: c617 8b3d 1c65 123d 9d89 a0bd e0d8 0c3c
000000e0: bb07 0a3d d508 39bd 13b7 8dbd 2da7 99bc
000000f0: c775 45bd 70f9 9abb 42f1 c13d 5113 c73c
00000100: d881 45bc f50f 5b3d 2d4b 5cbd 58a8 d33c
00000110: f5c0 0fbd a8cd bbbd 78d7 0f3c 80aa 453d
00000120: 86e3 3dbd 5b9e 383d c4a8 0d3d b3f9 803d
00000130: fd8a 343d f393 94bd 4e56 9abd e2f8 1d3d
00000140: 4c0e b73c 76eb 8ebd 77ab db3c b44c e6bb
-0.03460746 0.06362461 0.087117754 0.07053328 0.0300889 0.0012227861 0.017274294 0.08009267
-0.0025074133 -0.10312985 0.057107504 -0.009360073 0.059585635 -0.011386412 0.06330696 0.04623709
0.049196534 0.034797788 0.06875445 0.085246384 0.10043408 0.020288495 0.06563154 0.07162238
0.103277646 0.050947685 -0.08827591 -0.1016313 -0.05206704 -0.03876589 -0.048203293 3.418656e-05
0.07079974 -0.004072319 0.022117512 0.015158579 -0.0010943027 -0.007589955 0.037555847 -0.027853722
0.053244416 0.034462675 -0.04516905 -0.085260786 0.03726995 -0.069608025 0.024016496 0.03146093
-0.07964984 0.052988015 -0.047326114 -0.057468977 0.06791644 0.035740957 -0.07838748 0.008596629
0.03369878 -0.04517444 -0.06919684 -0.018756473 -0.048208024 -0.0047294423 0.094698444 0.024301203
-0.012054883 0.053482015 -0.05378263 0.025837108 -0.035096128 -0.09170085 0.008779399 0.048258305
-0.04635956 0.045072895 0.034584776 0.06297626 0.044077862 -0.072547816 -0.075359926 0.03856743
0.022345684 -0.06978504 0.02681516 -0.0070281867

weight f4 [10, 84]
00000000: f1e5 48bf df63 b63e 8f4a 80be 6e64 95bf
00000010: 4b61 a53e c114 27bf 7271 003f 50f9 6abf
00000020: 08e1 c33e c7d6 103e 98ab 40bf 8d6e b53e
00000030: 2320 25bf 0366 5ebf 0739 42bf 19d4 04bf
00000040: 89d5 373f 9116 22be 7851 ae3e 8bd7 893e
00000050: 4f30 42bf a0da 58bf 5aec d03e 26f4 adbf
00000060: ab14 db3e 415a 863d d8e2 213e 0e03 c53e
00000070: b4e1 b7bd 0af8 58bf d354 ef3e 33e8 333e
00000080: 7e69 733e 246f 29bf 44ab 0a3f 4155 193f
00000090: 1828 903e 4a07 a0bd 5bb2 d43e 3c9d b6be
000000a0: a93a 31bf 9a78 2e3f efc7 98bf 6881 073f
000000b0: 2b08 77bf 161e a93e a749 093f b3ea 0cbf
000000c0: cf51 da3e ae19 00bf 3758 06bf 850f 8abd
000000d0: 2f84 b4bd c73a bc3e a450 153e e2c6 613e
000000e0: 8fa4 55bf 517f 873e 8a42 36bf 5bdf eabd
000000f0: 511e 5b3e a2d8 99bf 03b9 0cbf e6f1 873e
00000100: 652d c03e b58d cabc fdeb 7e3e e980 203f
00000110: 2805 fbbe b21d b6bd 2a57 ba3d 06b2 f13d
00000120: aa4e b63e af88 5a3e b60e 2bbf 5552 07bf
00000130: 9129 283f 24a6 883e e8cd dfbe 1ac5 03bf
00000140: 6084 44bf eb0b 2bbe 9c55 59bf 9524 79bf
00000150: d12e 4cbd fec1 30bf 16b4 023f c258 ce3e
00000160: b63b 983e 8ac9 b4be 5033 c83d 8e17 11bc
00000170: 8926 48bf 320a 52bf 432f 603b c866 6e3e
00000180: b9f5 ec3e 33d5 153f 2fe9 febe 06e3 7dbf
00000190: c4b2 043f 4fae cf3e 8215 943e b8d2 4a3e
000001a0: 8163 6b3e 4617 c23e 9910 e5be 1628 f7be
000001b0: 84b3 af3e 8cb7 5f3e 3955 9bbe 88ef ab3e
000001c0: 616f 133f eec4 833e 6bf7 793e 993f 13bf
000001d0: e197 57be f2f7 7c3e f8c6 36bf af12 1bbf
000001e0: d679 40bf 1399 a0be da8c 85be ca59 e7be
000001f0: 92a5 e33d 8d3f 3fbd c42a 043e 0ec6 acbe
00000200: 5d57 be3d bbcc 40bf ff72 273e 0a68 e63e
00000210: bf3f e43e fd53 263f d072 05bf cd48 71bf
00000220: b6e8 ba3e 0be3 adbe 9269 6cbf 046a 00bf
00000230: 4381 873e 2a86 cebe 2ba7 1b3d c1cf 963e
00000240: 5b41 89bf 8a08 483e 56c3 ed3e e260 22bf
00000250: 1780 21bf b606 1abf cf67 9bbf 2ed3 7ebe
00000260: 3bbf 793e a057 97be a209 7fbf f9c0 db3e
00000270: 12d3 87be e1ae b03e 64b6 f13e 7fd7 f13e
00000280: 199e ac3e 0e79 3ebe 6093 113f 21fc 0a3f
00000290: 0391 d93e de09 f33e b3c1 3abf ff7f 873e
000002a0: 43a1 a2bf 49f1 67bf 886e 3f3f 2430 4ebf
000002b0: 53a8 f63d 4710 7b3e 06d8 f03e 0a20 113f
000002c0: eb97 f73e 890c 1cbf 2464 6cbf 61b6 e5bc
000002d0: 5563 a13e 3c0f acbe be2a 21be 7f66 77be
000002e0: 1c8c 083f 1868 c4be 5ea8 e83d f890 133f
000002f0: 2091 f83e c91e 003f dc58 eb3e 9670 213e
00000300: d840 1ebf f748 1bbc 3ad9 cfbd 905f 463d
00000310: 416a 75be 6ccd 913e abdc 6dbf 4d79 3ebf
00000320: 31f7 413e bbef b13e 817f 583f 934b 4e3f
00000330: 83d3 383e 8644 a23e 9dce 66bf 4dc8 1c3f
00000340: 9005 3f3e 0333 593f 0759 59bf 9f9c 183f
00000350: 032c 303e 1dc5 8ebf 9157 1bbf bce3 65bf
00000360: 4435 32bf 7d95 783f b34d da3e 5369 44be
00000370: 5780 f53d 118d 42bf 974e 133e 009b a63e
00000380: b652 2cbf a418 91be a8fd b83e 7c17 f5be
00000390: 7f25 763e b7d3 b33d 7138 f7be 55d9 c33a
000003a0: 7c99 42bf d18e dd3e 3fe4 f53e 17c8 793c
000003b0: bfb0 bc3e df1c 443f 05d7 37bf dd19 95be
000003c0: 513e 973e 0291 2dba 716e 563e f639 043d
000003d0: 73c5 33bf c150 01bf e76e 74bf 0675 60bf
000003e0: 9f3c 6dbf fd3d 3bbe 0e10 c63e 4c85 01bf
000003f0: 4629 bd3e 8ac3 28bf a20b 6fbf 9643 f43e
-0.7847586 0.3562307 -0.25056884 -1.1671274 0.3230079 -0.6526604 0.50173104 -0.9178667
0.38257623 0.14144431 -0.7526183 0.35435906 -0.6450216 -0.8687441 -0.75868267 -0.51886135
0.71810204 -0.15828921 0.3404653 0.2692226 -0.75854963 -0.84708595 0.40805322 -1.3590133
0.42789206 0.06560183 0.1580919 0.38478893 -0.08978596 -0.8475348 0.46744403 0.17569046
0.23770711 -0.6618521 0.5416758 0.5989571 0.2815559 -0.0781389 0.41542324 -0.35666835
-0.69230133 0.68152773 -1.1936015 0.52931833 -0.9649684 0.33030766 0.5362801 -0.5504562
0.4264054 -0.50039184 -0.52478355 -0.06741241 -0.088142745 0.36763594 0.14581543 0.22048524
-0.8345422 0.26464322 -0.7119528 -0.11468383 0.21398284 -1.2019236 -0.54969805 0.2655174
0.37534633 -0.024725774 0.2489471 0.626967 -0.4902737 -0.08892383 0.090986565 0.118015334
0.3560689 0.21341203 -0.6681932 -0.52860004 0.65688425 0.26689255 -0.43711782 -0.5147263
-0.7676449 -0.16703765 -0.84896255 -0.97321445 -0.049849335 -0.6904601 0.5105604 0.40302092
0.29733056 -0.35310012 0.09775412 -0.0088557135 -0.781838 -0.82046807 0.0034207858 0.23281395
0.46281222 0.5852844 -0.4978728 -0.99174535 0.51835275 0.40562674 0.2892266 0.19806945
0.22987176 0.3790838 -0.44739226 -0.4827277 0.34316647 0.21847361 -0.30338457 0.33581185
0.57591826 0.25736183 0.24410789 -0.5751892 -0.21054031 0.24703959 -0.7139735 -0.60575384
-0.75185907 -0.31366786 -0.26084024 -0.4518569 0.111155644 -0.046691466 0.12906939 -0.33744854
0.09294007 -0.75312394 0.16352461 0.4500125 0.44579884 0.64971906 -0.52128315 -0.9425171
0.3650567 -0.33962283 -0.9234859 -0.50161767 0.26465806 -0.40336734 0.03800122 0.2945538
-1.072307 0.19534507 0.46438092 -0.6342908 -0.63086075 -0.6016649 -1.2141055 -0.24885246
0.24389355 -0.2955904 -0.99624074 0.42920664 -0.2652822 0.34508422 0.47209466 0.47234723
0.3371437 -0.18600866 0.568655 0.5429097 0.42493448 0.47468466 -0.7295181 0.2646484
-1.2705463 -0.90602547 0.7477803 -0.80542207 0.12043824 0.24517928 0.47039813 0.5668951
0.48358092 -0.6095663 -0.923403 -0.028041067 0.31521097 -0.33605373 -0.15738961 -0.24160193
0.5333879 -0.38360667 0.113602385 0.5764308 0.48548222 0.50046974 0.45966232 0.15765604
-0.61817694 -0.009477845 -0.101488546 0.04843098 -0.23966314 0.28477037 -0.9291484 -0.7440384
0.18941952 0.34753212 0.84569556 0.8058407 0.18049435 0.31692904 -0.90159017 0.61243135
0.18654466 0.8484346 -0.8490147 0.59613985 0.17204289 -1.1153904 -0.6068049 -0.8980062
-0.69612527 0.971031 0.42637405 -0.19180803 0.119873695 -0.759965 0.14385448 0.3254013
-0.67313707 -0.28339112 0.36131024 -0.4786948 0.24037741 0.08780616 -0.4828525 0.0014942089
-0.7601545 0.43273023 0.480257 0.015245459 0.36853597 0.76606554 -0.7181247 -0.29121295
0.2953973 -0.0006621034 0.20940568 0.03228184 -0.7022316 -0.50513846 -0.95481724 -0.87678564
-0.92670625 -0.18285365 0.38684124 -0.5059402 0.36945552 -0.6592337 -0.93377125 0.47707814

bias f4 [10]
00000000: 0df9 143e b388 bebd c651 41bd a2b5 333d
00000010: 8aed 303d ac04 45bd 56ad debd 5972 3abc
00000020: fed3 b8bb e9c9 233d
0.1454813 -0.09303417 -0.047197126 0.04387439 0.043195285 -0.04810016 -0.10872905 -0.011379802
-0.005640506 0.03998748
