project_3/models/MLP_mnist_tsne.pt (torch, 3416 bytes, 4 tensors)

weight f4 [4, 2]
00000000: 8607 6440 5b96 7140 dc7c 55c0 2d72 7640
00000010: e0af a9bf 05b6 3440 8959 84c0 ac0c 9c3f
3.5629592 3.774802 -3.3357458 3.8507187 -1.3256798 2.8236096 -4.1359296 1.2191367

bias f4 [4]
00000000: a1b6 ef3f 229c d9bf 993f 8d40 23ad 3840
1.8727609 -1.7000773 4.4140134 2.8855674

weight f4 [10, 4]
00000000: 47d2 0540 a3ea ab3f 5a61 44c0 7df1 d63e
00000010: c471 5d3f a19a c1bd f392 00c0 fece 6040
00000020: 519d 163f d33f bf3f 1d8c 31c0 acaf ed3f
00000030: ab78 f8bf 1e24 2540 9098 ee3e 3660 f1bf
00000040: 603b 0e40 c2bd 11c0 1e25 12be 445c 0140
00000050: 850a 9ebe dadd 20bf 9b74 0740 efa3 3bc0
00000060: 4e18 4240 9a4e 2fc0 1995 70bf a6b3 2fba
00000070: 925f 32c0 d411 b03f 22a4 0e40 7c4b 4fbf
00000080: 2289 efbf e2cb 0ac0 b78f 2b40 229f b4bf
00000090: a3aa 12bf 608a 9a3e 860d ba3f 124a 1dbf
2.0909593 1.343098 -3.0684419 0.41981116 0.8650172 -0.09453321 -2.008969 3.5126338
0.58833796 1.4941353 -2.7741768 1.8569236 -1.9411825 2.5803294 0.4660077 -1.8857486
2.222374 -2.277207 -0.14271972 2.0212564 -0.308674 -0.6283852 2.116492 -2.9318807
3.0327334 -2.7391725 -0.93977505 -0.000670249 -2.7870831 1.3755441 2.2287679 -0.80974555
-1.8713725 -2.168694 2.6806467 -1.4111063 -0.5729162 0.30183697 1.4535377 -0.6144115

bias f4 [10]
00000000: a373 7c40 20d1 dfc0 82c2 9940 6ea6 0d41
00000010: cb18 f3c0 143e 6240 89d7 e9c0 f77e 1dc0
00000020: 2905 3440 079b 293f
3.944558 -6.994278 4.8049936 8.853132 -7.5967765 3.535039 -7.3075604 -2.4608743
2.812815 0.6625218
