project_3/models/MLP_wine.pt (torch, 3464 bytes, 4 tensors)

weight f4 [2, 13]
00000000: 95f5 5c3f ff14 0d3f 29be 313f 6d8c 8ebf
00000010: 701a c93d d023 a43e d337 043f c944 4cbd
00000020: df65 28be ddb6 773e 0420 283e d1f7 253f
00000030: 762e 903f cfbd b83e 3d8d 9d3e 1edf db3e
00000040: 201d 403d 326e 103e 28a4 54be 1ac4 60bf
00000050: 9729 d4bd e22d f5be af9c 873f 2721 56bf
00000060: c8ee 0ebf 6797 563e
0.8631223 0.5511016 0.69430786 -1.1136605 0.09819496 0.32058573 0.5164768 -0.049870286
-0.1644511 0.2419085 0.16418463 0.6483126 1.1264179 0.36082312 0.3077182 0.42943662
0.046902776 0.14104536 -0.20765746 -0.8779923 -0.10359495 -0.47886568 1.0594691 -0.83644336
-0.558331 0.20956193

bias f4 [2]
00000000: 97c3 003f be57 ffbd
0.50298446 -0.12467907

weight f4 [3, 2]
00000000: db61 e23f 42e9 e1be 2685 91bf 76d2 50bf
00000010: e354 27bf 2efb d23f
1.7686113 -0.44123274 -1.1368759 -0.8157114 -0.653639 1.6482904

bias f4 [3]
00000000: 7783 afbf 5587 2140 07b0 bcbf
-1.3711995 2.523885 -1.4741219
