project_3/models/MLP_breast_cancer_wisconsin.pt (torch, 3936 bytes, 4 tensors)

weight f4 [3, 30]
00000000: 990d 593e ff2c 753e d180 f53e cfc9 4b3e
00000010: be9d 8e3d 068e 5a3d d624 e63e 14eb d53e
00000020: c93a 24be bee7 2abd 003c 183f 8cc9 92be
00000030: dc5a 533e 7ff9 e43e 5e70 4a3e e039 a2be
00000040: fab4 5c3d fb46 e33d 7591 5abe 58d0 cabe
00000050: f550 ec3e cd9e 163f d916 3e3e 4c97 683e
00000060: 7f29 4d3e 15d6 473e 973b 113f 660d 853e
00000070: 8909 f53e 2eba fbbd 9659 543e 485d 5b3e
00000080: 2c98 ba3e 820f 463e 323c c93d 0b95 0c3e
00000090: 3842 8b3e a555 a33e 0af8 4b3a 5a0b cbbd
000000a0: 9f3b 2f3e 88f6 aebd 2912 19bd fc5c 803e
000000b0: c3d8 943e 66b4 a23d 673e 1c3d aad4 c33e
000000c0: b275 013e 0f90 75be d48c fc3e b2c2 b23e
000000d0: 8aa1 413e fa34 d73e 18f7 ae3e 495a c43c
000000e0: 53fe c23e eb4d 953e 733b 073f 140c 393d
000000f0: a8f5 cabc bf1d 83bd 7acd 80bd 13cd 08bd
00000100: 41ae 52be d4c6 043f 996d 1cbe 6e5f 9cbe
00000110: 01fc 983e 4ee7 84bd 7925 35bf c960 8bbd
00000120: c84b f9be 2dce 0ebf 364b 2c3e dbc1 1a3f
00000130: e3fa 3a3e 1230 78be d686 ba3e 51c6 983e
00000140: ae62 21be a509 1cbf f081 8dbe b96e b5be
00000150: 8e98 74be 78ec 533e 904e 81be 1151 abbe
00000160: d892 03bf 06b1 35be
0.21196593 0.23942946 0.47949842 0.19901203 0.06963681 0.0533581 0.4494998 0.41780913
-0.1603805 -0.041724913 0.5946655 -0.28669393 0.20640129 0.447216 0.19769427 -0.3168478
0.05388353 0.11097523 -0.2134455 -0.3961208 0.46155515 0.5883606 0.18563403 0.22713965
0.20035361 0.1951526 0.5673155 0.25986785 0.47858837 -0.1229137 0.207373 0.21422303
0.36444223 0.19341853 0.098259345 0.1372873 0.27198958 0.3190128 0.0007780796 -0.099142745
0.17112587 -0.08543116 -0.037370834 0.2507094 0.29071626 0.079445645 0.03814545 0.38248187
0.12642553 -0.23980735 0.49326193 0.34914166 0.18909279 0.42032605 0.34172893 0.023968833
0.3808466 0.2916101 0.5282509 0.045177534 -0.024775341 -0.06402158 -0.062891915 -0.0333987
-0.20574285 0.5186589 -0.15276183 -0.30541557 0.29879764 -0.0648943 -0.70760304 -0.0680557
-0.4869063 -0.5578335 0.16825566 0.6045205 0.18259768 -0.24237087 0.36430997 0.29838803
-0.157603 -0.60952216 -0.27638197 -0.35436037 -0.2388632 0.20695674 -0.2525525 -0.33460286
-0.5139594 -0.1774331

bias f4 [3]
00000000: 75f7 d53e 77c4 633e f536 323f
0.41790357 0.22242914 0.6961511

weight f4 [2, 3]
00000000: aaf9 b23f 7d9a 333f 93d2 9cbf b113 8bbf
00000010: 611e 99bf d3f4 b13f
1.3982441 0.70157605 -1.2251762 -1.0865384 -1.1962396 1.390284

bias f4 [2]
00000000: f4de e8be 8cb2 a43b
-0.454826 0.0050261673
