project_3/models/MLP_mnist_flattened.pt (torch, 65808 bytes, 4 tensors)

fc1.weight f4 [20, 784]
0.021401903 0.023740089 -0.014269915 0.026904477 -0.013728124 0.0013037582 -0.02329068 0.01507137
0.025580605 -0.03210372 0.025139647 0.0007811717 0.020235706 -0.001558224 0.0113732265 -0.010943261
0.021628568 -0.0006242122 -0.022575842 0.0032003901 -0.02235795 -0.0100913225 -0.020408725 0.017788777
-0.034094777 -0.022367718 -0.015987989 -0.0273769 -0.0025322686 -0.04117724 0.026350828 -0.03624114
0.021668268 3.0467963e-05 -0.018786745 0.013585021 -0.007099782 0.019845665 -0.006322059 -0.023377461
-0.009666949 -0.024670746 -0.0013053294 0.018535 0.022380564 -0.023443492 0.0014761805 -0.015244596
0.004731429 -0.028672572 -0.041516032 -0.019778306 -0.033296663 0.02340188 0.004383672 0.008890352
0.0053918976 -0.006524439 0.022046892 -0.031179639 -0.0037150455 -0.030382825 0.0015242212 -0.02552441
0.005043795 0.01422384 0.033167098 -0.035170756 -0.021483833 -0.03483463 0.030417781 -0.018993087
-0.0051817824 -0.07502039 -0.08861298 -0.101471424 -0.06412579 -0.016860133 -0.011189224 0.0190274
-0.020081243 -0.02621827 0.01304626 -0.020338943 0.015772885 -0.014378033 0.01450197 -0.033648167
-0.025314286 0.0089670485 0.004285261 -0.012324833 0.035684496 0.09404663 0.10228006 0.15926114
0.20873383 0.12786989 0.16380176 0.104666196 0.049544353 0.0976859 0.07579116 -0.005873777
0.04744599 -0.01964576 -0.06721297 -0.0788415 -0.051742885 -0.017419005 0.029661931 0.0008424547
0.005102546 -0.039212342 -0.029319124 -0.016642818 0.0010577994 -0.010933908 0.034191534 0.0030826207
0.031534452 0.090290055 0.09807229 0.100077175 0.06965563 0.024044102 0.008945246 -0.020080833
0.043871213 0.0075563723 0.10297421 0.06422059 0.0024711746 0.00663636 -0.019547254 -0.062580556
-0.027266037 -0.028764557 0.006700594 -0.015892446 0.008001403 -0.035212394 0.020780882 -0.024061581
0.0015801857 0.040400986 0.04792429 0.065188155 0.12017428 0.02300909 0.047808953 0.07259029
0.09388636 0.039452933 0.023020595 -0.02990231 0.07731165 -0.07703767 0.014847794 0.005924103
0.011676376 -0.015554494 0.04858604 -0.0021342267 0.011556172 -0.015010522 -0.028056908 0.021037694
0.002059376 -0.02556683 -0.020907953 0.01101841 0.049044345 0.06741951 0.024003742 0.054157212
0.04162219 0.094425626 0.18176775 0.051173408 0.08010401 0.12848242 0.0839297 -0.12383938
0.0038454293 -0.08695857 -0.08598428 -0.023067737 -0.08189048 0.008588383 0.020536525 -0.03606035
0.036562372 0.020511363 -0.0052919867 -0.016685763 -0.005381398 -0.0030632743 0.008316668 0.02885877
0.01586186 0.045071214 0.07343894 0.063138425 0.07984683 0.046813324 -0.02274322 0.10364258
0.082313 0.14562485 0.17899235 -0.02977475 -0.022945963 -0.044646543 0.017903114 0.07975927
-0.02076925 0.049957648 0.039717615 -0.019922812 -0.030017698 0.031215379 -0.00680283 -0.015057032
-0.03898822 0.02063643 0.027287306 0.03704451 0.0012376758 -0.06532265 -0.09262937 -0.0025525156
0.0042461744 -0.093663044 0.0041630925 0.025928058 -0.015446204 0.021603921 0.15591031 0.13355608
0.05268892 0.07326494 0.024004202 0.035430077 -0.0027745843 -0.0040951683 0.04153966 0.050511204
-0.027778124 0.034836136 -0.012812145 -0.033730444 -0.012131638 -0.02073352 -0.009601703 -0.016745357
00000000: 0b53 af3c 937a c23c 5dcc 69bc c766 dc3c
00000010: edeb 60bc dee2 aa3a 19cc bebc e8ed 763c
00000020: 6b8e d13c 317f 03bd a9f1 cd3c 8cc7 4c3a
00000030: 5ac5 a53c 523d ccba c556 3a3c 5d4b 33bc
00000040: 652e b13c 2ca2 23ba f9f0 b8bc a3bd 513b
00000050: 0528 b7bc 1356 25bc 3330 a7bc c5b9 913c
00000060: f7a6 0bbd 813c b7bc 3ef9 82bc 8545 e0bc
00000070: 6bf4 25bb 77a9 28bd b1dd d73c 9771 14bd
00000080: a781 b13c 7495 ff37 a9e6 99bc b593 5e3c
00000090: 4aa5 e8bb 6093 a23c 4629 cfbb 1782 bfbc
000000a0: 1f62 1ebc 4e1a cabc 9617 abba b6d6 973c
000000b0: 7257 b73c 910c c0bc 667c c13a 78c4 79bc
000000c0: 1a0a 9b3b bee2 eabc b70c 2abd 1d06 a2bc
000000d0: 1562 08bd 4db5 bf3c e8a4 8f3b d7a8 113c
000000e0: 84ae b03b f6ca d5bb af9b b43c 716c ffbc
000000f0: 1f78 73bb 67e5 f8bc 60c8 c73a 9118 d1bc
00000100: 6b46 a53b 1c0b 693c 39da 073d 360f 10bd
00000110: ddfe afbc c2ae 0ebd b62e f93c 6497 9bbc
00000120: f1cb a9bb 4aa4 99bd b97a b5bd 40d0 cfbd
00000130: 6254 83bd 431e 8abc 0253 37bc 5adf 9b3c
00000140: 6b81 a4bc b3c7 d6bc fbbf 553c db9d a6bc
00000150: 2336 813c d791 6bbc ac99 6d3c a9d2 09bd
00000160: e85f cfbc 87ea 123c 606b 8c3b 19ee 49bc
00000170: e829 123d 859b c03d 3578 d13d 5a15 233e
00000180: 52be 553e 53f0 023e a6bb 273e 3b5b d63d
00000190: 05ef 4a3d 8c0f c83d 6538 9b3d d078 c0bb
000001a0: ba56 423d 25f0 a0bc f4a6 89bd a777 a1bd
000001b0: 59f0 53bd 4db2 8ebc 94fd f23c 2ed8 5c3a
000001c0: 4233 a73b 1f9d 20bd a92e f0bc 8556 88bc
000001d0: dca5 8a3a 2224 33bc 6c0c 0c3d cb05 4a3b
000001e0: 452a 013d fee9 b83d 20da c83d 43f5 cc3d
000001f0: 9ca7 8e3d 23f8 c43c 158f 123c 8f80 a4bc
00000200: 4db2 333d 729b f73b 25e4 d23d 1686 833d
00000210: 6ef3 213b d375 d93b 9021 a0bc 3c2a 80bd
00000220: 065d dfbc a6a3 ebbc a890 db3b e030 82bc
00000230: 5118 033c df3a 10bd ab3c aa3c cb1c c5bc
00000240: 3c1e cf3a 817b 253d 434c 443d 5e81 853d
00000250: ef1d f63d 8f7d bc3c 52d3 433d 38aa 943d
00000260: 7e47 c03d 6699 213d b095 bc3c b0f5 f4bc
00000270: 9255 9e3d edc5 9dbd 2944 733c fa1e c23b
00000280: 454e 3f3c 47d8 7ebc 2802 473d 62de 0bbb
00000290: 1956 3d3c b1ee 75bc 9ad7 e5bc 3e57 ac3c
000002a0: 99f6 063b 8771 d1bc 2847 abbc 9086 343c
000002b0: b9e2 483d 3d13 8a3d 7fa3 c43c f4d3 5d3d
000002c0: 087c 2a3d 3962 c13d 5321 3a3e 359b 513d
000002d0: 920d a43d e590 033e 56e3 ab3d 809f fdbd
000002e0: 9903 7c3b 5617 b2bd 8718 b0bd 8df8 bcbc
000002f0: 32b6 a7bd 4ab6 0c3c 373c a83c 04b4 13bd
00000300: 6dc2 153d 7207 a83c 6768 adbb 95b0 88bc
00000310: 7056 b0bb 37c1 48bb a242 083c 3a69 ec3c
00000320: bbf0 813c 989c 383d 2867 963d b84e 813d
00000330: bc86 a33d 54bf 3f3d fd4f babc 9042 d43d
00000340: b893 a83d ae1e 153e c549 373e 2dea f3bc
00000350: 2cf9 bbbc 4bdf 36bd 8da9 923c d458 a33d
00000360: 4624 aabc 64a0 4c3d f0ae 223d 2a35 a3bc
00000370: ade7 f5bc 65b7 ff3c 46ea debb c5b1 76bc
00000380: 1db2 1fbd bb0d a93c a189 df3c fcbb 173d
00000390: 8239 a23a e2c7 85bd 78b4 bdbd 1b48 27bb
000003a0: 7e23 8b3b 69d2 bfbd 8d6a 883b 1467 d43c
000003b0: 1312 7dbc b5fa b03c f4a6 1f3e edc2 083e
000003c0: 56d0 573d ee0b 963d 76a4 c43c 211f 113d
000003d0: cdd5 35bb c330 86bb 7e25 2a3d d6e4 4e3d
000003e0: f38e e3bc 56b0 0e3d 08ea 51bc ef28 0abd
000003f0: c7c3 46bc 58d9 a9bc 7650 1dbc 8f2d 89bc

fc1.bias f4 [20]
0.0051677325 -0.013936913 -0.011743131 0.0076267724 0.016020108 0.003421825 0.047145307 -0.030067284
-0.04567226 -0.011429964 0.0032657725 0.011253689 -0.02271115 0.04193578 -0.010608005 0.03342402
-0.014196358 0.020227717 -0.010619341 -0.011174975
00000000: 1556 a93b a657 64bc 4366 40bc 01ea f93b
00000010: 9a3c 833c b240 603b 701b 413d aa4f f6bc
00000020: d612 3bbd be44 3bbc 9206 563b 6561 383c
00000030: bc0c babc dac4 2b3d 33cd 2dbc a0e7 083d
00000040: d797 68bc 99b4 a53c bffc 2dbc 3e17 37bc

fc2.weight f4 [10, 20]
-0.055014186 0.32139906 0.1914607 0.11546762 0.027547263 -0.053486627 0.29724187 -0.52259475
-0.034968287 0.53733104 0.3412077 -0.58181363 -0.583293 -0.36936066 -0.8245554 0.55629206
0.33775586 0.5942245 0.100845754 0.99571973 -0.459965 -0.2844716 -0.31134966 -0.036248352
-0.35051206 -0.83294725 0.17607854 0.7992269 1.0590669 0.20078002 0.38145816 0.68771064
0.10389093 -0.66276234 0.35313413 -0.53109413 0.2430124 -0.79059255 0.38611928 -0.6522612
0.8485877 1.4476676 -0.37216106 0.99383414 -0.13956499 0.098510705 -0.2994622 0.36649486
-0.12036525 -1.5436819 -0.25395116 0.7193709 -0.7733203 0.17446221 -0.48284954 0.5349715
0.4736381 0.29507297 0.4008312 -0.006762608 0.8624241 -0.32825354 -0.69928664 -0.41525102
0.7301246 -0.33922508 -0.46350473 -0.11044952 0.4698724 -0.124671906 0.20362097 -0.10260828
0.53479844 -0.65388346 0.8028212 0.57007223 -0.40193912 0.45566186 0.1440493 -0.0217112
-0.015446184 -0.17374803 0.669267 -0.12980019 -0.59888065 -0.015407902 -0.8532414 -0.5346242
0.6844379 0.21411814 -0.056565527 -0.43812975 0.8910636 0.45456386 0.44007307 -1.2984903
0.78011876 -1.0856959 0.07738848 0.2424484 0.24570635 -0.012005572 0.78163207 -1.369426
0.22388434 -0.18634196 0.23922908 0.5812744 -1.2341837 0.46093243 0.020225685 0.050735664
-0.14633173 0.77346224 0.8874097 0.52548724 -1.0995682 -0.35753784 -1.64393 -0.23610468
-0.32120758 -0.049293067 0.51731163 0.11086965 -0.34207317 0.6035678 0.46683016 -0.854956
0.033325635 0.5167886 0.11481489 1.0277681 -0.46094877 -0.049975973 -1.1236086 -0.70403814
-0.6807322 0.2119695 -0.7571705 0.64335716 0.78513604 -0.18107913 -0.30317813 0.38958943
-0.1803997 0.8623627 -0.20159785 0.5159329 0.41468862 -0.049409237 1.0943877 -0.44312134
0.22791936 -0.81873876 -1.0507418 0.3656116 0.6264977 -0.117803656 -0.079000264 -0.66264296
-0.7399719 -0.47709662 0.5324433 0.3882023 0.92089134 -1.2501521 -0.16246404 -0.44660184
-0.62414366 0.13743559 -0.9213471 0.16751316 -0.2895472 0.8426771 -0.21849535 0.13525924
-0.04866722 0.17244247 0.37552965 -0.42889652 -0.95325047 -0.9464976 -0.9177227 0.0679826
0.1256319 0.38847888 0.73854226 -0.11236924 -0.26759106 0.07824847 -1.0959061 -1.0529191
0.54716146 0.32827112 1.0346833 -0.5305112 0.100519136 0.65874887 0.31349388 -0.05323422
00000000: 8e56 61bd 6b8e a43e 460e 443e 4a7a ec3d
00000010: ccaa e13c cb14 5bbd 1630 983e c5c8 05bf
00000020: e83a 0fbd 878e 093f c7b2 ae3e bdf1 14bf
00000030: b152 15bf d71c bdbe 1016 53bf 2869 0e3f
00000040: 56ee ac3e 191f 183f 3888 ce3d 7de7 7e3f
00000050: 8880 ebbe 43a6 91be 3969 9fbe 2779 14bd
00000060: 5176 b3be 083c 55bf ef4d 343e 229a 4c3f
00000070: 818f 873f 4799 4d3e 7c4e c33e ce0d 303f
00000080: c5c4 d43d cbaa 29bf ffcd b43e c9f5 07bf
00000090: 3ed8 783e 4664 4abf 6db1 c53e 97fa 26bf
000000a0: 0b3d 593f 2c4d b93f e58b bebe ea6b 7e3f
000000b0: 20ea 0ebe fbbf c93d 1c53 99be 37a5 bb3e
000000c0: 0e82 f6bd 5e97 c5bf e305 82be b128 383f
000000d0: 52f8 45bf 39a6 323e 0e38 f7be e4f3 083f
000000e0: b180 f23e ce13 973e bf39 cd3e de98 ddbb
000000f0: d3c7 5c3f d910 a8be 7304 33bf c89b d4be
00000100: 72e9 3a3f e9ae adbe 7e50 edbe 5c33 e2bd
00000110: 1d93 f03e fc53 ffbd 0482 503e 4a24 d2bd
00000120: 8de8 083f e864 27bf b185 4d3f 41f0 113f
00000130: f7ca cdbe 834c e93e a981 133e b0db b1bc
00000140: fe11 7dbc 01eb 31be 1555 2b3f 57ea 04be
00000150: 3e50 19bf 6d71 7cbc 076e 5abf 22dd 08bf
00000160: 5237 2f3f c941 5b3e 41b1 67bd 8b52 e0be
00000170: be1c 643f 98bc e83e 4251 e13e ee34 a6bf
00000180: ddb5 473f 15f8 8abf da7d 9e3d 6544 783e
00000190: 729a 7b3e 05b3 44bc 0a19 483f 5a49 afbf
000001a0: f041 653e 6dd0 3ebe 78f8 743e 66ce 143f
000001b0: bbf9 9dbf 56ff eb3e 56b0 a53c 33d0 4f3d
000001c0: fcd7 15be 9f01 463f 482d 633f 5586 063f
000001d0: a7be 8cbf 330f b7be 4c6c d2bf 6dc5 71be
000001e0: 5275 a4be 87e7 49bd 896e 043f a10f e33d
000001f0: 3724 afbe 6b83 1a3f 5d04 ef3e 65de 5abf
00000200: 7680 083d 424c 043f 1224 eb3d e88d 833f
00000210: 7a01 ecbe 9bb3 4cbd 68d2 8fbf d83b 34bf
00000220: 7744 2ebf 880e 593e edd5 41bf 0eb3 243f
00000230: adfe 483f cf6c 39be 2a3a 9bbe 4478 c73e
00000240: b3ba 38be cdc3 5c3f ab6f 4ebe 2e14 043f
00000250: 1152 d43e 5761 4abd e514 8c3f cde0 e2be
00000260: b163 693e dd98 51bf b57e 86bf 7231 bb3e
00000270: 2762 203f 0b43 f1bd e4ca a1bd f8a2 29bf
00000280: cc6e 3dbf 0246 f4be 344e 083f 74c2 c63e
00000290: 89bf 6b3f fc04 a0bf f95c 26be ffa8 e4be
000002a0: e1c7 1fbf eabb 0c3e 67dd 6bbf 9288 2b3e
000002b0: 883f 94be b0b9 573f 3fbd 5fbe 6681 0a3e
000002c0: 4757 47bd c294 303e 6c45 c03e 5398 dbbe
000002d0: 3908 74bf ab4d 72bf e0ef 6abf 763a 8b3d
000002e0: a6a5 003e b4e6 c63e 1b11 3d3f d821 e6bd
000002f0: b201 89be bc40 a03d a746 8cbf 0ec6 86bf
00000300: c612 0c3f 2713 a83e 8170 843f 95cf 07bf
00000310: fadc cd3d c4a3 283f 4582 a03e 200c 5abd

fc2.bias f4 [10]
-0.025319884 0.18377006 -0.19540904 -0.10324709 -0.06117471 -0.008292857 0.02792149 0.13810872
0.17421062 0.0015853298
00000000: a56b cfbc 382e 3c3e 4f19 48be 3673 d3bd
00000010: 5592 7abd c3de 07bc 9cbb e43c 5f6c 0d3e
00000020: 4564 323e d7ca cf3a
