project_3/models/MLP_mnist_hog.pt (torch, 5440 bytes, 4 tensors)

weight f4 [12, 36]
00000000: 337b 023e 99a7 0d3e 14ee 1fbd bdc6 1c3e
00000010: 2093 15bd 7cc1 093d 0b2e a6bd 8a75 c83d
00000020: 3373 163e 6869 fabd c357 143e e888 ff3c
00000030: 1a2e fc3d 68e8 b83c 3e96 a43d d8c5 c0bc
00000040: 8590 033e f8ce c93c 1859 9fbd b402 2e3d
00000050: c843 9dbd d81d a0bc a8a2 8abd 3e6e e23d
00000060: 1cb8 06be b35b 9dbd 90c4 40bd fe3b cdbd
00000070: 48dd 803c 5c90 28be 7121 1a3e d6f9 10be
00000080: 65c2 033e b837 e33c 3caa 5dbd 4aed d23d
00000090: 73f8 fb3d 6c28 d3bf c2a7 5dbf 2cf9 223e
000000a0: 538b 833f 04e6 653e 27e8 e03e 9ef4 353f
000000b0: 4fb4 2f3f 84d7 6740 4cb5 2640 31ff dabd
000000c0: af51 a5bf dc57 10c0 fccb 66bf 6574 99bf
000000d0: 07e5 1cbd 41c1 6c3f 2493 e43e 108c da3f
000000e0: 6ad3 1840 fb04 053d 3e96 53bf 14d3 7ebf
000000f0: 1bce 02c0 9afa 81bf 9575 50be fc27 c03f
00000100: c1e8 993d 9f29 3fc0 c277 52bf a730 0f3f
00000110: 9aef 113e 4a9a b5be 2cf2 e43e 8cad 483f
00000120: 6139 243e dfd8 0cbe bb47 29be ff85 05be
00000130: 789c e5bd f240 8a3d 4c72 743d a5cf 0d3e
00000140: f045 b0bd e3b0 e8bd a21a b53d eef7 89bd
00000150: d229 cf3d 4cff 21bd 2242 c33d 409a 04be
00000160: f840 acbd 0421 503d 2452 103d 460d 2ebd
00000170: 5a75 cb3d a20a e83d 9e86 f7bd 1e3a b6bd
00000180: e145 1c3e 9c5a 66bd 3c04 72bd db22 25be
00000190: b078 c3bd 5c88 2a3d f836 b4bc e3c4 f7bd
000001a0: e01a 803b 9328 e9bd 04cb 10be a3f5 bbbd
000001b0: d70d bbbf 5481 0abf 2c0e 0bbf d352 c83e
000001c0: 45e0 d83e e03f 9bbc d508 563d a944 c8be
000001d0: 654a 07bf b9bb a8bf 68fd 92bf adc1 14bf
000001e0: f20a bc3e aac7 8a3e c75d d73e 8d7b 8a3f
000001f0: c3c5 753e a3de b6be 0fdd dbbf 8256 0bc0
00000200: 1297 e63b 79ae cf3f f70c 3040 19b6 6b3f
00000210: adda 8b3f a20b 8d3e bc74 9dbe 08f4 3ac0
00000220: 7769 d0bf 9600 573f 1b2f a03f 61fd fb3f
00000230: f7d9 8a3f ab20 c23f cf70 853c c90c 7dbf
00000240: 66ce ebbc 4e93 0e3d 3935 b03d 45c7 093e
00000250: 6060 1b3e 7f54 07be 0cce 2b3d fbd0 92bd
00000260: a89e 95bc 727f ffbd dd6f 1b3e 9385 fabd
00000270: 846a b63d f7a8 6f3d 2cd6 5d3d 0a8c b8bd
00000280: e81f 1b3e 9b01 163d 0b99 af3c 9c66 16be
00000290: ae49 8f3d 00d4 ccbc 835f 9cbd f397 123e
000002a0: 2033 183d 08da bcbd 18c3 acbd 8af7 02bc
000002b0: 6278 be3d 4e8d 2ebd 98c1 c2bd 3cc6 69bd
000002c0: 6600 ffbd 0c76 733d 531a 043e 31ac 20be
000002d0: 9e4a 1d3d 1444 b03d a0a5 dd3c 0b06 7bbd
000002e0: 7ab1 ad3d 6ada b23d c3cf 7d3d ceb2 f1bc
000002f0: c289 35bd 5bd7 8c3c 590d ecbc bfb9 50bd
00000300: 5cb4 d43d 306d 0c3e 5cc2 95bc a2dd 24bd
00000310: 3ca1 373a d7b3 2fbc a832 1f3d 71f3 403d
00000320: e1b2 1bbe 7b40 82bd f640 083e 2843 7e3d
00000330: 8b93 37bc e2f0 cfbd efdd d1bd ecd9 19be
00000340: 105d 60bd 992c 573d d72c d53d d382 993d
00000350: b979 17be b24e d0bd b425 dfbc 13a8 243e
00000360: 3b5c c93e 97bb 853e 2098 493f aca5 cebe
00000370: 562e 5abf 0dfb 0fbe a15f 87be 4c9f c73c
00000380: 05d5 82bd b54d bf3f baf9 253f 38c0 813e
00000390: 7f56 93bf 2133 d4bf ad85 cbbe 7256 d33e
000003a0: e593 513f d6a5 4d3f eeb5 0c40 165b bf3f
000003b0: 32cb 4c3e 9042 86bf 91df f1bf abd6 75bf
000003c0: cc24 05bf 8837 423e 714f e03e e870 393f
000003d0: 7332 f03e 1ea1 c43e c566 0abe 1bf5 ebbe
000003e0: e5d3 19bf 0474 8fbf 759f cbbe b920 1bbd
000003f0: 9f9d 02bd 217b aabd a2e6 5fbd 3aa5 23be
0.1274231 0.13833465 -0.03904541 0.15310188 -0.036517262 0.033631787 -0.08114251 0.09788044
0.14692383 -0.12227136 0.14486603 0.031193212 0.12313481 0.022571757 0.08036469 -0.02353184
0.12848099 0.024634823 -0.07780665 0.042483047 -0.07678944 -0.01954548 -0.067693055 0.11056183
-0.1315617 -0.07683506 -0.047062457 -0.10021208 0.015730515 -0.16461319 0.1505182 -0.14157805
0.12867124 0.02773653 -0.054117426 0.102991655 0.12303247 -1.6496711 -0.86584103 0.15915364
1.0276893 0.22451025 0.43927118 0.7107638 0.68634504 3.622529 2.6048155 -0.10693205
-1.2915553 -2.2553625 -0.90155005 -1.1988646 -0.038304355 0.9248238 0.4464351 1.7073994
2.3879037 0.032475453 -0.82651126 -0.9954083 -2.0438297 -1.0154603 -0.20357354 1.5012202
0.075150974 -2.9869153 -0.82213986 0.5593361 0.14251557 -0.35469276 0.44716012 0.7838981
0.16037513 -0.13754605 -0.16531269 -0.13039397 -0.11211485 0.067506686 0.059679314 0.13848741
-0.086070895 -0.113618635 0.088429704 -0.06736742 0.101153985 -0.03955011 0.09534098 -0.12949467
-0.08410829 0.050812736 0.035234585 -0.042493127 0.099344924 0.11330153 -0.12086223 -0.08897804
0.15261032 -0.056238756 -0.05908607 -0.16126578 -0.09544504 0.04163395 -0.021998867 -0.120981
0.0039094537 -0.11384692 -0.14139944 -0.09177711 -1.4613599 -0.5410359 -0.543185 0.3912569
0.42358604 -0.018951356 0.052254517 -0.39114884 -0.5284789 -1.3182288 -1.1483583 -0.58108026
0.367271 0.27105457 0.42063734 1.0818955 0.24001221 -0.35716733 -1.7176837 -2.177155
0.007037052 1.622512 2.7507913 0.92074734 1.092611 0.27547938 -0.30753124 -2.9211445
-1.6282185 0.8398527 1.2514375 1.96867 1.0847768 1.516622 0.016289143 -0.98847634
-0.028784942 0.03480845 0.086039014 0.13454922 0.15173483 -0.13215826 0.04194455 -0.07168766
-0.01826413 -0.1247548 0.15179391 -0.122325085 0.08907035 0.058510747 0.05415933 -0.09011085
0.1514889 0.036622625 0.021435281 -0.1468758 0.06996475 -0.025003433 -0.07635405 0.14315777
0.03715813 -0.09221274 -0.08435649 -0.007993588 0.09300305 -0.042615227 -0.09509581 -0.057073817
-0.12451248 0.05943875 0.12900667 -0.15690686 0.03840124 0.08606735 0.027056515 -0.06128506
0.084811166 0.087330654 0.061965715 -0.029504206 -0.04432083 0.017192533 -0.028814958 -0.05095839
0.10385963 0.13713527 -0.018281154 -0.040250428 0.0007004922 -0.0107240295 0.03886667 0.047107164
-0.15204956 -0.06359955 0.1330603 0.062075764 -0.011204611 -0.101533666 -0.102474086 -0.15024537
-0.05477625 0.052532766 0.10408943 0.07495656 -0.14792527 -0.1017126 -0.027239658 0.1607974
0.3932818 0.26119682 0.7874775 -0.40360773 -0.85226953 -0.14060612 -0.26440147 0.02436795
-0.063882865 1.4945589 0.6483418 0.25341964 -1.1510772 -1.6578103 -0.39750424 0.4127689
0.81866294 0.8033117 2.198604 1.4949672 0.19999388 -1.0489063 -1.8896352 -0.9603068
-0.5200927 0.18966496 0.4381061 0.72437906 0.4691349 0.38404173 -0.13515766 -0.46085438
-0.6008895 -1.120728 -0.39770094 -0.037873004 -0.0318886 -0.08324266 -0.054663308 -0.15980998

bias f4 [12]
00000000: 76f2 86bd 25fe 403f 3ceb 07be 9806 bc3f
00000010: 041a 85bd b18a 5ebd bc12 2c3f a6e1 64bd
00000020: 5f4d 8c3f f004 353f 9260 85bd 9654 f53e
-0.065892145 0.75387794 -0.13273329 1.4689512 -0.06499103 -0.054331485 0.67216086 -0.055879258
1.0961112 0.7071066 -0.0651256 0.47916096

weight f4 [10, 12]
00000000: c21b 8e3e 26a6 39c0 34a5 57be 3d53 ff3e
00000010: e5a2 673e d289 61be 582a 0440 db71 92be
00000020: 0d21 c23e 7861 12bf a94a 9c3d 7c34 9c3f
00000030: d4e7 a0bd 4592 8540 200f 293d eaf1 80c0
00000040: 50e5 85bc ab4f 8b3d cfa2 1740 06fd 51be
00000050: 6d95 1fbe 8d95 36c0 74f6 72be fa37 a2bf
00000060: 948a 8e3e a2e0 0940 a65a 843e 20e4 5b40
00000070: a24f 5f3e 5e35 1fbd fab2 42bf abae 143e
00000080: 60aa 43c0 26d6 96bf c293 bcbd d288 fb3d
00000090: f42c 183e 0dcb 93bf 6ffb 2dbe a73d 2340
000000a0: f03d 2ebe c13e 40be c0ca eabf f2fc 45bd
000000b0: 9d6e a4bf dd1c 1840 463e b03d 7f29 1e3f
000000c0: 3025 883d 47f8 2f40 e0ff abbc 3a13 93bf
000000d0: 61c4 dc3d 2629 893e 1301 233e fb0c fcbd
000000e0: a658 9f3f ce0b 9fbf 820d 483d 8456 02c0
000000f0: b827 673e 99ed 7bc0 378b 59be 3176 0b40
00000100: 29e6 81bd 2d35 49bd 7bc3 58c0 790e 85be
00000110: bd99 a13f 013d 0440 1673 3bbe b384 7bbf
00000120: 52c8 803e b509 25c0 4cfe 5e3e 4677 e93e
00000130: 7185 09bd 9351 393e fe30 0c3f bb00 383e
00000140: 0b05 4e40 c163 8ac0 f7c8 e23d 3673 aebf
00000150: 903b 7e3d b318 db3f 9cb6 a13d 8429 20c0
00000160: 8930 17bd 91ff 8b3e 764b 493f 431c 36bc
00000170: 14e0 36c0 b771 3640 5466 49be eaf1 7940
00000180: 0275 33be cea2 383e c836 83bd 502f 0c3f
00000190: 9715 8b3e 379e da3c 1fdc 613d 3bdf 653e
000001a0: 0b06 413f ed92 49bf 7ab2 84bd e977 e5bd
000001b0: 3a52 a1bd 34a2 f3bd da28 81bd ef4d 0ac0
000001c0: 9ba3 f03d c72d 303d 4e98 f63e c2fb 913e
000001d0: 1773 5e3f e403 4f40 1bf3 723c 3a43 e93d
0.27755553 -2.900766 -0.21059114 0.49868193 0.22620733 -0.2202523 2.0650845 -0.2860249
0.3791584 -0.57179976 0.07631428 1.2203517 -0.07856718 4.174105 0.04127419 -4.0295305
-0.016344696 0.06802305 2.369312 -0.20506677 -0.15584345 -2.8528779 -0.23726827 -1.2673333
0.27840102 2.1543355 0.2585041 3.4357986 0.21807721 -0.038869254 -0.76054347 0.14519756
-3.0572739 -1.1784103 -0.0920787 0.12281956 0.14860898 -1.1546341 -0.16990446 2.550638
-0.17015815 -0.18773939 -1.8343124 -0.04833693 -1.2846256 2.3767617 0.08605628 0.6178207
0.06647718 2.7495286 -0.020996034 -1.1490242 0.10779644 0.26789206 0.15918379 -0.12307163
1.2448928 -1.2425478 0.048841007 -2.0365305 0.22573745 -3.9363768 -0.21244512 2.1790888
-0.06342728 -0.049122978 -3.3869312 -0.25987604 1.2625042 2.0662234 -0.1830562 -0.9824936
0.25152832 -2.5787175 0.21776694 0.4559881 -0.033574525 0.18097524 0.54762256 0.17969029
3.2190578 -4.324677 0.11073487 -1.362891 0.062068522 1.7116913 0.07896158 -2.502534
-0.03691152 0.2734342 0.7863077 -0.011115137 -2.8574266 2.8506906 -0.19667941 3.9053903
-0.17525104 0.18030855 -0.06406933 0.54759693 0.2716491 0.02668677 0.055141564 0.22448437
0.75399846 -0.78739816 -0.06479354 -0.11204512 -0.078770116 -0.11896172 -0.0630662 -2.1610067
0.11749955 0.043012407 0.48163074 0.28512388 0.86894363 3.2346125 0.014828469 0.113897756

bias f4 [10]
00000000: fd63 5b3e 43ae d1be cc28 25bf 7638 99bf
00000010: 70fa 8f3d 3eb7 03bf ad1a 233f 3b64 a2bd
00000020: 83a0 713e cce6 18be
0.21424861 -0.40953264 -0.64515376 -1.1970356 0.07030189 -0.5145148 0.6371258 -0.07929274
0.23596387 -0.14931792
