project_3/models/MLP_mnist_pca.pt (torch, 30024 bytes, 4 tensors)

weight f4 [512, 2]
0.28748813 0.2545959 -0.24851386 0.6835777 -0.055943687 0.042033322 -0.5633398 0.29028577
0.35246494 -0.3923803 0.59811753 0.155574 0.23819388 0.036947995 0.32917827 -0.094889335
0.48037615 0.073960885 -0.32746142 0.17794055 -0.2770312 -0.09125865 -0.09542537 0.188717
-0.40608972 -0.27133003 -0.096962966 -0.4636021 -0.026206994 -0.7260421 0.45297235 -0.4924648
0.43540254 0.17624788 -0.07996836 0.14703223 0.120302685 0.31818295 0.044984594 -0.10461269
0.1839555 -0.20928523 0.2622576 0.5651927 0.2818456 -0.18320207 0.18069868 0.0289888
0.22546381 -0.28661373 -0.7511267 -0.2793861 -0.2621947 0.258955 0.20641986 0.21514526
0.20550226 -0.013517399 0.4278174 -0.4336796 0.060492717 -0.18415631 0.15091488 -0.19214799
0.1615421 -0.14810741 0.5120646 -0.296984 -0.40651768 -0.4207719 0.5976239 0.2862539
0.59026605 -0.49478605 -0.54354143 -0.37721843 -0.19931142 0.10309824 0.12033619 0.185385
-0.38313833 -0.54187655 0.18412682 -0.11950583 0.4072875 -0.17349556 0.20554207 -0.4311079
-0.16584598 0.054531276 0.06430132 -0.10452225 0.22084819 0.16065793 -0.30307183 -0.25260437
0.5104763 -0.108754285 -0.121317044 -0.4896798 -0.5015555 0.2588843 -0.06523304 -0.35165247
-0.02320214 -0.5798449 -0.55348176 -0.2572213 -0.573502 -0.53976417 0.6180223 0.089431986
0.021708567 -0.76430374 -0.4791368 -0.22837663 0.022375012 -0.77750146 -0.31640092 -0.5358903
-0.011546898 -0.25082973 0.00966813 -0.2216364 -0.25216946 -0.21321276 -0.14500722 -0.34306934
0.5177328 -0.20344578 0.53144664 0.23808809 -0.37438327 0.33153132 -0.12656133 -0.12833296
-0.5027721 -0.72108704 0.09921586 -0.09744829 0.16082264 -0.24942204 0.25833717 -0.43302077
-0.122098505 0.14769316 0.1427712 0.2715225 0.41856968 -0.35641944 0.118338935 -0.17606793
0.004798181 -0.6398806 0.35314855 -0.2512444 0.366648 0.21799374 0.15752253 -0.19242886
0.5721288 0.18077879 0.0500361 -0.28172112 0.121453576 -0.077401385 -0.21069393 0.4143451
0.10122662 -0.4022971 -0.19905409 -0.045369685 0.38794538 -0.186885 -0.55599946 -0.20447081
-0.6326887 0.26524493 0.2843305 -0.49218 0.13495736 0.33536816 0.071157396 -0.11471686
0.35398322 0.3106662 0.12287041 -0.06652269 -0.11908281 0.011262456 -0.06695653 -0.15905757
0.44402367 0.47837868 -0.07000172 -0.158319 -0.0005406621 -0.02948469 0.17134205 0.19120888
-0.39741597 -0.094169736 0.5256056 0.30877855 -0.0017459289 -0.2481632 -0.2599928 -0.32068893
-0.112213604 0.074386895 0.27940843 0.109981224 -0.5750175 -0.5404217 -0.012947847 0.24015054
0.031025501 -0.19792229 0.3236838 -0.24850233 -0.22394323 0.16419508 -0.27155304 -0.23859249
-0.61959547 0.38936117 0.26651102 0.10986142 -0.5608805 -0.7742425 -0.90355116 0.37496027
0.16926894 0.3508914 0.30843326 0.1491269 0.053112753 -0.374776 -0.5095163 -0.77906597
0.20269544 -0.27176675 -0.13177404 -0.44233888 -0.1306344 -0.5241942 -0.5954595 0.49697658
-0.04663353 0.1864216 -0.09686029 -0.40051186 -0.20352024 -0.39622706 -0.16253264 -0.38130972
00000000: a531 933e 655a 823e 6b7a 7ebe f3fe 2e3f
00000010: 3525 65bd 222b 2c3d 0a37 10bf 56a0 943e
00000020: 4976 b43e 12e6 c8be 3b1e 193f ca4e 1f3e
00000030: 19e9 733e c856 173d 0e8a a83e 5755 c2bd
00000040: ddf3 f53e ce78 973d 06a9 a7be 0c36 363e
00000050: 09d7 8dbe d1e5 babd 606e c3bd 073f 413e
00000060: feea cfbe c5eb 8abe 8594 c6bd 415d edbe
00000070: 0db0 d6bc e5dd 39bf feeb e73e 5924 fcbe
00000080: 15ed de3e 537a 343e 74c6 a3bd 9e8f 163e
00000090: 4161 f63d e0e8 a23e c441 383d 2e3f d6bd
000000a0: d55e 3c3e de4e 56be a146 863e 78b0 103f
000000b0: 114e 903e 5399 3bbe 1309 393e eb79 ed3c
000000c0: fcdf 663e 09bf 92be d749 40bf b20b 8fbe
000000d0: 623e 86be c095 843e ba5f 533e 0a4f 5c3e
000000e0: 2f6f 523e 1578 5dbc e20a db3e 410b debe
000000f0: 36c7 773d 7993 3cbe 6e89 1a3e 71c2 44be
00000100: 4b6b 253e 78a9 17be aa16 033f 490e 98be
00000110: 1623 d0be 6a6f d7be e1fd 183f df8f 923e
00000120: ad1b 173f 9954 fdbe 8825 0bbf c622 c1be
00000130: 4b18 4cbe 2c25 d33d d272 f63d 91d5 3d3e
00000140: b52a c4be 6cb8 0abf be8b 3c3e 79bf f4bd
00000150: fd87 d03e d2a8 31be 9f79 523e 2dba dcbe
00000160: 87d3 29be 305c 5f3d 69b0 833d c30f d6bd
00000170: 0726 623e 8383 243e 3b2c 9bbe 5c55 81be
00000180: 93ae 023f 91ba debd 1275 f8bd 50b7 fabe
00000190: f165 00bf 7c8c 843e e698 85bd cb0b b4be
000001a0: 6a12 bebc b770 14bf fbb0 0dbf 83b2 83be
000001b0: 07d1 12bf fc2d 0abf b636 1e3f 1e28 b73d
000001c0: 2ad6 b13c 69a9 43bf 6b51 f5be 90db 69be
000001d0: cd4b b73c 560a 47bf 4dff a1be 1b30 09bf
000001e0: 332f 3dbc c16c 80be 1467 1e3c a7f4 62be
000001f0: 5b1c 81be 7254 5abe c67c 14be c9a6 afbe
00000200: 238a 043f 1754 50be e30c 083f 5dcd 733e
00000210: 2aaf bfbe 79be a93e 4b99 01be b769 03be
00000220: acb5 00bf 2999 38bf af31 cb3d f892 c7bd
00000230: b1ae 243e 7e68 7fbe c544 843e e6b4 ddbe
00000240: c80e fabd e03c 173e 9d32 123e ff04 8b3e
00000250: c44e d63e 9c7c b6be af5b f23d 274b 34be
00000260: 0f3a 9d3b 37cf 23bf e3cf b43e 1ba3 80be
00000270: 49b9 bb3e c039 5f3e 964d 213e 120c 45be
00000280: 0877 123f 131e 393e a7f2 4c3d c03d 90be
00000290: a7bc f83d 9e84 9ebd 26c0 57be 0a25 d43e
000002a0: e74f cf3d e3f9 cdbe d6d4 4bbe 90d5 39bd
000002b0: c7a0 c63e c85e 3fbe fb55 0ebf cc60 51be
000002c0: e3f7 21bf 2fce 873e c493 913e 04ff fbbe
000002d0: 4332 0a3e 60b5 ab3e f8ba 913d acf0 eabd
000002e0: 4a3d b53e a40f 9f3e 7ba3 fb3d 0c3d 88bd
000002f0: b0e1 f3bd 2a86 383c 8120 89bd fddf 22be
00000300: 1257 e33e 0dee f43e 105d 8fbd 601e 22be
00000310: 38bb 0dba e089 f1bc 4a74 2f3e 43cc 433e
00000320: 1b7a cbbe 10dc c0bd 178e 063f 3918 9e3e
00000330: a7d7 e4ba 7e1e 7ebe c71d 85be 5731 a4be
00000340: 3fd0 e5bd 2858 983d 9f0e 8f3e d63d e13d
00000350: 5934 13bf 1459 0abf 3523 54bc 06ea 753e
00000360: 3129 fe3c 24ac 4abe e2b9 a53e 6577 7ebe
00000370: 6051 65be c122 283e 0009 8bbe 9751 74be
00000380: cf9d 1ebf 595a c73e 2274 883e 06ff e03d
00000390: dd95 0fbf c234 46bf 214f 67bf cbfa bf3e
000003a0: d654 2d3e 0aa8 b33e f7ea 9d3e b9b4 183e
000003b0: c28c 593d a4e2 bfbe a96f 02bf de70 47bf
000003c0: 658f 4f3e 0325 8bbe c6ef 06be 3e7a e2be
000003d0: 06c5 05be 9731 06bf 0970 18bf b773 fe3e
000003e0: cd02 3fbd 4ee5 3e3e b05e c6bd e40f cdbe
000003f0: 9c67 50be 46de cabe f56e 26be 073b c3be

bias f4 [512]
0.15392457 -0.20035616 0.12535791 -0.74783444 -0.016724698 -0.40356427 0.19355878 -0.33584532
-0.1660517 -0.6155642 -0.08943801 0.23395081 0.07968289 -0.6382295 -0.21930748 -0.12605546
-0.6646629 0.19461392 0.067918874 0.08209708 -0.29489145 -0.36643064 0.072213285 0.14711225
0.09100843 -0.479031 0.18920688 -0.13574369 -0.4409966 -0.4314909 0.27702963 -0.021859556
-0.06974169 -0.37437037 -0.26154083 -0.6306382 -0.66674197 0.09106373 0.21090819 0.29834455
-0.7727473 0.24580403 -0.48390177 0.19927223 0.18836631 0.20307738 0.24829362 0.18731886
-0.007125335 0.12556022 -0.4479485 0.07109426 -0.4166237 -0.12549612 -0.91815484 -0.20752703
-0.62130564 -0.3246194 -0.64563316 -0.86813813 -0.076953 0.20157364 0.2701649 0.19872549
-0.3569459 -0.8062163 -0.009932157 0.15609828 -1.023282 0.16304946 0.3228141 0.041526936
-0.4260027 0.21288072 0.22327338 0.22617613 -0.74585783 0.24002637 -0.5345064 0.32069805
-0.34199625 0.24732567 0.09014845 0.018202122 -0.14979908 0.12528068 -0.27450815 -0.78633934
-0.5897576 0.28971624 -0.20148174 0.114997864 -0.29589218 0.21454889 0.16000421 0.09193665
-0.3857983 -0.57779807 0.01207904 -0.4220531 0.24544348 -0.7644992 0.10129619 0.30010065
0.113713 0.118717924 -0.9622663 0.25231168 -0.1300401 -0.7200296 0.22228064 -0.39572537
-0.35158658 0.28620452 -0.5472367 -0.8430961 0.06973649 -0.14602962 0.032812223 -0.6566015
-0.041126925 -0.4613753 -0.55166644 -0.9472882 0.14201719 0.051511638 -0.66347206 0.22029245
0.100898124 -0.011973318 -0.42907727 0.08586815 0.31111982 0.1578471 -0.7526654 0.36608714
-0.10619241 0.0941307 0.21182282 0.2871184 -0.77711123 0.26297253 -0.57595927 -0.20010114
-0.56653064 -0.22571874 -0.13246186 -0.08327746 -0.22771516 0.01586858 0.2470995 0.13256803
0.05608296 0.092375085 0.19993772 -0.087190636 -0.06757996 0.059221152 -0.62170035 -0.56961477
-0.05009063 -0.40810668 -0.14596322 -0.2751345 -0.013629239 0.22155601 -0.36167368 0.3414561
0.2068006 -0.56341606 -0.5460464 -0.9569636 -0.4604167 -0.21424773 -0.10070637 -0.16961454
-0.45436677 -0.5589438 -0.27856284 0.16596524 -0.40335608 -0.70086104 0.14983596 -0.26077625
0.21419385 0.19000533 0.2576114 -0.7915811 0.19240972 0.27829263 -0.42538834 0.31670418
0.21266975 -0.12006887 0.17099556 -0.39718962 -0.64187086 0.13579835 0.046076406 -0.49346027
0.085689664 -0.6040266 0.27254048 0.22071086 0.07256488 -0.51878095 0.14918672 0.09030021
0.055027094 0.020679172 0.21942565 -0.550796 -0.1943068 0.05503447 -0.048786417 0.22688267
-0.49303487 -0.28046012 0.06312659 -0.32351553 0.16296288 0.08621012 -0.7089516 -0.21224692
-0.36407888 -0.14570151 -0.1286326 -0.70312166 -0.18717028 -0.13246506 -0.2904287 0.31034255
-0.1863666 0.15354922 -0.098275445 -0.6238638 0.054861393 0.17799185 -0.6971712 -0.4573093
0.29030445 0.24059576 -0.5203277 0.19374089 -0.31012976 -0.7022129 0.034394957 0.07809115
-0.27988434 0.11272322 -0.7423446 0.20679657 0.26301345 0.12983765 0.0564405 0.039751347
00000000: 679e 1d3e 2a2a 4dbe d35d 003e 1472 3fbf
00000010: 3c02 89bc fa9f cebe 4634 463e ebf3 abbe
00000020: 7509 2abe 9e95 1dbf 462b b7bd cd90 6f3e
00000030: c830 a33d 0263 23bf 2492 60be af14 01be
00000040: 5927 2abf df48 473e 0d19 8b3d 8422 a83d
00000050: 03fc 96be cc9c bbbe 8fe4 933d 98a4 163e
00000060: a162 ba3d 8d43 f5be 73bf 413e 6500 0bbe
00000070: 4eca e1be 60ec dcbe d4d6 8d3e d012 b3bc
00000080: bbd4 8ebd 79ad bfbe aee8 85be 8171 21bf
00000090: 9aaf 2abf 9f7f ba3d 51f8 573e 9ec0 983e
000000a0: c4d2 45bf 0db4 7b3e f9c1 f7be 050e 4c3e
000000b0: 19e3 403e 84f3 4f3e af40 7e3e 84d0 3f3e
000000c0: a47b e9bb dc92 003e 8159 e5be de99 913d
000000d0: b44f d5be 0e82 00be 320c 6bbf f781 54be
000000e0: e30d 1fbf 8434 a6be 3748 25bf 4d3e 5ebf
000000f0: 8999 9dbd 5269 4e3e 0e53 8a3e b27e 4b3e
00000100: 9dc1 b6be 3164 4ebf 7cba 22bc 3ad8 1f3e
00000110: e8fa 82bf 70f6 263e e447 a53e 2618 2a3d
00000120: 071d dabe 67fd 593e c7a1 643e b79a 673e
00000130: 8af0 3ebf 79c9 753e 69d5 08bf 8932 a43e
00000140: 221a afbe f142 7d3e c09f b83d 9e1c 953c
00000150: ee64 19be 9449 003e 558c 8cbe 894d 49bf
00000160: 5bfa 16bf b055 943e 3b51 4ebe 0084 eb3d
00000170: 2e7f 97be b4b2 5b3e 25d8 233e 4849 bc3d
00000180: 5b87 c5be 93ea 13bf 2ae7 453c 5817 d8be
00000190: 8955 7b3e 38b6 43bf 6074 cf3d cba6 993e
000001a0: 5de2 e83d 6222 f33d 1657 76bf ff2e 813e
000001b0: 3b29 05be dc53 38bf 899d 633e 849c cabe
000001c0: 2803 b4be 6689 923e b417 0cbf 25d5 57bf
000001d0: 01d2 8e3d ca88 15be 1c66 063d 0917 28bf
000001e0: b574 28bd 6239 ecbe 033a 0dbf 7b81 72bf
000001f0: f46c 113e defd 523d 4ed9 29bf 5894 613e
00000200: ada3 ce3d bc2b 44bc 04b0 dbbe a4db af3d
00000210: 194b 9f3e aca2 213e aeae 40bf c66f bb3e
00000220: 687b d9bd 99c7 c03d 15e8 583e 2f01 933e
00000230: c3f0 46bf 56a4 863e 1172 13bf 50e7 4cbe
00000240: 2708 11bf d022 67be 15a4 07be 5f8d aabd
00000250: 2a2e 69be d3fe 813c a707 7d3e eabf 073e
00000260: 3fb7 653d 262f bd3d 79bc 4c3e 0191 b2bd
00000270: 5d67 8abd e191 723d c127 1fbf 46d2 11bf
00000280: d52b 4dbd 5cf3 d0be 6277 15be 6ede 8cbe
00000290: 2c4d 5fbc 94df 623e 4b2d b9be 55d3 ae3e
000002a0: 89c3 533e 093c 10bf b2c9 0bbf 91fb 74bf
000002b0: bdbb ebbe c263 5bbe 243f cebd 6faf 2dbe
000002c0: c3a2 e8be f116 0fbf ca9f 8ebe cbf2 293e
000002d0: b084 cebe a16b 33bf 996e 193e 7784 85be
000002e0: a255 5b3e c290 423e a4e5 833e 0fa5 4abf
000002f0: 0e07 453e 5f7c 8e3e 80cc d9be 0d27 a23e
00000300: 19c6 593e abe6 f5bd 7619 2f3e 705c cbbe
00000310: a651 24bf b90e 0b3e 9dba 3c3d d3a6 fcbe
00000320: 107e af3d 7da1 1abf 6d8a 8b3e 0702 623e
00000330: e59c 943d d4ce 04bf 67c4 183e 51ef b83d
00000340: 1764 613d 5e67 a93c 1eb1 603e f700 0dbf
00000350: 5df8 46be d36b 613d 44d4 47bd ee53 683e
00000360: 116f fcbe 7898 8fbe 8348 813d d4a3 a5be
00000370: bedf 263e ee8e b03d da7d 35bf 4257 59be
00000380: 8c68 babe c732 15be 44b8 03be c8ff 33bf
00000390: 91a9 3fbe eca4 07be 12b3 94be 38e5 9e3e
000003a0: e3d6 3ebe 023c 1d3e a344 c9bd 8ab5 1fbf
000003b0: 57b6 603d 7f43 363e d079 32bf 7224 eabe
000003c0: c9a2 943e bc5e 763e 3234 05bf 0364 463e
000003d0: 54c9 9ebe 3ac4 33bf bae1 0c3d 41ee 9f3d
000003e0: 004d 8fbe 6edb e63d 4c0a 3ebf 7bc2 533e
000003f0: b3a9 863e 29f4 043e 272e 673d 4fd2 223d

weight f4 [10, 512]
0.024836948 -0.08355228 -0.12057586 -0.019122452 -0.0048510064 0.032136198 0.08106637 0.09034491
0.086493954 0.010006648 0.019303136 -0.18128462 -0.1725488 -0.05038528 -0.2234836 0.036012456
0.07807321 -0.1394925 -0.054628793 0.03642047 0.050853264 -0.22918619 0.02772994 0.036367077
0.017343134 0.0965775 -0.03129581 -0.0051971837 0.005759826 0.039903738 0.014349792 0.01493674
0.00045037275 0.012339591 -0.048210423 0.008851438 0.12533638 -0.19286034 -0.01077083 -0.012242468
-0.031183554 0.077650435 0.06671792 0.087368794 -0.060155403 0.020698294 0.011479547 -0.03803795
0.14341813 -0.18133286 -0.0038225907 -0.07802402 -0.007915655 -0.032390222 -0.016230311 0.13094252
-0.051865008 0.02351489 0.02336235 -0.031358883 -0.08971082 0.023706758 -0.09665459 -0.12577796
0.024206439 0.19280608 -0.15502992 -0.03516663 -0.014995873 0.059683427 0.045511387 0.014715362
0.00684594 0.031967103 0.07582239 0.052553892 -0.051789727 0.06568014 0.14934449 0.029944018
-0.0072730933 0.06223813 0.07283032 -0.1938863 -0.097877495 -0.07362328 0.042871762 0.01480951
0.021339359 0.11365079 -0.08750544 -0.00059006934 0.019614102 0.058322012 -0.080764405 -0.082539596
-0.03655878 0.010691885 -0.020344403 0.06318859 -0.18730184 0.14514974 0.040554535 -0.1267042
-0.020401672 0.099009745 -0.027862689 -0.09152084 -0.039165333 -0.25195387 -0.012127696 -0.02535981
-0.08019348 0.02777491 -0.06119163 -0.03140687 0.01990741 -0.02742545 -0.02948992 -0.02180288
0.02957618 -0.06583945 -0.022893708 -0.01971656 -0.15250927 -0.13508256 0.027184207 -0.097446874
-0.017703954 0.0017830519 0.049558986 0.08342117 -0.013899896 -0.040231343 -0.067895815 0.07865956
0.0064130733 0.122728616 -0.04065165 0.122437045 -0.0036588525 -0.029050434 0.03059871 -0.18374912
0.05827997 0.0067116353 -0.13929923 -0.013433254 0.029638568 -0.05379321 -0.034951724 -0.070161134
-0.20571978 -0.02579252 -0.10017663 -0.011481284 0.016934244 0.16811423 -0.15684165 -0.024528248
-0.024594089 0.011970504 -0.13950433 -0.10398054 -0.082979 0.073244475 -0.024114516 0.042769436
-0.030189699 0.021491468 0.035523143 -0.036155254 0.06901237 0.1905206 0.031297944 0.027520573
0.0042835753 -0.0071203234 0.07302643 -0.14792733 -0.006009998 -0.032509193 0.071304426 -0.16085656
-0.09124616 0.15330821 -0.019622376 -0.037989236 -0.025826842 0.14787683 0.10761404 -0.031162018
-0.065971814 -0.062046703 0.039792724 0.022030117 0.12859035 0.04382166 0.00024251372 -0.07997993
-0.11690385 -0.015126726 0.013792046 -0.091266446 -0.014881242 0.014291193 0.12254014 0.085213326
-0.021052128 0.031711567 0.0051092105 0.035987012 0.08413843 -0.19077957 0.018340731 0.08859864
-0.005066254 -0.04622696 0.005114675 -0.0054159667 -0.15999137 -0.26535714 0.17087315 -0.08442596
-0.024102071 -0.25072092 -0.014983148 -0.007836568 -0.13584457 -0.1301035 0.01217014 0.07927171
-0.007311762 -0.071715884 -0.0037840465 -0.0061681196 0.089074925 -0.03153826 0.025880598 0.0024883803
0.054427892 -0.15792927 -0.020780722 0.027489735 0.10259812 0.020702042 0.005194998 -0.009943007
-0.19020611 -0.09575949 0.013098741 -0.01743948 0.03733319 -0.13918073 -0.022920577 -0.07934845
00000000: db76 cb3c 751d abbd 7af0 f6bd b0a6 9cbc
00000010: 31f5 9ebb 3fa1 033d 2006 a63d c106 b93d
00000020: be23 b13d ecf2 233c 9c21 9e3c ada2 39be
00000030: a2b0 30be cc60 4ebd e3d8 64be cc81 133d
00000040: d9e4 9f3d 1fd7 0ebe 71c2 5fbd a12d 153d
00000050: 834b 503d c9af 6abe e629 e33c a5f5 143d
00000060: 3013 8e3c 6dca c53d 0930 00bd 234d aabb
00000070: ecbc bc3b 1a72 233d 641b 6b3c 3ab9 743c
00000080: 0220 ec39 ff2b 4a3c 4b78 45bd 9f05 113c
00000090: 2e58 003e 2e7d 45be 2378 30bc a294 48bc
000000a0: a774 ffbc 3107 9f3d 68a3 883d 69ee b23d
000000b0: 8365 76bd 788f a93c b614 3c3c aecd 1bbd
000000c0: 34dc 123e 52af 39be 6e84 7abb 0fcb 9fbd
000000d0: aab0 01bc 9cab 04bd 6ef5 84bc cc15 063e
000000e0: 6770 54bd 4ca2 c03c 6662 bf3c 2c72 00bd
000000f0: 4eba b7bd ad34 c23c d7f2 c5bd f0cb 00be
00000100: 954c c63c f56e 453e 2ac0 1ebe e20a 10bd
00000110: 40b1 75bc 9c76 743d 266a 3a3d b418 713c
00000120: e853 e03b f0ef 023d c548 9b3d c042 573d
00000130: 7721 54bd 4f83 863d c3ed 183e 284d f53c
00000140: 2153 eebb 69ed 7e3d 1028 953d 218a 46be
00000150: ff73 c8bd cdc7 96bd 4d9a 2f3d 96a3 723c
00000160: e1cf ae3c bfc1 e83d 0d36 b3bd e2ae 1aba
00000170: c1ad a03c 10e3 6e3d cf67 a5bd 850a a9bd
00000180: a9be 15bd 042d 2f3c 4ea9 a6bc 0569 813d
00000190: 0ecc 3fbe 22a2 143e 831c 263d bfbe 01be
000001a0: 6821 a7bc 9fc5 ca3d 4b40 e4bc 476f bbbd
000001b0: d46b 20bd 1900 81be 3eb3 46bc 60bf cfbc
000001c0: 7b3c a4bd 3588 e33c 13a4 7abd 7da4 00bd
000001d0: dd14 a33c 56ab e0bc d894 f1bc f49b b2bc
000001e0: bf49 f23c d5d6 86bd 968b bbbc a084 a1bc
000001f0: 642b 1cbe 1553 0abe 6ab1 de3c 3a92 c7bd
00000200: e207 91bc 4bb5 e93a 5dfe 4a3d b8d8 aa3d
00000210: 64bc 63bc 9fc9 24bd f60c 8bbd 4318 a13d
00000220: c224 d23b 2459 fb3d 5882 26bd 46c0 fa3d
00000230: 5cc9 6fbb 2dfb edbc 25aa fa3c bb28 3cbe
00000240: fab6 6e3d 47ed db3b 75a4 0ebe 2717 5cbc
00000250: 95cc f23c 4556 5cbd 8a29 0fbd a4b0 8fbd
00000260: 35a8 52be d64a d3bc 6829 cdbd ff1b 3cbc
00000270: afb9 8a3c 2326 2c3e 199b 20be 77ef c8bc
00000280: 8b79 c9bc ef1f 443c 39da 0ebe c0f3 d4bd
00000290: e5f0 a9bd 3301 963d ce8b c5bc 012f 2f3d
000002a0: 6350 f7bc e00e b03c b780 113d 8817 14bd
000002b0: 5c56 8d3d d517 433e 4632 003d d372 e13c
000002c0: 3c5d 8c3b 9a51 e9bb e28e 953d 437a 17be
000002d0: 84ef c4bb 5c28 05bd 0e08 923d 95b7 24be
000002e0: 44df babd d4fc 1c3e 1bbf a0bc 9a9a 1bbd
000002f0: d092 d3bc 066d 173e c064 dc3d 7d47 ffbc
00000300: 3b1c 87bd af24 7ebd b2fd 223d 8178 b43c
00000310: 30ad 033e 577e 333d 484b 7e39 84cc a3bd
00000320: 496b efbd 16d6 77bc 09f8 613c e7e9 babd
00000330: 74d0 73bc 9c25 6a3c 53f6 fa3d 5384 ae3d
00000340: 8375 acbc fde3 013d 2a6b a73b 1e67 133d
00000350: c550 ac3d b85b 43be 4d3f 963c 3473 b53d
00000360: d202 a6bb 7b58 3dbd 0199 a73b 6c78 b1bb
00000370: c7d4 23be e4dc 87be 5ff9 2e3e 85e7 acbd
00000380: b571 c5bc 7e5e 80be e17b 75bc f364 00bc
00000390: d71a 0bbe da39 05be 4465 473c 3559 a23d
000003a0: 8197 efbb c7df 92bd c4fd 77bb f01d cabb
000003b0: ea6c b63d 432e 01bd 8c03 d43c 1814 233b
000003c0: c8ef 5e3d 36b8 21be 553c aabc 2732 e13c
000003d0: f71e d23d 5497 a93c cd3a aa3b fee7 22bc
000003e0: 64c5 42be 8d1d c4bd 1a9c 563c 3edd 8ebc
000003f0: b0ea 183d 6585 0ebe efc3 bbbc 7181 a2bd

bias f4 [10]
-0.03899615 -0.19018456 0.06712748 0.024169972 0.04060941 0.16079186 0.18680911 -0.22277328
0.14125618 -0.0764514
00000000: 6dba 1fbd bebf 42be 227a 893d 1b00 c63c
00000010: 0d56 263d 9fa6 243e e34a 3f3e ae1e 64be
00000020: 76a5 103e 8d92 9cbd
