project_3/models/MLP_mnist_lbp_12.pt (torch, 41368 bytes, 4 tensors)

weight f4 [12, 784]
000000 a2 ae df 3c 2e d6 f2 3c 38 15 09 bc 35 61 06 3d
       0.027304951 0.029643144 -0.008366875 0.032807548
000010 f8 34 00 bc 20 27 ec 3b 9c 70 8e bc 78 d2 ab 3c
       -0.007825129 0.0072068125 -0.01738768 0.020974383
000020 07 f5 00 3d 7e a3 d6 bc 4e 4d fe 3c a8 07 db 3b
       0.031483676 -0.026201006 0.031042721 0.0066842623
000030 86 27 d8 3c 10 7e 9e 3b 10 13 8d 3c dc 3b a5 bb
       0.026386034 0.004836805 0.017221004 -0.005042536
000040 06 8a e1 3c 88 fa ac 3b 83 95 88 bc e4 26 15 3c
       0.027531635 0.005278889 -0.016672855 0.0091035105
000050 63 cc 86 bc 28 3e 89 bb 20 a9 6d bc 5a 15 c2 3c
       -0.016454881 -0.004188318 -0.014505655 0.023691822
000060 7a f2 e6 bc e3 e0 86 bc c6 3a 25 bc 48 ea af bc
       -0.028191794 -0.016464656 -0.010084813 -0.021474019
000070 10 e9 5c 3b bd 7b 10 bd a9 1c 04 3d b8 87 f8 bc
       0.0033708252 -0.035274256 0.032253895 -0.030338153
000080 86 df e1 3c 08 c2 c2 3b a0 ff 3d bc 66 cb b4 3c
       0.027572405 0.0059435405 -0.01159659 0.022069644
000090 d0 63 b6 3b 12 63 ec 3c e0 de 7f 3b d2 89 38 bc
       0.005566098 0.028855834 0.0039042756 -0.011263328
0000a0 e4 37 1d 3c c0 ad 1e bc 04 43 76 3c 6d 9b 02 3d
       0.009595845 -0.00968498 0.015030626 0.031886507
0000b0 ac 1f a9 3c f4 ce 7f bc 22 e4 a8 3c 10 65 d1 3b
       0.020644985 -0.015613306 0.020616595 0.0063902214
0000c0 fa 93 94 3c e3 52 b2 bc 3a cf 10 bd 7c 13 62 bc
       0.018136967 -0.02176804 -0.035353877 -0.013798591
0000d0 b3 68 e0 bc f6 10 f0 3c 1c 8a 28 3c c4 5f 72 3c
       -0.027393674 0.029304963 0.010286834 0.01479334
0000e0 d8 0e 39 3c c0 dd 22 ba 06 f8 e4 3c 40 e0 cf bc
       0.011295043 -0.0006212853 0.027950298 -0.025375485
0000f0 00 5f 13 3b 18 b1 c7 bc 14 6e 34 3c 4a 83 49 bc
       0.0022487044 -0.024376437 0.011012573 -0.012299368
000100 1c 4c 33 3c b0 d1 f3 bb 06 a8 f2 3c 5c 68 ad bc
       0.010943439 -0.007440768 0.029621135 -0.021167926
000110 30 7d ae bc e3 7f ae bc 5d 93 03 3d e0 ff 42 3c
       -0.021299928 -0.021301216 0.03212296 0.011901826
000120 77 c3 0c 3d c8 73 f1 bc ea 18 11 bd b5 e5 e4 bc
       0.034366097 -0.029474154 -0.03542415 -0.027941564
000130 43 cf c4 bc a0 01 6d 3c 88 86 51 3c d2 1a f3 3c
       -0.024024611 0.014465719 0.012788422 0.029675875
000140 60 17 97 bc 0c 73 c7 bc 66 3b 9b 3c 72 84 6c bc
       -0.018443763 -0.02434685 0.018949222 -0.014435874
000150 8e 91 b1 3c d2 da 0a bc 42 5d a7 3c 93 51 e3 bc
       0.021675851 -0.008475022 0.020430211 -0.027748859
000160 67 a5 93 bc 74 65 32 3c 40 68 f7 3b f2 2f 15 bc
       -0.018023206 0.010888446 0.0075502694 -0.009105669
000170 96 64 ae 3c 8c e4 c6 3c 3e 2a d4 bc d0 31 9c bc
       0.021288197 0.024278902 -0.025899049 -0.019066721
000180 c1 f2 05 3d 3c 72 45 bc 58 71 4f bc 97 8b 0d bd
       0.03270221 -0.012051161 -0.012661301 -0.03455695
000190 05 8c a7 bc bc 2b 12 3c 40 78 9a bb 9e 5f d4 bc
       -0.020452509 0.00892156 -0.004714042 -0.0259245
0001a0 c0 9b 5b 3a a3 d9 c7 bc 75 37 f8 bc b0 1b a1 bc
       0.00083773956 -0.02439577 -0.030299881 -0.019666523
0001b0 f2 07 00 bd 98 4a ba bc 7f 3a 12 3d a8 09 dd 3b
       -0.031257577 -0.022740647 0.035700317 0.006745536
0001c0 44 51 34 3c 3b 70 08 bd 3c 27 c0 bc aa c4 42 bc
       0.011005703 -0.033310156 -0.023456208 -0.011887709
0001d0 b8 ff b6 3b 4d b8 00 bd 4e 1f 7c bc 40 27 af bc
       0.0055846833 -0.031425763 -0.015388323 -0.02138102
0001e0 00 90 cf 38 ca bb 59 bc 10 31 22 bb 4e 41 c6 bc
       9.897351e-05 -0.013289401 -0.0024748482 -0.024201062
0001f0 d3 d1 c8 bc cc af aa bc fc 4a 48 bc ca eb e6 bc
       -0.024514114 -0.02083578 -0.012224909 -0.028188605
000200 f6 4f f5 3c 78 42 e8 bb 3e ba fb 3c f0 51 36 3c
       0.029945355 -0.007088002 0.030728456 0.011127934
000210 a5 bf f7 bc 40 78 ca 3c c0 ff 20 bc ee 4c 60 bc
       -0.03024275 0.024715543 -0.009826601 -0.0136902165
000220 dc da f2 bc 77 6e 11 bd 64 6a 27 3c 48 a4 ff bb
       -0.029645376 -0.035505738 0.010218237 -0.0078015663
000230 44 cf 63 3c 4a 1a f0 bc ac 36 d9 3c 5e c3 d6 bc
       0.013904396 -0.02930941 0.026515327 -0.026216205
000240 c0 13 ca bb f0 6f f4 3b 60 0a 97 3c 2a 32 ec 3c
       -0.006166905 0.007459633 0.018437564 0.028832514
000250 a5 42 05 3d 83 fc e7 bc e4 42 13 3c 66 af 7b bc
       0.03253426 -0.02831865 0.008988116 -0.015361642
000260 d8 3e 80 bb a0 fc da bc e1 3e 05 3d a3 bb d6 bc
       -0.0039137416 -0.02673179 0.03253067 -0.026212519
000270 7c 5d 9c 3c 74 a4 4d 3c 48 25 3e 3c 7a 2d 9e bc
       0.019087546 0.012551416 0.011605568 -0.019308794
000280 75 f7 04 3d dc 95 00 3c b0 8b 96 3b 3d ea 00 bd
       0.032462556 0.007848229 0.0045942888 -0.031473387
000290 e0 a2 75 3c 24 91 af bb ba 08 86 bc a2 4d fb 3c
       0.014992446 -0.0053578783 -0.016361583 0.030676667
0002a0 f8 74 02 3c 75 df a1 bc f0 14 94 bc 20 8d df ba
       0.007962458 -0.019759873 -0.01807639 -0.0017055608
0002b0 4e 5c a3 3c 18 86 15 bc 15 ef a6 bc c6 60 48 bc
       0.019941475 -0.009126209 -0.020377675 -0.012230104
0002c0 a0 92 da bc 54 ae 50 3c 4a 76 e2 3c 23 b8 09 bd
       -0.026681244 0.012736876 0.027644295 -0.033622872
0002d0 5c e6 07 3c d8 23 97 3c 08 35 d4 3b 40 62 50 bc
       0.008294668 0.018449709 0.0064760484 -0.012718737
0002e0 92 b4 98 3c 0a c0 99 3c 04 cd 5a 3c f0 a4 cd bb
       0.01864079 0.01876833 0.013354544 -0.0062757656
0002f0 52 f2 1a bc 80 65 7a 3b 5c bc ce bb 8a 5f 2e bc
       -0.009457188 0.0038207471 -0.0063090753 -0.0106428955
000300 80 03 bb 3c 8e 6f fb 3c e0 b5 67 bb fc 02 03 bc
       0.022828817 0.030692842 -0.0035356209 -0.007996317
000310 00 9e 08 3a 60 c0 0b bb c8 ac 0c 3c 08 fa 23 3c
       0.0005211532 -0.0021324381 0.008586116 0.010008343
000320 70 dd 04 bd 98 f0 57 bc 0e 62 f6 3c 00 f2 63 3c
       -0.03243774 -0.013179921 0.030076053 0.013912678
000330 20 d4 e8 ba 9c 64 b0 bc 28 ff b2 bc b4 09 03 bd
       -0.0017763413 -0.02153235 -0.021850184 -0.031991675
000340 0e bc 3e bc f0 9a 45 3c c6 8c ba 3c 58 14 87 3c
       -0.011641515 0.012060866 0.022772204 0.016489193
000350 f3 4e 01 bd 05 f1 af bc c8 b0 b8 bb 69 82 0d 3d
       -0.031569432 -0.021477232 -0.0056363083 0.034548197
000360 68 4a a9 3b ee 88 17 bc 20 15 72 3c c0 de 5e bc
       0.0051663406 -0.009248955 0.014775544 -0.013602912
000370 58 5e bd bc 4e 8b d5 3c 63 08 85 bc 78 9a ea bb
       -0.023116276 0.026067402 -0.01623935 -0.0071595274
000380 92 86 11 bd 3a cf c3 3c 8a a9 dd 3c 18 41 55 3c
       -0.035528727 0.023902524 0.027058382 0.013016008
000390 a5 00 cc bc 0e 60 10 bd d1 9e ed bc ac 2b da 3c
       -0.024902651 -0.035247855 -0.029006394 0.026632152
0003a0 1a 77 8c 3c 3e 33 f6 3c f6 44 99 3c 58 18 14 3c
       0.017146636 0.030053731 0.018709641 0.009039007
0003b0 00 5d b7 b9 9a 80 de bc c5 aa fa bc 02 d4 08 bd
       -0.0003497377 -0.027160931 -0.030599007 -0.03340531
0003c0 04 89 6f 3c aa a4 8f bc e4 85 eb bb 5c 60 a8 bc
       0.014620069 -0.017534573 -0.007187592 -0.02055376
0003d0 f0 40 d5 bb 08 ec cd bc b8 2b bf bc 24 19 42 3c
       -0.0065079853 -0.025136963 -0.023336276 0.011846814
0003e0 00 e7 2d bc f2 9d b4 3c 0e b8 3b bc ee 9e d6 bc
       -0.010614157 0.02204797 -0.011457456 -0.02619883
0003f0 e4 7b ce bb c0 d2 8d bc 00 05 33 bc 6c 43 0b bd
       -0.00630139 -0.017312407 -0.010926485 -0.033999845

bias f4 [12]
000000 77 51 82 bc 5d 9d 9d 3c 7e 74 1e bd aa f7 1a 3b
       -0.015907986 0.019240076 -0.038685314 0.0023646154
000010 30 6e 0b 3d 10 a2 00 bc eb c1 51 bd 0c f1 da bc
       0.03404063 -0.007851139 -0.051210325 -0.026726268
000020 af 03 34 3d 1d 10 a7 bb c3 6e f9 bb f2 68 0c 3b
       0.043948825 -0.0050983564 -0.007612081 0.0021424857

weight f4 [10, 12]
000000 5d 19 10 be 72 10 96 bf c8 9c e5 be 1b e5 39 3f
       -0.14072175 -1.1723769 -0.44846177 0.7261521
000010 05 80 ee 3d f7 be 4f 3e 77 ce a6 3e 15 e7 f6 bd
       0.116455115 0.20287691 0.32579395 -0.12055794
000020 8c f7 f0 3d 51 59 46 be 27 dc 13 bf a2 f2 e7 be
       0.11765966 -0.19370009 -0.577578 -0.45302302
000030 e8 10 52 3d 31 d8 22 3f 52 d1 16 3f a9 74 a1 bc
       0.051285654 0.6361113 0.5891315 -0.019708948
000040 ea 4c 2c bd 16 c1 30 be a0 0b 52 3f 88 9d 3b bd
       -0.04206554 -0.17261156 0.8204899 -0.04580453
000050 9f 42 7c bf bf e7 a2 bd e0 fb 2d bf a5 d8 3e bf
       -0.98539156 -0.07954358 -0.67962456 -0.74549323
000060 c4 0f fd bd 15 a2 0f 3f 04 1b 8d be 12 4a 2d 3f
       -0.12356523 0.5610669 -0.27559674 0.6769115
000070 da a8 21 be 9c 63 06 3f 00 b0 91 bf 31 c9 24 3e
       -0.15787068 0.5249574 -1.1381836 0.16092373
000080 e2 0c 31 bf e0 a6 d1 bd fb 1f 03 bf d1 8b b9 be
       -0.6916028 -0.10236907 -0.51220673 -0.36239484
000090 53 e0 8b be 24 bd db 3d 33 31 78 3e 3c 10 74 3e
       -0.27319583 0.10729435 0.24237518 0.23834318
0000a0 90 16 39 3e 40 3d cc 3d 94 50 12 bf 6b bd e5 bd
       0.18075013 0.0997262 -0.571542 -0.11217769
0000b0 3a 11 a0 be 76 17 8a be 44 a3 af 3f 48 0c 96 be
       -0.31263143 -0.26971024 1.37217 -0.29306245
0000c0 31 36 27 be 46 28 fa 3d 6e 13 22 bd 67 fb 54 bd
       -0.16329266 0.12214713 -0.03956931 -0.05199757
0000d0 66 96 41 be fb 51 91 3e d4 34 b5 be 43 45 df 3d
       -0.18905029 0.2838286 -0.35391867 0.109018825
0000e0 fd 85 a7 3f 7c b0 87 bc 02 24 e7 be 3e 69 d2 be
       1.3087765 -0.016563646 -0.4514466 -0.41095918
0000f0 96 63 91 3e 74 36 d2 be e1 47 44 be d6 44 67 3e
       0.2839629 -0.4105717 -0.19168045 0.22584853
000100 2c ef 65 be 38 5a 02 3f 9a d4 f9 3e d7 49 b8 3d
       -0.22454518 0.5091891 0.48795015 0.08998459
000110 5a d2 ae 3d e0 f9 01 3d 5f 78 33 3f 10 4b 52 bf
       0.08536215 0.03173244 0.70105547 -0.82145786
000120 c0 99 7f 3d af 00 48 bf 46 03 5c 3f f7 fe b7 3e
       0.062402487 -0.78126043 0.85942495 0.3593671
000130 4e 3e e8 bd 34 1d 11 3e 57 b5 0b bf a2 d1 1b 3e
       -0.11340009 0.14171296 -0.5457358 0.15216687
000140 5b 4c f2 be ad fd 2c be 21 c9 82 be 03 b9 43 3f
       -0.4732388 -0.16893645 -0.25544074 0.7645418
000150 9c 15 85 3e e6 6a 64 3e 64 32 10 bf 1d e7 17 bf
       0.2599305 0.22306404 -0.5632689 -0.59337026
000160 81 4f 8e 3c d8 1c 04 3f 85 06 ac 3e d3 ee 7b 3e
       0.017371895 0.5160651 0.33598724 0.24602823
000170 e2 f3 13 3e df 17 60 be 5f ef f0 be fc ee 94 3f
       0.14448503 -0.21884106 -0.47057626 1.1635432
000180 40 5f 84 3e b6 0c cf 3e b5 26 0f bf 44 52 b3 3e
       0.2585392 0.40439385 -0.5591844 0.350237
000190 02 3d f5 3d 1d 30 52 bf 84 fc 91 3e 61 7c 8e 3e
       0.11974527 -0.82104665 0.28512967 0.2782927
0001a0 2a f9 84 bd 3c b0 b3 3c ce 53 98 3e 5c 14 37 be
       -0.06492837 0.021934621 0.29751438 -0.1787886
0001b0 e4 92 42 3e cb e0 ca 3e f3 92 2d 3f f8 9c 56 bf
       0.19001347 0.39624628 0.6780235 -0.83833265
0001c0 a9 bb 83 3c 51 4b 38 3e f3 d4 df 3e 9e a1 98 bd
       0.016080694 0.17997481 0.43717155 -0.07452701
0001d0 85 42 2a 3f d3 a2 5c 3e d1 19 ed bd 58 28 f6 3e
       0.6650775 0.21546488 -0.1157719 0.48077655

bias f4 [10]
000000 a5 d4 3c 3e 3f d9 b3 bc bb 93 77 bc 88 ee ef bd
       0.18440492 -0.021954177 -0.015110905 -0.11715418
000010 28 81 7f be 46 e7 12 be 03 df 35 3c 03 53 f0 3c
       -0.24951613 -0.14346036 0.011100533 0.029336458
000020 24 55 cd bd 8a c1 7b bd
       -0.10026005 -0.06146387
