project_3/models/MLP_mnist_hog.pt (torch, 5440 bytes, 4 tensors)

weight f4 [12, 36]
0	0x3e027b33	0.1274231
1	0x3e0da79a	0.13833466
2	0xbd1fee16	-0.039045416
3	0x3e1cc6be	0.15310189
4	0xbd159320	-0.036517262
5	0x3d09c17b	0.033631783
6	0xbda62e0b	-0.08114251
7	0x3dc8758b	0.097880445
8	0x3e167333	0.14692383
9	0xbdfa6968	-0.12227136
10	0x3e1457c3	0.14486603
11	0x3cff88eb	0.031193217
12	0x3dfc2e1b	0.123134814
13	0x3cb8e86b	0.022571763
14	0x3da4963e	0.08036469
15	0xbcc0c5d6	-0.023531836
16	0x3e039084	0.12848097
17	0x3cc9cef6	0.02463482
18	0xbd9f5918	-0.07780665
19	0x3d2e02b6	0.042483054
20	0xbd9d43c8	-0.07678944
21	0xbca01dd6	-0.019545477
22	0xbd8aa2a8	-0.067693055
23	0x3de26e3e	0.11056183
24	0xbe06b81c	-0.1315617
25	0xbd9d5bb3	-0.07683506
26	0xbd40c490	-0.047062457
27	0xbdcd3bfe	-0.10021208
28	0x3c80dd4b	0.01573052
29	0xbe28905c	-0.16461319
30	0x3e1a2170	0.15051818
31	0xbe10f9d6	-0.14157805
32	0x3e03c264	0.12867123
33	0x3ce337b6	0.027736526
34	0xbd5daa3b	-0.054117423
35	0x3dd2ed4b	0.10299166
36	0x3dfbf861	0.12303234
37	0xbfd32868	-1.6496706
38	0xbf5da7bf	-0.86584085
39	0x3e22f924	0.15915352
40	0x3f838b50	1.027689
41	0x3e65e603	0.22451024
42	0x3ee0e827	0.43927118
43	0x3f35f49d	0.71076375
44	0x3f2fb44d	0.6863449
45	0x4067d785	3.6225293
46	0x4026b549	2.6048148
47	0xbddaff24	-0.106931955
48	0xbfa551b4	-1.2915559
49	0xc01057df	-2.2553632
50	0xbf66cbfd	-0.9015501
51	0xbf997463	-1.1988643
52	0xbd1ce4c8	-0.03830412
53	0x3f6cc146	0.9248241
54	0x3ee4933a	0.44643575
55	0x3fda8c14	1.7073998
56	0x4018d36c	2.3879042
57	0x3d0504e2	0.03247536
58	0xbf539647	-0.8265118
59	0xbf7ed317	-0.9954085
60	0xc002ce1d	-2.0438302
61	0xbf81fa97	-1.0154599
62	0xbe507588	-0.20357335
63	0x3fc027fc	1.5012202
64	0x3d99e8d7	0.07515114
65	0xc03f299f	-2.9869153
66	0xbf5277c5	-0.82214004
67	0x3f0f30a7	0.5593361
68	0x3e11ef94	0.14251548
69	0xbeb59a5f	-0.35469338
70	0x3ee4f226	0.44715995
71	0x3f48ad8d	0.7838982
72	0x3e243960	0.16037512
73	0xbe0cd8df	-0.13754605
74	0xbe2947bb	-0.16531269
75	0xbe0585ff	-0.13039397
76	0xbde59c78	-0.11211485
77	0x3d8a40f3	0.06750669
78	0x3d74724b	0.05967931
79	0x3e0dcfa4	0.1384874
80	0xbdb045f0	-0.086070895
81	0xbde8b0e3	-0.113618635
82	0x3db51aa0	0.08842969
83	0xbd89f7ee	-0.06736742
84	0x3dcf29d0	0.10115397
85	0xbd21ff4b	-0.039550107
86	0x3dc34223	0.09534099
87	0xbe049a40	-0.12949467
88	0xbdac40f8	-0.08410829
89	0x3d502106	0.050812744
90	0x3d105226	0.035234593
91	0xbd2e0d46	-0.042493127
92	0x3dcb7558	0.09934491
93	0x3de80aa3	0.11330154
94	0xbdf7869e	-0.12086223
95	0xbdb63a1e	-0.08897804
96	0x3e1c45e2	0.15261033
97	0xbd665a9b	-0.05623875
98	0xbd72043b	-0.059086066
99	0xbe2522db	-0.16126578
100	0xbdc378b0	-0.09544504
101	0x3d2a885b	0.041633945
102	0xbcb436f6	-0.021998864
103	0xbdf7c4e3	-0.120981
104	0x3b801ad6	0.003909449
105	0xbde92893	-0.11384692
106	0xbe10cb04	-0.14139944
107	0xbdbbf5a3	-0.09177711
108	0xbfbb0dd6	-1.4613597
109	0xbf0a8162	-0.5410367
110	0xbf0b0e35	-0.54318553
111	0x3ec852e6	0.39125746
112	0x3ed8e060	0.42358685
113	0xbc9b3f43	-0.018951064
114	0x3d560923	0.052254807
115	0xbec844a4	-0.3911487
116	0xbf074a63	-0.5284788
117	0xbfa8bbb4	-1.3182282
118	0xbf92fd65	-1.148358
119	0xbf14c1a8	-0.58107996
120	0x3ebc0af5	0.3672711
121	0x3e8ac7ad	0.27105466
122	0x3ed75dce	0.42063755
123	0x3f8a7b8d	1.0818955
124	0x3e75c5c3	0.24001221
125	0xbeb6dea3	-0.35716733
126	0xbfdbdd13	-1.7176841
127	0xc00b5681	-2.1771548
128	0x3be69b78	0.0070375763
129	0x3fcfae79	1.622512
130	0x40300cf9	2.7507918
131	0x3f6bb618	0.9207473
132	0x3f8bdaa6	1.0926101
133	0x3e8d0b97	0.27547905
134	0xbe9d74bf	-0.30753133
135	0xc03af407	-2.9211442
136	0xbfd06978	-1.6282187
137	0x3f57008d	0.83985215
138	0x3fa02f18	1.2514372
139	0x3ffbfd60	1.9686699
140	0x3f8ad9f7	1.0847768
141	0x3fc220ae	1.5166223
142	0x3c857146	0.016289365
143	0xbf7d0cc8	-0.9884763
144	0xbcebce64	-0.028784938
145	0x3d0e934e	0.03480845
146	0x3db03539	0.086039014
147	0x3e09c746	0.13454923
148	0x3e1b6060	0.15173483
149	0xbe07547f	-0.13215826
150	0x3d2bce0b	0.041944545
151	0xbd92d0fb	-0.07168766
152	0xbc959eab	-0.018264135
153	0xbdff7f72	-0.1247548
154	0x3e1b6fde	0.15179393
155	0xbdfa8593	-0.122325085
156	0x3db66a82	0.089070335
157	0x3d6fa8f9	0.058510754
158	0x3d5dd62b	0.054159325
159	0xbdb88c0a	-0.09011085
160	0x3e1b1fe8	0.1514889
161	0x3d16019a	0.03662262
162	0x3caf9909	0.021435278
163	0xbe16669c	-0.1468758
164	0x3d8f49ae	0.06996475
165	0xbcccd400	-0.025003433
166	0xbd9c5f83	-0.07635405
167	0x3e1297f3	0.14315777
168	0x3d183320	0.03715813
169	0xbdbcda08	-0.09221274
170	0xbdacc318	-0.08435649
171	0xbc02f785	-0.007993584
172	0x3dbe7863	0.09300306
173	0xbd2e8d4e	-0.042615227
174	0xbdc2c198	-0.09509581
175	0xbd69c63b	-0.057073813
176	0xbdff0066	-0.12451248
177	0x3d73760b	0.059438746
178	0x3e041a54	0.12900668
179	0xbe20ac31	-0.15690686
180	0x3d1d4a9e	0.03840124
181	0x3db04415	0.086067356
182	0x3cdda59e	0.027056511
183	0xbd7b060a	-0.061285056
184	0x3dadb178	0.08481115
185	0x3db2da6b	0.08733066
186	0x3d7dcfc5	0.061965723
187	0xbcf1b2cc	-0.029504202
188	0xbd3589c2	-0.04432083
189	0x3c8cd75e	0.017192539
190	0xbcec0d57	-0.028814955
191	0xbd50b9bf	-0.05095839
192	0x3dd4b45a	0.10385962
193	0x3e0c6d31	0.13713528
194	0xbc95c25a	-0.01828115
195	0xbd24dda2	-0.040250428
196	0x3a37a13f	0.00070049235
197	0xbc2fb3dd	-0.010724035
198	0x3d1f32a7	0.038866665
199	0x3d40f371	0.047107164
200	0xbe1bb2e1	-0.15204956
201	0xbd82407b	-0.06359955
202	0x3e0840f7	0.13306032
203	0x3d7e4328	0.062075764
204	0xbc379391	-0.011204616
205	0xbdcff0e2	-0.101533666
206	0xbdd1ddef	-0.102474086
207	0xbe19d9ec	-0.15024537
208	0xbd605d10	-0.05477625
209	0x3d572c9b	0.052532773
210	0x3dd52cd8	0.10408944
211	0x3d9982d4	0.074956566
212	0xbe1779b9	-0.14792527
213	0xbdd04eb2	-0.1017126
214	0xbcdf25b7	-0.027239664
215	0x3e24a814	0.16079742
216	0x3ec95c2d	0.39328137
217	0x3e85bb79	0.26119593
218	0x3f499810	0.78747654
219	0xbecea5a6	-0.40360755
220	0xbf5a2e4e	-0.85226905
221	0xbe0ffafb	-0.14060585
222	0xbe875f98	-0.2644012
223	0x3cc79f9e	0.024368104
224	0xbd82d4fd	-0.063882805
225	0x3fbf4db1	1.4945585
226	0x3f25f9b3	0.64834136
227	0x3e81c02f	0.25341937
228	0xbf93567a	-1.1510766
229	0xbfd43318	-1.6578093
230	0xbecb85a7	-0.39750406
231	0x3ed35677	0.41276905
232	0x3f5193e5	0.81866294
233	0x3f4da5d5	0.80331165
234	0x400cb5ec	2.1986036
235	0x3fbf5b16	1.4949672
236	0x3e4ccb4b	0.19999425
237	0xbf86428f	-1.0489062
238	0xbff1df91	-1.8896352
239	0xbf75d6ac	-0.9603069
240	0xbf0524cb	-0.52009267
241	0x3e423776	0.18966469
242	0x3ee04f6c	0.43810594
243	0x3f3970df	0.7243785
244	0x3ef0326a	0.46913463
245	0x3ec4a112	0.38404137
246	0xbe0a66bf	-0.13515757
247	0xbeebf512	-0.4608541
248	0xbf19d3e2	-0.6008893
249	0xbf8f7401	-1.1207277
250	0xbecb9f6e	-0.39770073
251	0xbd1b20b6	-0.037872992
252	0xbd029d9f	-0.0318886
253	0xbdaa7b21	-0.08324266
254	0xbd5fe6a1	-0.054663304
255	0xbe23a53a	-0.15980998

bias f4 [12]
0	0xbd86f276	-0.065892145
1	0x3f40fe2b	0.7538783
2	0xbe07eb3c	-0.13273329
3	0x3fbc0694	1.4689507
4	0xbd851a04	-0.06499103
5	0xbd5e8aae	-0.054331474
6	0x3f2c12aa	0.6721598
7	0xbd64e1a5	-0.055879254
8	0x3f8c4d69	1.0961124
9	0x3f3504ef	0.70710653
10	0xbd856093	-0.06512561
11	0x3ef554ae	0.47916168

weight f4 [10, 12]
0	0x3e8e1bc1	0.2775555
1	0xc039a622	-2.900765
2	0xbe57a534	-0.21059114
3	0x3eff5317	0.4986808
4	0x3e67a2e3	0.2262073
5	0xbe6189d2	-0.2202523
6	0x40042a58	2.0650845
7	0xbe9271db	-0.2860249
8	0x3ec22135	0.3791596
9	0xbf12617b	-0.57179993
10	0x3d9c4aa9	0.07631428
11	0x3f9c3488	1.2203531
12	0xbda0e7d4	-0.07856718
13	0x40859248	4.1741066
14	0x3d290f1d	0.04127418
15	0xc080f1eb	-4.029531
16	0xbc85e550	-0.016344696
17	0x3d8b4faa	0.06802304
18	0x4017a2cc	2.3693113
19	0xbe51fd07	-0.20506679
20	0xbe1f9576	-0.15584359
21	0xc036958b	-2.8528774
22	0xbe72f675	-0.23726828
23	0xbfa237fd	-1.2673336
24	0x3e8e8a93	0.278401
25	0x4009e0a3	2.1543357
26	0x3e845aa6	0.2585041
27	0x405be423	3.4357994
28	0x3e5f4fa1	0.2180772
29	0xbd1f355d	-0.03886925
30	0xbf42b2e3	-0.7605421
31	0x3e14aeac	0.14519757
32	0xc043aa61	-3.057274
33	0xbf96d623	-1.1784099
34	0xbdbc93c1	-0.09207869
35	0x3dfb88a9	0.12281925
36	0x3e182cf4	0.14860898
37	0xbf93cb10	-1.1546345
38	0xbe2dfb6f	-0.16990446
39	0x40233daa	2.5506387
40	0xbe2e3df0	-0.17015815
41	0xbe403ec0	-0.18773937
42	0xbfeacab9	-1.8343116
43	0xbd45fcf1	-0.048336927
44	0xbfa46ea4	-1.2846265
45	0x40181cdb	2.3767612
46	0x3db03e45	0.08605627
47	0x3f1e297f	0.6178207
48	0x3d882531	0.06647719
49	0x402ff848	2.749529
50	0xbcabffe8	-0.020996049
51	0xbf931340	-1.149025
52	0x3ddcc45f	0.10779642
53	0x3e892925	0.26789203
54	0x3e2300de	0.159183
55	0xbdfc0cfb	-0.12307163
56	0x3f9f589f	1.244892
57	0xbf9f0bc8	-1.242547
58	0x3d480d82	0.048841007
59	0xc0025683	-2.0365303
60	0x3e6727b7	0.22573744
61	0xc07bed9f	-3.9363782
62	0xbe598b37	-0.21244512
63	0x400b762f	2.1790884
64	0xbd81e628	-0.06342727
65	0xbd49352a	-0.049122967
66	0xc058c375	-3.3869298
67	0xbe850e79	-0.25987604
68	0x3fa199b4	1.2625031
69	0x40043d02	2.0662236
70	0xbe3b7315	-0.18305619
71	0xbf7b84b7	-0.9824938
72	0x3e80c852	0.25152832
73	0xc02509b3	-2.578717
74	0x3e5efe4b	0.21776693
75	0x3ee9771b	0.45598683
76	0xbd09856d	-0.03357451
77	0x3e395193	0.18097524
78	0x3f0c30ec	0.5476215
79	0x3e3800ba	0.17969027
80	0x404e050c	3.219058
81	0xc08a63c1	-4.324677
82	0x3de2c8f6	0.110734865
83	0xbfae7337	-1.3628911
84	0x3d7e3b93	0.062068533
85	0x3fdb18b4	1.7116914
86	0x3da1b69d	0.07896159
87	0xc0202982	-2.5025334
88	0xbd173089	-0.03691152
89	0x3e8bff91	0.2734342
90	0x3f494b81	0.78630835
91	0xbc361c50	-0.011115149
92	0xc036e01b	-2.8574283
93	0x403671ba	2.8506913
94	0xbe496655	-0.19667943
95	0x4079f1e8	3.9053898
96	0xbe337501	-0.17525102
97	0x3e38a2cc	0.18030852
98	0xbd8336c8	-0.06406933
99	0x3f0c2f57	0.54759735
100	0x3e8b1597	0.2716491
101	0x3cda9e30	0.026686758
102	0x3d61dd14	0.055142477
103	0x3e65df3d	0.2244844
104	0x3f4105f2	0.75399697
105	0xbf4992ed	-0.78739816
106	0xbd84b27b	-0.06479355
107	0xbde57862	-0.11204602
108	0xbda1523a	-0.078770116
109	0xbdf3a20a	-0.11896141
110	0xbd8128d9	-0.06306619
111	0xc00a4df2	-2.1610074
112	0x3df0a39b	0.11749955
113	0x3d302dc9	0.043012414
114	0x3ef69846	0.4816305
115	0x3e91fbc2	0.28512388
116	0x3f5e730d	0.86894304
117	0x404f03e5	3.2346127
118	0x3c72f315	0.014828463
119	0x3de9435e	0.113898024

bias f4 [10]
0	0x3e5b6426	0.21424922
1	0xbed1ae4d	-0.40953293
2	0xbf2528c3	-0.6451532
3	0xbf993873	-1.1970352
4	0x3d8ffa7c	0.07030198
5	0xbf03b747	-0.51451534
6	0x3f231aa9	0.63712555
7	0xbda26457	-0.079292946
8	0x3e71a07b	0.23596375
9	0xbe18e6e1	-0.14931823
