project_3/models/MLP_iris.pt (torch, 3528 bytes, 4 tensors)

weight f4 [7, 4]
0	0xbecdbb7b	-0.401821
1	0x3f343161	0.70387846
2	0xbf8c1eb7	-1.0946873
3	0xbefc026b	-0.49220595
4	0xbde05cb0	-0.10955179
5	0x3dcea238	0.100895345
6	0xbe794510	-0.24342752
7	0x3e965828	0.29364133
8	0x3f2801c9	0.65627724
9	0xbefb5541	-0.4908848
10	0x3e954720	0.29155827
11	0xbe891cee	-0.26779884
12	0x3ea94066	0.33056945
13	0x3d69d120	0.057084203
14	0x3e5f3f66	0.21801528
15	0xbdc174b3	-0.09446087
16	0x3eca7b11	0.39547017
17	0xbf39ee01	-0.7262879
18	0x3f954d7c	1.1664271
19	0x3fe6541f	1.7994422
20	0xbecf7bda	-0.4052418
21	0x3e0a65ec	0.13515443
22	0xbf007bfc	-0.50189185
23	0x3d3a24dd	0.04544531
24	0xbf023407	-0.5086064
25	0xbea26655	-0.31718698
26	0xbe96d25c	-0.29457366
27	0xbef96dac	-0.48716486

bias f4 [7]
0	0x3edf817b	0.43653473
1	0xbefcd88a	-0.49383956
2	0x3fd3c1c7	1.6543511
3	0xbee809cc	-0.45319974
4	0xbd449716	-0.04799565
5	0x3e1bfe2c	0.15233678
6	0x3dea6b54	0.114462525

weight f4 [3, 7]
0	0x3f94b6d0	1.161829
1	0x3d714778	0.05890605
2	0xbf59addc	-0.85030913
3	0x3c7942c7	0.015213675
4	0xbf6d2e3a	-0.9264866
5	0x3efeca11	0.4976354
6	0x3f07d3f8	0.53057814
7	0xbf1a7c0a	-0.6034552
8	0x3eacc6e9	0.33745506
9	0x3fbf158f	1.4928454
10	0xbe9306c8	-0.2871611
11	0xbf1eb400	-0.6199341
12	0xbde6a526	-0.11261968
13	0x3daef2ba	0.0854239
14	0xbecacf33	-0.39611205
15	0xbebf909e	-0.37415022
16	0xbe8786b2	-0.26469952
17	0xbe114817	-0.14187656
18	0x3ffa4f30	1.9555416
19	0xbddb12d7	-0.10696953
20	0xbebd703a	-0.36999685

bias f4 [3]
0	0x3eecca8e	0.46248287
1	0x3f5e7b19	0.8690658
2	0xbf6c3bf7	-0.92279
