project_3/models/MLP_mnist_flattened.pt (torch, 66864 bytes, 4 tensors)

weight f4 [20, 784]
0.021941762 0.024279933 -0.01373002 0.027444344 -0.013188284 0.0018436699 -0.022750927 0.015611254
0.026120475 -0.03156409 0.025679514 0.0013211324 0.020884918 -0.00078410195 0.011907075 -0.01040361
0.022168439 -8.422952e-05 -0.022036051 0.0037403782 -0.021818101 -0.00955142 -0.019868856 0.018328693
-0.03355486 -0.021827865 -0.015448009 -0.026837267 -0.0019922585 -0.04063732 0.026890695 -0.03570122
0.022208128 0.0005700296 -0.017704794 0.015082816 -0.001624239 0.021841196 -0.0037712909 -0.01895251
0.0004577188 -0.018110929 0.006121812 0.02483224 0.021930773 -0.020401083 0.011228809 -0.0027266664
0.010834908 -0.027742164 -0.040941045 -0.019238632 -0.032756746 0.023941707 0.004923723 0.009430193
0.005931935 -0.0059843357 0.022586938 -0.03062985 -0.0031239954 -0.029796395 0.0036108145 -0.021946449
0.003289742 -0.008527562 0.02235937 -0.028076435 -0.027754286 -0.0394397 0.014530802 -0.013534462
0.014543946 -0.05029192 -0.06182887 -0.059403818 -0.04585503 -0.0028360388 -0.0008923357 0.02109926
-0.022125136 -0.027807998 0.013586072 -0.019799076 0.01631273 -0.013838205 0.015051727 -0.032869935
-0.023714349 0.007848427 0.0031108465 -0.010459967 0.03252433 0.06111168 0.032246906 0.06098926
0.113002814 0.067598596 0.08356509 0.044016697 0.04748841 0.07415219 0.023382047 -0.017852673
0.012354815 -0.03600736 -0.05589541 -0.044168588 -0.040704105 -0.025097992 0.030685386 0.00138241
0.0056426045 -0.038672425 -0.028858494 -0.016563486 -0.00037604404 -0.025537511 0.0023117433 -0.004117427
0.028019555 0.050949223 0.06825794 0.0753442 0.06299738 0.04084274 0.038579058 0.03462222
0.081463724 0.03753703 0.085975006 0.031106846 -0.043112908 -0.0045559146 -0.030429304 -0.032223266
-0.028697891 -0.035388697 0.0055110455 -0.013361248 0.008541273 -0.034672476 0.021234684 -0.026535284
-0.0032629468 0.025835939 0.04496163 0.06797424 0.102305815 0.03539395 0.08977574 0.052316044
0.049394708 0.0066440837 0.032948982 -0.030760271 0.04821461 0.002295395 0.052165296 0.0075357812
0.03782834 -0.006073785 0.011477223 -0.029415874 0.016529208 -0.005080156 -0.021177191 0.02495413
0.0025993139 -0.025084123 -0.02092481 0.005262648 0.03817661 0.040274493 0.03378025 0.03839109
0.045384876 0.10374323 0.13811484 0.018643681 0.037271317 0.06460244 0.023437522 -0.07158336
-0.01269067 -0.030812427 0.0007848633 -0.014388112 -0.0042420686 0.02898932 0.026186224 -0.016009925
0.024627982 0.027534744 -0.0055783144 -0.012765608 -0.0048412583 -0.005620623 0.007257227 0.023004016
0.011036128 0.054681096 0.09383612 0.046626773 0.041719355 0.05060723 0.036995426 0.057556182
0.037830163 0.092126556 0.12110841 0.015058172 -0.026770681 -0.010773101 0.040194795 0.08785951
0.032033063 0.005695028 0.06474316 -0.0074348496 -0.028190276 0.038007047 -0.015507221 -0.011958173
-0.039744876 0.019939344 0.02696687 0.03134234 0.023731304 0.004240502 -0.030486533 0.022627626
0.01227118 0.028103217 0.04910587 0.037046675 0.029581478 -0.0029177482 0.06631907 0.045458876
0.064031735 0.03515844 0.058778647 0.07764291 0.04782185 -0.015663033 0.020391528 0.03417764
-0.021338012 0.03618298 -0.013306769 -0.03268282 -0.011591919 -0.02121912 -0.009863186 -0.013613748
00000000: 36bf b33c b6e6 c63c e1f3 60bc f6d2 e03c
00000010: ac13 58bc 4ca7 f13a 2760 babc 58c6 7f3c
00000020: 9bfa d53c 5949 01bd d85d d23c d929 ad3a
00000030: d916 ab3c 318c 4dba e415 433c e773 2abc
00000040: 969a b53c 61a4 b0b8 f384 b4bc 2221 753b
00000050: e0bb b2bc 8f7d 1cbc 03c4 a2bc 0e26 963c
00000060: d270 09bd 5ad0 b2bc a519 7dbc d4d9 dbbc
00000070: 8d90 02bb 5273 26bd e049 dc3c 713b 12bd
00000080: d2ed b53c 0a6e 153a a509 91bc ea1d 773c
00000090: 6be4 d4ba 4fec b23c c327 77bb 4b42 9bbc
000000a0: faf9 ef39 5f5d 94bc 7b99 c83b fb6c cb3c
000000b0: 2aa8 b33c 2c20 a7bc 0af9 373c dfb1 32bb
000000c0: e684 313c 8943 e3bc ccb1 27bd 569a 9dbc
000000d0: f02b 06bd 6621 c43c 2f57 a13b 1981 1a3c
000000e0: ad60 c23b 3f18 c4bb 3e08 b93c 74eb fabc
000000f0: f2bb 4cbb 9217 f4bc 6aa3 6c3b 0ac9 b3bc
00000100: b698 573b 30b7 0bbc ff2a b73c 8d00 e6bc
00000110: f55c e3bc 868b 21bd 9a12 6e3c a6bf 5dbc
00000120: bb49 6e3c e6fe 4dbd 4540 7dbd 6b51 73bd
00000130: 7cd2 3bbd d6dc 39bb a3eb 69ba 5bd8 ac3c
00000140: c63f b5bc 99cd e3bc 1e98 5e3c ac31 a2bc
00000150: 46a2 853c a3b9 62bc 859b 763c a0a2 06bd
00000160: 9844 c2bc b096 003c 58df 4b3b 4860 2bbc
00000170: 3b38 053d 3e50 7a3d 5515 043d e0cf 793d
00000180: 056e e73d 2271 8a3d 2d24 ab3d da4a 343d
00000190: 3583 423d 1add 973d b58b bf3c c53f 92bc
000001a0: da6b 4a3c 747c 13bd 96f2 64bd 1fea 34bd
000001b0: 59b9 26bd 4e9a cdbc eb5f fb3c fb31 b53a
000001c0: 99e5 b83b fa66 1ebd a668 ecbc 26b0 87bc
000001d0: c727 c5b9 0b34 d1bc 9e80 173b 7beb 86bb
000001e0: 4489 e53c 22b0 503d d2ca 8b3d 0f4e 9a3d
000001f0: c504 813d b84a 273d 1305 1e3d 07d0 0d3d
00000200: 74d6 a63d 6ec0 193d aa13 b03d c9d3 fe3c
00000210: 2997 30bd c849 95bb e046 f9bc 8bfc 03bd
00000220: d717 ebbc bdf3 10bd 0096 b43b 23e9 5abc
00000230: b2f0 0b3c ba04 0ebd 5cf4 ad3c 8660 d9bc
00000240: 2ad7 55bb e4a5 d33c b029 383d 1436 8b3d
00000250: b685 d13d 3ff9 103d 58dc b73d 5949 563d
00000260: 1b52 4a3d 9db6 d93b 83f5 063d f7fc fbbc
00000270: af7c 453d 566e 163b 47ab 553d b7ee f63b
00000280: e4f1 1a3d 9a06 c7bb f60a 3c3c 8ff9 f0bc
00000290: 4368 873c 7077 a6bb ca7b adbc 9b6c cc3c
000002a0: 4059 2a3b 387d cdbc 826a abbc 4b72 ac3b
000002b0: 145f 1c3d def6 243d 295d 0a3d fa3f 1d3d
000002c0: 7ee5 393d 5577 d43d fa6d 0d3e a2ba 983c
000002d0: cfa9 183d 494e 843d 0c00 c03c 4c9a 92bd
000002e0: 87ec 4fbc 586a fcbc 49bf 4d3a 1ebc 6bbc
000002f0: 0d01 8bbb 037b ed3c 7e84 d63c 3f27 83bc
00000300: 9fc0 c93c 8b90 e13c 4bca b6bb d726 51bc
00000310: 6ba3 9ebb 342d b8bb 08ce ed3b eb72 bc3c
00000320: e0d0 343c 49f9 5f3d 272d c03d b7fb 3e3d
00000330: eae1 2a3d 8749 4f3d 8488 173d 08c0 6b3d
00000340: cdf3 1a3d d9ac bc3d b007 f83d 8db6 763c
00000350: 304e dbbc a981 30bc 4ca3 243d b0ef b33d
00000360: 1a35 033d 5c9d ba3b 1098 843d 0aa0 f3bb
00000370: 4bef e6bc 47ad 1b3d 0012 7ebc 36ec 43bc
00000380: 86cb 22bd d657 a33c a0e9 dc3c d360 003d
00000390: 2768 c23c e9f3 8a3b e5be f9bc 925d b93c
000003a0: 0f0d 493c b838 e63c 3d23 493d 41be 173d
000003b0: db54 f23c b137 3fbb 4bd2 873d 1633 3a3d
000003c0: 1223 833d 4c02 103d e1c1 703d 3f03 9f3d
000003d0: d8e0 433d c34f 80bc 220c a73c dafd 0b3d
000003e0: 0ecd aebc 9b34 143d a204 5abc 6cde 05bd
000003f0: 08ec 3dbc b8d3 adbc 3399 21bc 330c 5fbc

bias f4 [20]
0.004627647 -0.00096492795 -0.007421593 0.015475904 -0.00015818198 0.0060479674 0.038898077 -0.02693508
-0.038821414 0.0038903572 -0.004231339 0.013522477 -0.027768165 0.036297098 -0.0052035884 0.028173495
-0.01557621 0.016245838 -0.0034435478 -0.0076349876
00000000: 84a3 973b 38f3 7cba d630 f3bb a58e 7d3c
00000010: a7dd 25b9 072e c63b 9753 1f3d f5a6 dcbc
00000020: 3403 1fbd 5df5 7e3b 0ba7 8abb 618d 5d3c
00000030: 107a e3bc 44ac 143d dd82 aabb 1acc e63c
00000040: 5c33 7fbc fe15 853c 25ad 61bb eb2e fabb

weight f4 [10, 20]
0.23209618 0.065123744 0.19711016 -0.17461884 -0.121829025 -0.18666449 0.28712457 -0.32644215
0.20373002 0.19618112 0.36181125 -0.45095205 -0.47338653 -0.23435366 -0.44369704 0.30543455
0.44715536 0.3098831 0.12601958 0.7058214 -0.49211788 -0.3083292 -0.16204043 0.0923982
-0.1584641 -0.68589157 0.036968257 0.78074586 0.737838 0.1321248 0.021410517 0.5057085
0.13386914 -0.59641415 0.27553847 -0.5360519 -0.055356044 -0.26631236 -0.08758299 -0.17246257
0.5928771 1.0180235 -0.4384972 0.7151184 0.0718358 0.12313759 -0.23885153 -0.01685035
-0.264777 -0.9221876 -0.25772887 0.6994651 -0.5605521 0.10815019 -0.6331201 0.40858772
0.30259517 0.050304726 0.28022045 0.07118952 0.5674826 -0.20052642 -0.57447845 -0.3041924
0.46183407 -0.2629857 -0.25433135 -0.07032848 0.41152903 -0.090330735 0.22833069 0.08183161
0.42777553 -0.532138 0.5203512 0.53051656 -0.31009683 0.23532976 0.14085758 -0.17240179
-0.021080317 -0.21947253 0.56901103 -0.15756856 -0.4854797 0.075287685 -0.63046044 -0.47098768
0.50039995 0.12700796 -0.20828064 -0.32685632 0.67511874 0.31065708 0.3168219 -0.84224176
0.33396792 -0.49710757 0.002061185 -0.0054760086 0.2760583 -0.017829606 0.5907443 -1.1005324
0.32246342 -0.25908306 0.16256796 0.44035187 -0.7690154 0.2157728 0.27401572 -0.011958206
-0.11230255 0.6629103 0.5916677 0.28874257 -0.6839376 -0.36416358 -0.9790526 -0.3199094
-0.18757433 -0.10004531 0.3428974 0.086445294 -0.12994869 0.47030345 0.20473628 -0.7304201
0.05010953 0.48841578 0.17678282 0.7362455 -0.39850378 -0.12757361 -0.6544974 -0.7876533
-0.5417423 0.13198164 -0.43828246 0.38792944 0.43704358 -0.022334661 -0.24708945 0.43647987
-0.11991372 0.65915966 -0.15526503 0.43446052 0.22952756 -0.034876745 0.77757597 -0.40894675
0.2344811 -0.49569246 -0.89543784 0.41267258 0.3908781 -0.1429069 -0.25247288 -0.4753086
-0.57758534 -0.29793286 0.5298506 0.29200518 0.4586147 -0.8902251 -0.013045925 -0.17436701
-0.58689594 0.40687743 -0.7464466 0.085865684 -0.2904538 0.6046505 0.14004032 0.13208866
0.34070083 0.12108989 0.41253126 -0.2045201 -0.6302137 -0.60002625 -0.7190857 0.22970021
0.11755287 0.23231824 0.538213 -0.18482235 -0.13230099 -0.09111677 -0.7995187 -0.87588143
0.41537014 0.31854576 0.60018766 -0.28853202 0.10647195 0.45840243 0.113856636 0.0050571742
00000000: 9faa 6d3e 995f 853d 3fd7 493e 48cf 32be
00000010: 7f81 f9bd fa24 3fbe fe01 933e 6d23 a7be
00000020: 9a9e 503e b4e3 483e 533f b93e 30e3 e6be
00000030: b85f f2be 68fa 6fbe 422c e3be eb61 9c3e
00000040: 8cf1 e43e ffa8 9e3e 470b 013e b6b0 343f
00000050: e0f6 fbbe 53dd 9dbe eded 25be 443b bd3d
00000060: 6a44 22be 9796 2fbf 076c 173d f6de 473f
00000070: f3e2 3c3f b94b 073e 1c65 af3c 1d76 013f
00000080: fe14 093e 99ae 18bf 6113 8d3e b33a 09bf
00000090: 05bd 62bd 185a 88be b65e b3bd 079a 30be
000000a0: cbc6 173f 984e 823f b482 e0be 0012 373f
000000b0: a61e 933d 902f fc3d 7f95 74be bf09 8abc
000000c0: da90 87be 7d14 6cbf 0af5 83be 2510 333f
000000d0: 5880 0fbf d97d dd3d 2914 22bf 6932 d13e
000000e0: c1ed 9a3e 540c 4e3d 0e79 8f3e d0cb 913d
000000f0: 8a46 113f cc56 4dbe 0511 13bf 1bbf 9bbe
00000100: 8475 ec3e 10a6 86be b837 82be 6108 90bd
00000110: efb3 d23e 52ff b8bd 85cf 693e 5597 a73d
00000120: 6505 db3e 323a 08bf bc35 053f efcf 073f
00000130: 03c5 9ebe 49fa 703e f83c 103e 188a 30be
00000140: a1b0 acbc 68bd 60be b5aa 113f a759 21be
00000150: cc90 f8be 6e30 9a3d db65 21bf 4c25 f1be
00000160: 361a 003f 600e 023e 8547 55be b659 a7be
00000170: 95d4 2c3f 720e 9f3e 7b36 a23e 289d 57bf
00000180: d8fd aa3e e284 febe f214 073b 1770 b3bb
00000190: 8357 8d3e 650f 92bc 053b 173f 3fde 8cbf
000001a0: ed19 a53e 89a6 84be 3778 263e cd75 e13e
000001b0: 31de 44bf 8bf3 5c3e ca4b 8c3e 5aec 43bc
000001c0: e1fe e5bd 7db4 293f 8977 173f 11d6 933e
000001d0: 8916 2fbf a673 babe 31a3 7abf 2acb a3be
000001e0: 7c13 40be 8ee4 ccbd 3f90 af3e 3b0a b13d
000001f0: 4511 05be 9dcb f03e 63a6 513e d0fc 3abf
00000200: a73f 4d3d a211 fa3e 8e06 353e 967a 3c3f
00000210: b008 ccbe a8a2 02be 248d 27bf a6a3 49bf
00000220: a0af 0abf 3226 073e 8f66 e0be b09e c63e
00000230: 2dc4 df3e 2ef7 b6bc 0405 7dbe 4a7a df3e
00000240: 5395 f5bd b0be 283f ccfd 1ebe 9c71 de3e
00000250: 4609 6b3e ebda 0ebd 380f 473f 7861 d1be
00000260: d01b 703e 67cb fdbe 6a3b 65bf d249 d33e
00000270: 2d21 c83e 3056 12be 2044 81be a65b f3be
00000280: a2dc 13bf a88a 98be 4aa4 073f b481 953e
00000290: 8ccf ea3e cbe5 63bf 93be 55bc 448d 32be
000002a0: d03e 16bf 3d52 d03e 2017 3fbf 59da af3d
000002b0: 5cb6 94be 60ca 1a3f bb66 0f3e 4042 073e
000002c0: 5770 ae3e fafd f73d 4c37 d33e b86d 51be
000002d0: af55 21bf 529b 19bf 0016 38bf 8836 6b3e
000002e0: 8fbf f03d d5e4 6d3e 54c8 093f 1242 3dbe
000002f0: e979 07be 6e9b babd 42ad 4cbf c439 60bf
00000300: 65ab d43e 6e18 a33e e6a5 193f 78ba 93be
00000310: f70d da3d b9b3 ea3e ab2d e93d a7b6 a53b

bias f4 [10]
-0.05931894 0.14313686 -0.15132497 -0.067870185 -0.063887216 0.013538253 0.038572792 0.13789348
0.12220216 0.019213384
00000000: 6bf8 72bd 7892 123e eff4 1abe 86ff 8abd
00000010: 4dd7 82bd 8ccf 5d3c 81fe 1d3d f333 0d3e
00000020: 2045 fa3d 6365 9d3c
