project_3/models/MLP_mnist_lbp.pt (torch, 105024 bytes, 4 tensors)

weight f4 [32, 784]
00000000: a2ae df3c 2ed6 f23c 3815 09bc 3561 063d
00000010: f834 00bc 2027 ec3b 9c70 8ebc 78d2 ab3c
00000020: 07f5 003d 7ea3 d6bc 4e4d fe3c a807 db3b
00000030: 8627 d83c 107e 9e3b 1013 8d3c dc3b a5bb
00000040: 068a e13c 88fa ac3b 8395 88bc e426 153c
00000050: 63cc 86bc 283e 89bb 20a9 6dbc 5a15 c23c
00000060: 7af2 e6bc e3e0 86bc c63a 25bc 48ea afbc
00000070: 10e9 5c3b bd7b 10bd a91c 043d b887 f8bc
00000080: 86df e13c 08c2 c23b a0ff 3dbc 66cb b43c
00000090: d063 b63b 1263 ec3c e0de 7f3b d289 38bc
000000a0: e437 1d3c c0ad 1ebc 0443 763c 6d9b 023d
000000b0: ac1f a93c f4ce 7fbc 22e4 a83c 1065 d13b
000000c0: fa93 943c e352 b2bc 3acf 10bd 7c13 62bc
000000d0: b368 e0bc f610 f03c 1c8a 283c c45f 723c
000000e0: d80e 393c c0dd 22ba 06f8 e43c 40e0 cfbc
000000f0: 005f 133b 18b1 c7bc 146e 343c 4a83 49bc
00000100: 1c4c 333c b0d1 f3bb 06a8 f23c 5c68 adbc
00000110: 307d aebc e37f aebc 5d93 033d e0ff 423c
00000120: 77c3 0c3d c873 f1bc ea18 11bd b5e5 e4bc
00000130: 43cf c4bc a001 6d3c 8886 513c d21a f33c
00000140: 6017 97bc 0c73 c7bc 663b 9b3c 7284 6cbc
00000150: 8e91 b13c d2da 0abc 425d a73c 9351 e3bc
00000160: 67a5 93bc 7465 323c 4068 f73b f22f 15bc
00000170: 9664 ae3c 8ce4 c63c 3e2a d4bc d031 9cbc
00000180: c1f2 053d 3c72 45bc 5871 4fbc 978b 0dbd
00000190: 058c a7bc bc2b 123c 4078 9abb 9e5f d4bc
000001a0: c09b 5b3a a3d9 c7bc 7537 f8bc b01b a1bc
000001b0: f207 00bd 984a babc 7f3a 123d a809 dd3b
000001c0: 4451 343c 3b70 08bd 3c27 c0bc aac4 42bc
000001d0: b8ff b63b 4db8 00bd 4e1f 7cbc 4027 afbc
000001e0: 0090 cf38 cabb 59bc 1031 22bb 4e41 c6bc
000001f0: d3d1 c8bc ccaf aabc fc4a 48bc caeb e6bc
00000200: f64f f53c 7842 e8bb 3eba fb3c f051 363c
00000210: a5bf f7bc 4078 ca3c c0ff 20bc ee4c 60bc
00000220: dcda f2bc 776e 11bd 646a 273c 48a4 ffbb
00000230: 44cf 633c 4a1a f0bc ac36 d93c 5ec3 d6bc
00000240: c013 cabb f06f f43b 600a 973c 2a32 ec3c
00000250: a542 053d 83fc e7bc e442 133c 66af 7bbc
00000260: d83e 80bb a0fc dabc e13e 053d a3bb d6bc
00000270: 7c5d 9c3c 74a4 4d3c 4825 3e3c 7a2d 9ebc
00000280: 75f7 043d dc95 003c b08b 963b 3dea 00bd
00000290: e0a2 753c 2491 afbb ba08 86bc a24d fb3c
000002a0: f874 023c 75df a1bc f014 94bc 208d dfba
000002b0: 4e5c a33c 1886 15bc 15ef a6bc c660 48bc
000002c0: a092 dabc 54ae 503c 4a76 e23c 23b8 09bd
000002d0: 5ce6 073c d823 973c 0835 d43b 4062 50bc
000002e0: 92b4 983c 0ac0 993c 04cd 5a3c f0a4 cdbb
000002f0: 52f2 1abc 8065 7a3b 5cbc cebb 8a5f 2ebc
00000300: 8003 bb3c 8e6f fb3c e0b5 67bb fc02 03bc
00000310: 009e 083a 60c0 0bbb c8ac 0c3c 08fa 233c
00000320: 70dd 04bd 98f0 57bc 0e62 f63c 00f2 633c
00000330: 20d4 e8ba 9c64 b0bc 28ff b2bc b409 03bd
00000340: 0ebc 3ebc f09a 453c c68c ba3c 5814 873c
00000350: f34e 01bd 05f1 afbc c8b0 b8bb 6982 0d3d
00000360: 684a a93b ee88 17bc 2015 723c c0de 5ebc
00000370: 585e bdbc 4e8b d53c 6308 85bc 789a eabb
00000380: 9286 11bd 3acf c33c 8aa9 dd3c 1841 553c
00000390: a500 ccbc 0e60 10bd d19e edbc ac2b da3c
000003a0: 1a77 8c3c 3e33 f63c f644 993c 5818 143c
000003b0: 005d b7b9 9a80 debc c5aa fabc 02d4 08bd
000003c0: 0489 6f3c aaa4 8fbc e485 ebbb 5c60 a8bc
000003d0: f040 d5bb 08ec cdbc b82b bfbc 2419 423c
000003e0: 00e7 2dbc f29d b43c 0eb8 3bbc ee9e d6bc
000003f0: e47b cebb c0d2 8dbc 0005 33bc 6c43 0bbd
0.027304951 0.029643144 -0.008366875 0.032807548 -0.007825129 0.0072068125 -0.01738768 0.020974383
0.031483676 -0.026201006 0.031042721 0.0066842623 0.026386034 0.004836805 0.017221004 -0.005042536
0.027531635 0.005278889 -0.016672855 0.0091035105 -0.016454881 -0.004188318 -0.014505655 0.023691822
-0.028191794 -0.016464656 -0.010084813 -0.021474019 0.0033708252 -0.035274256 0.032253895 -0.030338153
0.027572405 0.0059435405 -0.01159659 0.022069644 0.005566098 0.028855834 0.0039042756 -0.011263328
0.009595845 -0.00968498 0.015030626 0.031886507 0.020644985 -0.015613306 0.020616595 0.0063902214
0.018136967 -0.02176804 -0.035353877 -0.013798591 -0.027393674 0.029304963 0.010286834 0.01479334
0.011295043 -0.0006212853 0.027950298 -0.025375485 0.0022487044 -0.024376437 0.011012573 -0.012299368
0.010943439 -0.007440768 0.029621135 -0.021167926 -0.021299928 -0.021301216 0.03212296 0.011901826
0.034366097 -0.029474154 -0.03542415 -0.027941564 -0.024024611 0.014465719 0.012788422 0.029675875
-0.018443763 -0.02434685 0.018949222 -0.014435874 0.021675851 -0.008475022 0.020430211 -0.027748859
-0.018023206 0.010888446 0.0075502694 -0.009105669 0.021288197 0.024278902 -0.025899049 -0.019066721
0.03270221 -0.012051161 -0.012661301 -0.03455695 -0.020452509 0.00892156 -0.004714042 -0.0259245
0.00083773956 -0.02439577 -0.030299881 -0.019666523 -0.031257577 -0.022740647 0.035700317 0.006745536
0.011005703 -0.033310156 -0.023456208 -0.011887709 0.0055846833 -0.031425763 -0.015388323 -0.02138102
9.897351e-05 -0.013289401 -0.0024748482 -0.024201062 -0.024514114 -0.02083578 -0.012224909 -0.028188605
0.029945355 -0.007088002 0.030728456 0.011127934 -0.03024275 0.024715543 -0.009826601 -0.0136902165
-0.029645376 -0.035505738 0.010218237 -0.0078015663 0.013904396 -0.02930941 0.026515327 -0.026216205
-0.006166905 0.007459633 0.018437564 0.028832514 0.03253426 -0.02831865 0.008988116 -0.015361642
-0.0039137416 -0.02673179 0.03253067 -0.026212519 0.019087546 0.012551416 0.011605568 -0.019308794
0.032462556 0.007848229 0.0045942888 -0.031473387 0.014992446 -0.0053578783 -0.016361583 0.030676667
0.007962458 -0.019759873 -0.01807639 -0.0017055608 0.019941475 -0.009126209 -0.020377675 -0.012230104
-0.026681244 0.012736876 0.027644295 -0.033622872 0.008294668 0.018449709 0.0064760484 -0.012718737
0.01864079 0.01876833 0.013354544 -0.0062757656 -0.009457188 0.0038207471 -0.0063090753 -0.0106428955
0.022828817 0.030692842 -0.0035356209 -0.007996317 0.0005211532 -0.0021324381 0.008586116 0.010008343
-0.03243774 -0.013179921 0.030076053 0.013912678 -0.0017763413 -0.02153235 -0.021850184 -0.031991675
-0.011641515 0.012060866 0.022772204 0.016489193 -0.031569432 -0.021477232 -0.0056363083 0.034548197
0.0051663406 -0.009248955 0.014775544 -0.013602912 -0.023116276 0.026067402 -0.01623935 -0.0071595274
-0.035528727 0.023902524 0.027058382 0.013016008 -0.024902651 -0.035247855 -0.029006394 0.026632152
0.017146636 0.030053731 0.018709641 0.009039007 -0.0003497377 -0.027160931 -0.030599007 -0.03340531
0.014620069 -0.017534573 -0.007187592 -0.02055376 -0.0065079853 -0.025136963 -0.023336276 0.011846814
-0.010614157 0.02204797 -0.011457456 -0.02619883 -0.00630139 -0.017312407 -0.010926485 -0.033999845

bias f4 [32]
00000000: b027 843c cf3f d23c fd24 c83c dcbd 913c
00000010: 73ae 0abd b91f afbb ac85 01bd e8d6 c03b
00000020: 87b9 d73c 27b8 0abd b831 363b 3c54 9c3c
00000030: 3a85 0f3c f6a3 fc3c 7168 d2bb 40b1 18ba
00000040: 66f9 f3bc 935c 7e3b bd81 af3b 171e 023d
00000050: 9ac5 4a3d b595 683c 499e ff3c e83c 863b
00000060: aa4c c63c 776f dd3c df3f 13bd c0a7 033d
00000070: ef7e 373b b762 a2bc 9852 d8bc 7320 aa3c
0.016132206 0.025665192 0.0244317 0.017790727 -0.033857774 -0.005344358 -0.03162162 0.005884994
0.026333584 -0.033867028 0.002780063 0.019083135 0.008759791 0.030839901 -0.006421142 -0.0005824752
-0.029782008 0.0038812503 0.005356042 0.031766977 0.049504854 0.014195849 0.031203406 0.004096616
0.024206478 0.02703069 -0.035949584 0.0321424 0.0027999242 -0.019822462 -0.026406571 0.020767426

weight f4 [10, 32]
00000000: 8dec 80bd 673d 4d3f c42e 753d 17b7 05be
00000010: dc29 263d 1b53 cebd 435b 473f 3e24 e93e
00000020: 1f08 163f 02bf 9d3d e125 e03d dfb9 71be
00000030: 66b1 29be e5c2 34be 0d71 bcbd d8a5 a73c
00000040: 51a4 043e c707 fbbb 4b5b 6bbe fa47 803e
00000050: 3e7c 803b d32f cebe fd86 9f3d 9ca0 373d
00000060: fab0 14be e146 fbbd 703e ddbe 5e48 d13e
00000070: d791 42bf 4721 f9bc 5de1 23bf 7897 ba3e
00000080: 15d0 1d3e db3b 6cbf ee2f 693d 9968 5a3e
00000090: ea40 99bd 9b2e b43b 9f60 0f3f 665c 1bbf
000000a0: 23d1 3ebf cf64 093e 2ff0 b5be 16ac f63e
000000b0: 6e76 cf3d 009c 6f3c c9fc 653c 7038 f2bd
000000c0: aa5a e4bc 95b2 f9be de5c f0bd e5bc a3bd
000000d0: b9f4 afbc 629c 28be c8f8 003e e821 523d
000000e0: 1883 713d 6ea2 6b3e 9f8d a93e 9ad3 dc3e
000000f0: 7b9b 7f3e 3bcf 5abd 582a 633e dc27 fbbe
00000100: 1495 bbbd ba3b 803f 4c6d 323e 035b 55be
00000110: 13a4 9dbd 053f c73d 8c3a 98be 98ca 8cbe
00000120: eb9b 2cbf 3b4c abbd 5100 eebe e3ed 243f
00000130: 3c4e 393d 9090 c7bd c21a bd3d 273f a0bd
00000140: f6fa 31be 17f8 0d3e 8e38 eb3d 015c 25be
00000150: 3992 053f 2471 213e 575a b5bc 9c19 13bd
00000160: fe62 13be fe8e a33e 1fd2 f0bd 1c20 053f
00000170: 21be 2b3e c3bb 8fbd 17b2 61be 2ef5 23bd
00000180: 4e39 b93d d453 a53e 1d31 213e fa2e 223f
00000190: 8c1c 09be 8fdd 023d b657 b63e 7686 143e
000001a0: 3456 e73e afcb 2b3e 65d0 62be 480c d33e
000001b0: 4865 b63e c046 4e3b b4f3 d4bd a0d6 473d
000001c0: ad8c 163e 3181 b7bd 8f65 a13d 3a5b 8c3d
000001d0: dd50 bf3e 8a9d 983c 233f 22bd 48b8 eb3c
000001e0: fd70 a9bd 6697 63be b9db 52bf 2fac 47be
000001f0: 0876 4c3f bde2 17be 0bc9 743d 0425 bebe
00000200: 2e8b 8fbd a9aa bd3d c857 fc3b 1c5e 14be
00000210: 8654 f83d 1f0a 3c3d f5a1 4bbf fc91 32bd
00000220: f294 b6bc 99d4 e3bd ee90 673f 89d8 30be
00000230: f78e 0fbe 8011 adbc e8d0 22bd c1a0 19be
00000240: 3e08 c0bc 01a6 77be f781 9e3e bac1 b3bd
00000250: c7f2 72bf c1f5 04be 64e7 07be 0077 313c
00000260: d2a1 df3d 556b 093e 84e6 883e 2cc9 4eb9
00000270: 05d9 dfbd dfed 263e fdcf 11be fca3 90bd
00000280: a0ea c5bc 71d7 f3bd 6924 663d 7894 523f
00000290: 401a f13c 14dc 803c 7d91 503f d6ac 3a3c
000002a0: a1df 0c3e 2471 863d 40d4 3abd 4c47 acbe
000002b0: e917 94be 4620 ec3d 9c2f babd 140f 503d
000002c0: 7b43 613b e3b1 653e 4f35 693e 0aff 89be
000002d0: cf18 08bf b715 b33e 2779 26be c83c d4bd
000002e0: 91c2 2f3e 4f5b 803d 6532 69be 6b13 bcbe
000002f0: 47f9 88be 4b1c c23c 41a6 e33c ab12 0a3e
00000300: f8ca febc 097f afbe 7dc9 32be 2f94 b93c
00000310: 3b72 25be b12f 82bd ff32 2fbf 2e34 3c3e
00000320: c8b5 0bbf 7d72 2abe 13b8 1b3d 914e b9be
00000330: 2de6 15bf 3008 29bd 6932 873d 7c31 20be
00000340: 604d 03be e0c9 48be b1d5 a73e e02e 993c
00000350: 4bbd 443f 1c20 d23e c49e f4bd 66b5 cc3d
00000360: 2a4d bbbd af3a 8f3e 4d38 edbc 60c5 c93e
00000370: 3608 79be 6f96 52bd cdfc 09bf fe87 523f
00000380: faae cebd c2b4 e4be b7d0 c7bd e213 76bf
00000390: dfa4 b2bd 1802 153e 9fab 833e be73 7e3c
000003a0: c758 d23d 0089 c73c f5bb e53b f7ea d2be
000003b0: 67e4 cc3e b2e9 bd3d 7732 1c3e 0f17 29be
000003c0: 96f0 e33c 4c21 0c3f dbe4 2ebe 7852 663e
000003d0: f403 b63d 8562 2dbf dc19 053e e448 373d
000003e0: d059 9ebc 1861 87be 6038 363f 14ee 3ebe
000003f0: feaf 073f bcad f5bd 7a2b b5be 400f f6be
-0.062951185 0.8017182 0.059859052 -0.13058124 0.040567264 -0.10074445 0.7787363 0.45535463
0.5860614 0.077024475 0.10944725 -0.2360606 -0.16571578 -0.17652471 -0.0920125 0.020464823
0.12953307 -0.0076608392 -0.22984044 0.25054914 0.003921061 -0.40270862 0.07789419 0.044830903
-0.14520636 -0.122693785 -0.432117 0.40875524 -0.76003784 -0.030411376 -0.6401575 0.36443686
0.15411408 -0.9227883 0.056930475 0.21328963 -0.074830845 0.00549872 0.5600681 -0.60687864
-0.7453787 0.13417362 -0.35534808 0.48178166 0.101300105 0.014624596 0.014037319 -0.11827171
-0.027875263 -0.4876906 -0.11736463 -0.07995013 -0.021478998 -0.16465905 0.12594903 0.051301867
0.05896291 0.23011181 0.3311586 0.4313019 0.24961655 -0.053420287 0.22184122 -0.49053848
-0.09159294 1.0018227 0.17424506 -0.208355 -0.0769731 0.09728817 -0.29732168 -0.27498317
-0.6742541 -0.08364149 -0.46484616 0.64425486 0.045240626 -0.0974437 0.09233619 -0.07824545
-0.1738089 0.1386417 0.11485396 -0.16148378 0.52176243 0.15765816 -0.022137804 -0.035913095
-0.14393231 0.31945032 -0.117588274 0.5200212 0.16771747 -0.070182346 -0.22040592 -0.040028743
0.09044133 0.32290518 0.15741391 0.6335293 -0.13389796 0.031949576 0.35613793 0.14504418
0.45182955 0.16776918 -0.22149809 0.41220307 0.35624146 0.0031475276 -0.10398045 0.048788667
0.14702101 -0.08960188 0.07880699 0.068533376 0.3736638 0.018629808 -0.039610993 0.028774396
-0.08273504 -0.22225723 -0.8236652 -0.19499277 0.798676 -0.14832588 0.059762042 -0.37137616
-0.07008968 0.092610665 0.007700894 -0.14489025 0.121254966 0.04590809 -0.79544 -0.043596253
-0.02228782 -0.11124534 0.9045552 -0.17270102 -0.1401938 -0.021126509 -0.03975001 -0.15002729
-0.02344143 -0.24184419 0.3095853 -0.08777185 -0.949017 -0.12984373 -0.13271862 0.0108315945
0.10919537 0.1341985 0.2673837 -0.00019720633 -0.10930065 0.16301678 -0.14239497 -0.070625275
-0.02415973 -0.119063266 0.056187067 0.82257795 0.029431462 0.015729941 0.81472 0.011393746
0.13757183 0.065645486 -0.045612574 -0.33648145 -0.28924492 0.11529593 -0.09091112 0.05079563
0.0034372497 0.2243114 0.22774242 -0.26952392 -0.53162855 0.34977505 -0.16257153 -0.103631556
0.17164065 0.06267416 -0.2277313 -0.36733565 -0.26752684 0.023695132 0.027789237 0.13483684
-0.031102642 -0.34276608 -0.17459674 0.022653667 -0.16156857 -0.06356753 -0.6843719 0.1837928
-0.5457425 -0.16645236 0.038017344 -0.36192754 -0.58554345 -0.041267574 0.06601412 -0.15643877
-0.12822485 -0.19608259 0.3278022 0.01869911 0.7685134 0.41040123 -0.11944345 0.099955365
-0.09145577 0.2797446 -0.02895751 0.39408398 -0.24319538 -0.051412996 -0.5390137 0.8223876
-0.10091968 -0.44669157 -0.09756606 -0.9612409 -0.08722853 0.1455158 0.25716874 0.015530525
0.10270839 0.024357319 0.0070109316 -0.4119489 0.40018007 0.092730895 0.15253626 -0.16512702
0.027824681 0.54738307 -0.17079489 0.22492397 0.08887473 -0.67728454 0.12998146 0.04474725
-0.019329935 -0.26441264 0.7117977 -0.18645507 0.5300292 -0.11996028 -0.35384732 -0.4805851

bias f4 [10]
00000000: 391a 13bb 1025 e13d b183 9a3d 4f02 37be
00000010: d472 a4bc d8ab 5bbd 2a32 b7bd 76b3 36be
00000020: f17d de3d 2f3e 1f3e
-0.002244605 0.10993397 0.075446494 -0.17871974 -0.020074286 -0.05363068 -0.08945115 -0.17841896
0.10863865 0.15551065
